checkpoints/GDN_SMD/model.ckpt (torch, 118205 bytes, 42 tensors)

feature_gat.attn_l f8 [1, 38, 1]
00000000: cc7c 0651 a52e f03f 268a f509 b501 a9bf
00000010: a8d3 55c8 fd3c e0bf 84fe 3e24 12b8 de3f
00000020: a61a 22af f494 e53f 9c24 75bb c44e ef3f
00000030: 027a bd84 c846 bebf 9956 2493 29ae e8bf
00000040: 7612 2e4c e04b de3f 0fd3 5e11 5659 d9bf
00000050: f418 8062 8cd9 d93f 6c2e c48b 9631 d3bf
00000060: 770b 430f 4339 853f df4f c7fe a288 e53f
00000070: 21f4 43c4 f722 ca3f 76c7 4d58 f371 dcbf
00000080: a98f 52aa 4ef6 eb3f 0398 db2a 3152 e43f
00000090: f9ca a6f3 1f03 ec3f 789d 6000 9010 ea3f
000000a0: 00d3 78d2 1727 e0bf b13d 132d b03f e5bf
000000b0: b400 66bc 32cc e53f 3f1c f475 84a2 aa3f
000000c0: 8d90 f982 7d55 e4bf 3a78 99f4 c1bd bdbf
000000d0: f51f c17b 3cd6 d9bf b9bd 4af0 dc90 d33f
000000e0: 75cc 43cd c6fd e9bf 52dd 2738 aabe cf3f
000000f0: 99a8 2601 aca0 d7bf dc0b 4042 40e2 e53f
00000100: b1af 6c6e c182 f43f 65e7 b875 b22d debf
00000110: 8418 18c4 a581 f13f 62e7 4fac 72e8 cfbf
00000120: c721 f941 01f4 edbf 8844 39fb 9c1a ea3f
1.0113881268551266 -0.04884114977427982 -0.5074452317045273 0.4799847940412081 0.6744330807276426 0.9783652936249783 -0.118267567069303 -0.771260058771719
0.4733811134285938 -0.39607764908150583 0.4039030992429524 -0.29990161561065665 0.010363124755149873 0.6729292846816824 0.20419213374398829 -0.4444549906103171
0.8738168074237268 0.6350332104746034 0.8753814467257534 0.8145217902537487 -0.5047721014767319 -0.664024436986372 0.6811765365273659 0.05202115955221886
-0.6354358251669666 -0.11617672177951102 -0.4037009438075068 0.3057167383767268 -0.81222858515538 0.24800613157251888 -0.36918163406756715 0.6838685316037032
1.281922751756593 -0.4715391301757477 1.094152227394745 -0.24928124822309444 -0.9360357559717664 0.8157486826622895

feature_gat.attn_r f8 [1, 38, 1]
00000000: 1459 fc54 9bf8 de3f f6bb d55d 83b5 0540
00000010: 82f7 3b56 2f66 34bf 6dce a8fa 182e 313f
00000020: 9910 4c17 5999 c63f dffa e572 46b5 403f
00000030: f7bd 573e 1570 1240 dbe4 2548 01ac c0bf
00000040: 90e0 15cc 20c4 513f 0f18 64ff 76bf 2240
00000050: b938 8a00 49e0 dd3f 8db1 aa85 95e7 2140
00000060: 401d 84a0 8251 d6bf ae08 a857 a933 ea3f
00000070: a660 3848 57e9 d03f 17a8 f81a 1602 d6bf
00000080: 5338 8504 dde4 3c3f 19ee 457c ad09 2e3f
00000090: 39cb e3f3 7c19 263f 1dd1 3df7 14b6 363f
000000a0: 0258 1d49 7fa3 2440 a028 dc36 7a29 38bf
000000b0: a45a ba13 4923 563f 4884 5a2d 6717 0bc0
000000c0: 237b 0074 03a7 2ebf 228e 987c 1733 1240
000000d0: 43d6 3e2b d4af 6dbf 7595 e5f4 158a 8a3f
000000e0: 97b6 a431 4b3c 30bf d41f 9b28 5651 a03f
000000f0: 9c01 013f 00b7 2340 3e90 2fd9 2145 2a3f
00000100: eeee fed6 07af 533f fc70 6d40 04f2 2340
00000110: 7cb1 98e7 f30d 433f 996e 9664 24b1 cabf
00000120: 9c8a e106 dce9 a0bf f085 00a6 bc6e cc3f
0.48392375277889355 2.7136294680453785 -0.0003112664764869309 0.00026214704363101174 0.17655480992846576 0.0005098909366977009 4.609456037621832 -0.13024917624333096
0.0010843582425348643 9.37395475479937 0.46681428005912157 8.95231263836538 -0.348724991563774 0.8188063346899719 0.2642420010829575 -0.3438773406402346
0.00044088741244230795 0.00022917025320255758 0.00016860628415534833 0.0003465462862018031 10.319330487091069 -0.0003686831831691915 0.0013511861460863495 -3.38642726356969
-0.00023385922577375773 4.549894282160979 -0.003623880760609295 0.01295869020095595 -0.00024773441113521685 0.03187054868391184 9.857423752663458 0.00020042455852753606
0.0012013985215010808 9.972688687667407 0.0005814972821034793 -0.2085309497023118 -0.03303420623776285 0.22212942224091092

feature_gat.bias f8 [38]
00000000: 05a1 b59f 1de9 b23f 310d b159 c39f b23f
00000010: a44e 0d87 0c68 a9bf a8cf 874c ba2a ba3f
00000020: 3059 fc11 8d17 45bf 315d a7ef 6e17 b13f
00000030: ee1e 125b 65bc acbf cf76 d2eb 04dc a2bf
00000040: 6ebd f960 28e8 b13f 0ac9 4a99 9806 b3bf
00000050: 3942 6e13 f0cd b23f b7bb a4aa 457c b13f
00000060: 4e9d 832c cbbd aebf 97a0 e788 e03b 913f
00000070: 2cd9 60fa f031 b43f 47d5 3bdf bc78 b6bf
00000080: 5f01 ba41 2b36 ae3f 47af d220 4cbb ae3f
00000090: 909b 852e 3684 ad3f 9140 6e7d fa78 ac3f
000000a0: 63de f3ca 782d b1bf c0be 1ba8 5a74 a7bf
000000b0: 5769 c80c 2893 b13f b4f2 7559 d156 b6bf
000000c0: 4605 a190 5e97 a6bf 6d24 6bea 3733 a93f
000000d0: e77c fc40 a06d b6bf 28f1 182e 6425 b13f
000000e0: 1d04 5cbe f69e b0bf 54c2 d347 016f b73f
000000f0: dd8d 355b 2ddc afbf eb42 e03d 75b7 b03f
00000100: b7a3 43f3 d0b6 a53f 2846 df73 8838 a7bf
00000110: 71ac 900f 134b b33f 7088 5a4f 7e86 b03f
00000120: a531 890f e211 a8bf b4ad 98ba 8cec b23f
0.07386956357152392 0.07275029124962341 -0.04962195538123851 0.10221447342320167 -0.0006436766452420414 0.06676381445810332 -0.05612484680847084 -0.03683486345947317
0.06994869582716998 -0.07431939833148618 0.07345486139662051 0.06830249229527295 -0.060041760619976445 0.016829975467687133 0.07888704407455255 -0.08777981233636921
0.05900702645613153 0.06002271557494381 0.05764931981939647 0.055610492526399054 -0.06710009531877285 -0.04580958654503098 0.06865167915421942 -0.08726223405933348
-0.04412360682955323 0.04921889053873305 -0.08761025988177416 0.06697679639268428 -0.06492559573600017 0.09153755191415175 -0.06222669351953034 0.06529934654851004
0.04241040200742623 -0.04535318769889002 0.07536429529197776 0.0645522063955768 -0.04701143684050927 0.07392196231437859

feature_gat.fc.weight f8 [38, 1]
00000000: eedb 0c27 a57f db3f ec98 8fb4 64d2 c93f
00000010: c744 e3e6 9e94 efbf 2529 4ad9 5a13 9c3f
00000020: 17ca cd64 bfa0 ef3f 459d 7af5 64ff d33f
00000030: 07f1 fca9 6316 d5bf 9f5e 9f7a 4f4f e8bf
00000040: 005c bae8 0375 ec3f f2ae a6c0 3b5b e9bf
00000050: 6670 17e0 7d59 f23f cdea fa92 ef87 e23f
00000060: f86e 604e 8108 cdbf 9812 e90b 503e e73f
00000070: 1b3d d078 b3f8 b43f ec60 be00 c0ee b53f
00000080: cc95 6b50 62ff e73f fa9f 0017 0974 f03f
00000090: 7a95 c774 7782 da3f c908 3da2 c05f be3f
000000a0: ce85 293b 3a4a f9bf 1709 3f3c 232c e9bf
000000b0: 90d7 3e9b 7cc7 df3f 74ce 68b6 b161 cdbf
000000c0: 9201 838a 0c6d d0bf b151 2ce6 4390 e63f
000000d0: ecd0 6db3 854d e0bf d269 ff82 3110 d83f
000000e0: c039 ec35 b9ee e2bf a2ef dadb 280c e43f
000000f0: 56b8 dc40 1ab5 f2bf 683b df4e 63e9 ec3f
00000100: 219a 5805 fe91 d83f 9fb5 8a5d 2355 f3bf
00000110: 5f0c c515 718d dd3f 634e 9227 2520 c03f
00000120: 514d 8616 837e e6bf 1c5d 0b7e 1fd3 e33f
0.4296658402776633 0.20173319641543885 -0.9868921765829776 0.027417583000478935 0.9883725136590468 0.3124630353217593 -0.32949153519054203 -0.7596814532252728
0.8892840905635921 -0.7923868906704838 1.1468485597206608 0.5790937300401652 -0.22682205512034392 0.7263565285325795 0.08191987704798402 0.0856742860618202
0.7499248095234008 1.0283289812596181 0.4142130508829137 0.11864856682680903 -1.5806219397567136 -0.7866378952678897 0.4965507045811757 -0.22954389006337161
-0.25665582205331205 0.7051105018204479 -0.50946316761704 0.37598836701149907 -0.5916410496882278 0.6264843267485853 -1.1692144902877053 0.9034897366017107
0.3839106609542871 -1.2082856801965602 0.4617579186053202 0.125980991670633 -0.7029433669980937 0.619521852665375

attention.0.weight f8 [16, 190]
00000000: 8df5 f9f9 6379 b4bf ab6f 9083 41c5 d9bf
00000010: 0119 b50b 2955 b8bf dd72 041b 2870 bfbf
00000020: a2d9 75f8 ee5e a63f a65f 7537 9c84 9d3f
00000030: 5628 1d77 ee22 9c3f 859c 740c dff5 62bf
00000040: e2af f18b 2d98 b0bf cede b573 6bec a53f
00000050: d8f7 4d92 34c6 cabf 5ba9 76f7 7b7b b4bf
00000060: 92ba b21d 87a4 c7bf ba57 40ee 142f 923f
00000070: 3242 9a4a ac3d 973f 0965 ba14 aef5 c0bf
00000080: fff6 d107 3d74 ab3f 505a b420 fdcc aabf
00000090: b72c f3f8 78fe b2bf 6ac4 c19c 82d0 89bf
000000a0: 1f6c a266 dcba c0bf b5c4 03a3 76cb 8ebf
000000b0: 0aac d89c c8c1 aebf aac7 d07c 474c b9bf
000000c0: b1cf 914c 8b62 adbf 7920 6688 8855 b9bf
000000d0: e0f6 312f 6604 91bf bf7e cb82 0d28 99bf
000000e0: 7eeb edb4 de6a ad3f 86ba 9a3a fe47 a03f
000000f0: e7ea c6a8 3ab4 b8bf c1ab c013 2317 c2bf
00000100: f309 110b 9cf6 ae3f a549 28d7 d878 90bf
00000110: 0f42 612f 3a34 bebf d07b 964b b702 b2bf
00000120: 811f 081c e7f8 a9bf e780 abae 2969 a83f
00000130: d600 90d1 6bed 623f cc52 69c6 6398 ad3f
00000140: f39d 4062 fb6b babf 8da7 605d 3dbf afbf
00000150: 94ac 31d5 df32 9f3f f5c5 1b02 1a10 64bf
00000160: 46c5 53dd f911 a1bf 42dd 3d6c c22b 5b3f
00000170: 08e3 0d60 4c80 abbf 075f 77a7 82ce a2bf
00000180: 0978 6e9a 1fc0 53bf ca79 c0e9 dda5 a13f
00000190: 2eb5 6527 f4d7 a43f b48b b01c 4ec7 9bbf
000001a0: 7d30 cc7b 8240 9b3f 7356 c35f cde8 b33f
000001b0: 232a cbe1 b4cc 813f 2c8d 928f f598 a2bf
000001c0: db3e 30ea a822 aa3f 378e bf73 c648 a63f
000001d0: d35e 0560 2ec6 923f a0a1 9564 faf9 8e3f
000001e0: 14f2 10e9 3b3f b53f 1dc7 55b2 ce51 963f
000001f0: c744 039b 2e4c 653f bc22 0011 532e a03f
00000200: a2c9 e072 be61 923f 25c2 5a51 e8c3 9dbf
00000210: 8d22 5f83 9554 a43f ada9 54dc 4ce0 8ebf
00000220: cd71 34f6 da82 b63f f057 038c 48ae 7e3f
00000230: 39e2 0ce5 b78c 993f 4584 bc50 abcb 973f
00000240: 935b 11a2 a16b 823f e04a 150b 0593 aa3f
00000250: c3d3 ffd2 f5d9 9ebf c537 8fd8 a85b 9fbf
00000260: f5d8 7c9d 3f60 b6bf 191e 018d 7f4b b23f
00000270: 00c5 bdf3 51de aebf c895 7732 d424 a6bf
00000280: 0365 df48 2e74 8ebf ff80 83f1 79af 7e3f
00000290: 6a68 b146 5894 a83f 59d3 aa72 f9ea 953f
000002a0: abfe cc1e de0d a3bf f63c 8504 979c 8bbf
000002b0: 37b5 5d27 18e3 b53f dba3 c177 f752 6ebf
000002c0: 45f4 8eba 3cfd b3bf 46a2 46bc 6ecc 923f
000002d0: 6063 307f d77b 6c3f 9bf0 fcba 3ee5 b83f
000002e0: 858b 2e0c 82ea a43f 8d19 52c1 3dd0 a43f
000002f0: 0e2e b0d8 caa1 873f ca8c e680 66db a2bf
00000300: e88c dd67 d3ef 60bf a977 eae7 25eb 9f3f
00000310: 2c64 d546 d66a 883f 227e fc4a c056 a7bf
00000320: 9c1d 91bd 35fc a13f 0233 5fbd 1a4a 9abf
00000330: f8bb 56d4 de3b 923f 6a9d 4a93 5e65 7b3f
00000340: 71f4 fd35 6fb1 83bf eb60 38d1 eb71 793f
00000350: 8248 3a3c 00e1 a3bf f3b0 1ee2 82d3 c03f
00000360: b7e0 b431 8836 963f 6c73 a8a7 6092 b03f
00000370: 5ed2 f21e 47ea 82bf 8e5d 9545 ff14 90bf
00000380: 6c4f 9493 1475 b1bf edf5 4ed9 6032 9cbf
00000390: ec73 f7ff d961 913f 50f2 9b89 a9ee 8bbf
000003a0: cf27 ef5f 7b8e a1bf e07e 6a91 0224 753f
000003b0: 0c47 223c aa67 a53f f50d b1fe 2cda 783f
000003c0: 19de 70b8 1e04 a2bf 9d43 310d 007f 76bf
000003d0: 6b50 6111 cb4e a0bf e80f 623b 0c56 a0bf
000003e0: 1404 12cb 1680 c13f ba08 f915 adc4 aebf
000003f0: 6dea 9b36 bcec b6bf 9f17 03f2 0d46 9bbf
00000400: d928 4fb2 7133 a5bf cfb3 fa64 5e60 b63f
00000410: 5afd 1861 84fa a23f a40c ffec 8bc2 9b3f
00000420: 1214 2e30 0c14 af3f b9c9 341b 965b aabf
00000430: 232c e23a 55dd 813f 866c f638 1ad4 88bf
00000440: ef1e 57a5 b562 99bf 2efc 7227 4c99 adbf
00000450: bb17 1e83 76b2 a23f 0f87 7167 43ec 80bf
00000460: 8392 3ed3 24f5 a2bf 42bf 2de5 aa1a a7bf
00000470: 7b18 9e33 52c5 aebf 60d0 7bd9 ad3f ba3f
00000480: 6af5 a5d1 176e 74bf 1824 b3bf c0e2 813f
00000490: 13b5 31a5 fc7b 9cbf c656 3a71 59d8 a1bf
000004a0: c822 b548 8354 b3bf d1d6 d503 1283 aabf
000004b0: 8bb6 e624 52b3 a63f e606 7c10 ad47 903f
000004c0: 6b2c e137 647e a1bf 010a 135d 7de5 9a3f
000004d0: 4816 51c1 ae97 a73f f623 e230 043b 923f
000004e0: b793 9b68 fae3 b13f 7bfd 88e2 865f 5b3f
000004f0: f716 3960 8d89 8a3f 0ea1 c534 5bdf 77bf
00000500: 2afa 1064 2e21 a9bf b311 5cd9 3749 aebf
00000510: 3e64 2717 c707 c53f 439e 536b a3af a6bf
00000520: 044a 4681 bae3 9fbf 6745 c88e 24f4 a2bf
00000530: 22ab 4616 3e71 a7bf fd2f 3bab b8b8 b33f
00000540: 6bb2 0bfa 97e5 943f 80d1 fa62 6011 8ebf
00000550: 41f9 5177 fd28 afbf 5972 adbe b7d0 9a3f
00000560: b505 e65f 6947 9a3f e09d dd39 ed46 4ebf
00000570: 4dd7 8b12 90e9 b03f f080 f416 038e 7abf
00000580: f577 54cb 7d68 793f 8924 9863 e0c4 a63f
00000590: f68f 539d c5a1 a23f 95df ff28 ce33 9e3f
000005a0: d704 1e3c cc87 8cbf 3fd4 ae19 9c0a a7bf
000005b0: d071 da39 948c b33f 77d2 0235 9f6d a53f
000005c0: 181e f671 68df acbf d05a 8172 fff9 a73f
000005d0: e7ed afd1 4cfc 993f e072 805b 7108 923f
000005e0: 9af2 4319 b174 8dbf 898d 326b 152e 97bf
000005f0: 2753 d160 e17f b9bf dd00 731f 4afb d0bf
00000600: 3bf4 93b8 19fd c2bf 8b54 28fd 2685 c2bf
00000610: 6277 af77 5f72 b23f 7739 a1e0 2d27 9ebf
00000620: 0ccb 5fbe 16a0 a23f 50ed d88c 621a 923f
00000630: 7e2d 688a f502 98bf 3528 1df1 8815 ad3f
00000640: 833d 2c36 e1f8 cfbf 8e4c 6cd2 df95 b3bf
00000650: e860 b6cd fb50 c0bf ed31 095b b6a8 bcbf
00000660: 18a4 86db 003e b8bf e2a2 f331 d222 d0bf
00000670: dffc 1e8c e93d a3bf 1322 8ff3 874f aabf
00000680: 4b1c 7d4f 2981 a3bf 1030 063b 5344 bfbf
00000690: 9f59 1620 9aa1 bdbf 32a1 7f3b 90e0 b1bf
000006a0: a09e d3e3 d5e6 a6bf 23fb 9e9a c759 b8bf
000006b0: 5221 4e6d 7ad0 b3bf 6827 d704 58c5 8ebf
000006c0: d79e e8a8 9687 adbf 551b 17db 28d8 a3bf
000006d0: a92c b2b8 3299 a6bf eb4a ae32 acb1 b0bf
000006e0: f5c7 0d46 ceed c4bf 1b7d 1176 5cd9 9dbf
000006f0: 92be c083 b69e 5c3f d72f c643 cbf5 ae3f
00000700: 24bd a46e 6cba b9bf b2c8 52c3 a6d2 b0bf
00000710: 2a73 c36a 48b7 97bf 51c3 541c f0a0 adbf
00000720: 0fd2 e036 119a a6bf c5f5 d871 67ba c13f
00000730: b005 24e4 41c5 a7bf f650 07d8 ee8f babf
00000740: 895d 4d63 629a 583f 8176 f6ca 33f0 a0bf
00000750: 49a4 3c2c 6fa0 93bf d6d5 3b49 fdea adbf
00000760: 4483 7157 c348 9f3f 58d0 aa01 9f36 843f
00000770: 2548 bb79 801a c73f cd0d 4fc9 9237 73bf
00000780: 7270 4680 b753 b9bf c685 4843 8846 a63f
00000790: d7a1 3600 dd2d b7bf dfbd fe22 7591 c43f
000007a0: e304 c7d5 7ae9 743f 8b00 917b 1593 a13f
000007b0: 49b9 f928 2574 b2bf a789 0251 02a4 883f
000007c0: cfb9 1767 3fc9 a5bf 178e fa3e 19fd b0bf
000007d0: 29da c9fe 8d26 9dbf 1031 7097 85d7 60bf
000007e0: 0c9b 64cc fcb6 b83f cf8d 7d1c e6fc a7bf
000007f0: 3c5e 30e9 0edd b13f aadf e822 6d4a a43f
-0.07997727253856209 -0.4026645455176047 -0.09504944358659274 -0.12280512485126445 0.04369303496325762 0.028826180348317763 0.027477003116736697 -0.002314506189253831
-0.06482205072978744 0.042819364428337545 -0.2091737474801778 -0.0800092200430859 -0.18470848989587246 0.01775772766276138 0.022696201375369714 -0.1324975587092825
0.05362120361767885 -0.052345190279244336 -0.07419544294241374 -0.012604732903328936 -0.130702543367847 -0.015036513185324155 -0.060072201868330025 -0.09882017895941311
-0.05739245710074615 -0.09896138505985332 -0.016618343954624915 -0.024566851718985868 0.05745597799883394 0.031799263624056315 -0.0965000783971096 -0.1413310858200401
0.0604752315052969 -0.016085994846500324 -0.1179844251321429 -0.07035394282728125 -0.05072710244354451 0.04767732865525592 0.0023104768592930687 0.05780326649679565
-0.10321017407169801 -0.062005918167712705 0.030467507731753843 -0.002449084088646409 -0.03334027125118637 0.0016583822880116982 -0.053713213658687364 -0.03673179907099038
-0.0012054737687559067 0.03446858862320175 0.04071009617733022 -0.02712747621638885 0.02661327248192479 0.0777710303112487 0.00869122804706019 -0.03632323625176989
0.05104568346734847 0.04352398074095414 0.018334126101165204 0.015125232882113704 0.08299612464993117 0.02179644549818881 0.0025998029960666333 0.03160342772031785
0.01795098854217659 -0.029067640271650447 0.0397078249803303 -0.015076256250343112 0.0879341937147224 0.007490428339414365 0.024950860362169733 0.023237873842962626
0.00899435306398092 0.05190292129795693 -0.03012832737291028 -0.030623090951671168 -0.08740613551058003 0.07146451179971115 -0.0602899179492713 -0.04324973217061828
-0.014870034788986524 0.0074915660299839084 0.0480067812247434 0.0214041687238081 -0.037215176830156814 -0.013482265305951629 0.08549643479428402 -0.003701670966667054
-0.07808284334801481 0.01835797332901936 0.003477021114587961 0.09724800171983576 0.04085165404037298 0.04065125450965743 0.011539063203620106 -0.03683014224523047
-0.0020674828546575104 0.031170456199667438 0.01192252544085378 -0.04558373370514014 0.035127334013448336 -0.025673311050741006 0.01780651255620211 0.006688470301617991
-0.009615773043828409 0.006212159310529079 -0.038825995780954706 0.13145481148729452 0.021692398103568346 0.0647335442849461 -0.009235911972021057 -0.015705097791707305
-0.0681927547742 -0.02753592802377185 0.01697483658596248 -0.013638805877684096 -0.03429017587730209 0.005161294967052504 0.04180652603203158 0.006067443620000547
-0.035187683119542075 -0.005492210580158832 -0.03185114466819602 -0.031906492470653636 0.13672146716638223 -0.06009426968786742 -0.08954979260662706 -0.026634424110646312
-0.041408112541448445 0.08740797009768574 0.03706754384301787 0.027109323825936685 0.06069982612738313 -0.05147999841792079 0.008722940310937293 -0.012123303283081432
-0.02479060956628037 -0.057810191932269425 0.03651781416469598 -0.008263136476844872 -0.037026549135849705 -0.04512533233253048 -0.06009919052216702 0.10253416595134146
-0.004987805407265492 0.008733278131687824 -0.02781672247185891 -0.03485373980690336 -0.07550831341826403 -0.05178123757188547 0.04433685970739728 0.015898422366268948
-0.034167415448416026 0.026266058736618806 0.046079121683345436 0.017803254588702765 0.06988492063426475 0.0016707246051196045 0.01295767259501755 -0.0058282435169092605
-0.049081277575613605 -0.059152360232505606 0.16429985647735806 -0.04430876431598254 -0.031142152920049085 -0.03701891177127941 -0.045785846919292675 0.07703737431000941
0.020407080303743202 -0.014681580563185248 -0.060859604659514684 0.026186820042641255 0.02566303870981353 -0.000923982461000724 0.06606388523854641 -0.006483089512841142
0.006203166374033832 0.0444707986426432 0.03639047189224691 0.029494496586238112 -0.013930888733514042 -0.04500282109749109 0.07636381542619763 0.041851973744461306
-0.05639196768884974 0.046829207160660524 0.025376510904591056 0.017610331735442908 -0.014382728179492422 -0.02263673273831793 -0.09960754979813356 -0.26533749648298316
-0.14834901344866744 -0.1446884857292939 0.07205769226081096 -0.029446331820787344 0.03637763093856536 0.017678775641099265 -0.023448788235368216 0.05680492347035263
-0.24978270669133104 -0.07650565039902998 -0.12747142357398578 -0.11194934580380052 -0.09469609603424123 -0.25212530973526104 -0.03758172831975925 -0.05138802383550369
-0.03809479804345325 -0.12213630858440205 -0.11574710162526579 -0.06983281567193414 -0.0447298851593676 -0.0951199295513843 -0.07739987534126172 -0.015024840972632084
-0.05767508327363451 -0.03875854181710873 -0.04413755898084421 -0.06521106946301429 -0.16350725575063021 -0.029149479585950915 0.0017468244905209135 0.06046900942155247
-0.10050084782846064 -0.0657142855514248 -0.023160106197667542 -0.05786848398054779 -0.044144189785957015 0.1385011011024472 -0.046426829432685834 -0.10375874303946717
0.001501651842053283 -0.033082598233915135 -0.019166695666317932 -0.05843345183340502 0.030551006519434112 0.009869806517009902 0.1804962725059919 -0.004691670784214575
-0.0989336670085679 0.04350686856583823 -0.09054356818399555 0.16068901261085863 0.005105476212009938 0.03432528622988781 -0.07208473444345488 0.012031572434641214
-0.042551022848659074 -0.06636197841231027 -0.02846738689046383 -0.002055893822676798 0.09654216756881001 -0.0468513402727485 0.06977933114136986 0.039630327712472393

attention.0.bias f8 [16]
00000000: 885e aa17 076f a63f c2ce ef7f 6b37 9b3f
00000010: b3cb 5e23 dfbe b1bf 894a 01fd e6ce 933f
00000020: 1e66 7c0a 8678 a8bf a2f7 8bcd d950 b73f
00000030: fd05 f7d4 72f1 bbbf 851a b7f4 44db 813f
00000040: 9b50 7e5e ee00 c0bf ce4c ec29 2e57 983f
00000050: 36e5 e62e 8a63 aebf fb4f cf1e 7724 afbf
00000060: c712 d457 39c1 a73f 88d8 545b a24a b1bf
00000070: 21ce dcfc 5b3a 45bf be0b fdfd 22ed 85bf
0.04381582416425284 0.026578597720756 -0.06931871999294863 0.01934395713062512 -0.04779452207567324 0.09107743519049774 -0.10915296267832982 0.008719004362217628
-0.1250284158128395 0.023770066555766793 -0.05935317823918711 -0.060825083266223566 0.04639605710148014 -0.06754507760783401 -0.0006478261145503353 -0.010706208587753948

attention.2.weight f8 [16, 16]
00000000: 44f3 cb1d e3ba c03f 31b8 cef5 f735 c03f
00000010: e018 dd72 c761 b1bf 0c68 034d 543a 813f
00000020: 5793 7bb7 ad32 92bf 4523 383e 13ea b8bf
00000030: c0d2 f23d 13ae 963f 613a 60f3 99b1 b4bf
00000040: 4abd e910 2010 ca3f 1df8 1ec7 35b0 c6bf
00000050: 4e02 0fff f903 c7bf 46af e416 5b02 c3bf
00000060: 215a 132a b935 bf3f 685f 48e7 a899 d4bf
00000070: 1a62 6086 4fd8 b1bf b9fe dd2d 3124 c4bf
00000080: 09f5 53d2 42ee bf3f 3e05 aa97 44cc bebf
00000090: 694a 26f9 672a a5bf 0b05 942e e82a c03f
000000a0: 6a43 aded 37a8 ae3f 0446 d38a c836 c6bf
000000b0: 875f 6680 7837 c2bf 08f5 380e a0af 72bf
000000c0: 9a9b 40bb e235 60bf 7f51 3c33 1747 cf3f
000000d0: 64fb 9172 bad4 823f bc63 40c5 c9f1 c7bf
000000e0: 388a 6731 b3ee d13f 60f1 0a20 613c a83f
000000f0: 2b93 5a1c 4cf8 c63f 79b2 51a7 13b3 c1bf
00000100: 50e3 7de2 8004 ce3f 851e c2fe 7b94 d23f
00000110: aa5c 7bfe 5cd0 d0bf f1c3 2819 7052 91bf
00000120: 1fec 6532 2935 ccbf a77a a753 0dbc 7c3f
00000130: 6ab0 400b fece cabf c275 353d be9e c8bf
00000140: 4677 0ab9 a21a b0bf d50b 8891 cfbb aebf
00000150: 7e34 9ede 633e cfbf b072 ad8a 1404 a03f
00000160: d82e a89e 2da1 abbf b24c 4b44 f026 93bf
00000170: ebc2 a9be 890e a7bf 2d05 5622 8727 c03f
00000180: 3a5a f5a5 3b4e bdbf 923d bd84 f11c d0bf
00000190: 32e6 1b71 318d ad3f a16c 9b8d bd41 9bbf
000001a0: 99d1 923b bdcf c03f 3321 ca0b 8131 bb3f
000001b0: 9e60 2a60 69db c7bf f44b e683 c2fd c33f
000001c0: 0b5d 4ec6 c758 c93f 51bd fbd7 36cc cbbf
000001d0: 66a2 236c 833d b33f 5511 65ae f68e cc3f
000001e0: 12ab 6c7c b5a8 d1bf e896 9248 498b d63f
000001f0: 0b8d d6e9 4544 d2bf 07bf 4a03 bc29 7d3f
00000200: 8d2d c7f2 97e3 cf3f 2fa1 ac1b 2659 b53f
00000210: 5c8d ff70 39f1 d5bf e723 5c06 2825 d2bf
00000220: 9d48 fee0 d767 bebf b99a f6a6 1150 a7bf
00000230: 3040 cbd9 198a c3bf 408b 486b 01b2 9abf
00000240: d0b3 f45d 23e1 cabf ca7a 428f 6a32 c53f
00000250: c04a cee9 eb40 d5bf a726 67d4 46ac cfbf
00000260: c50f f541 e835 d53f 36a0 46f9 d22b c2bf
00000270: 2e4c ccf1 9497 b43f 9d40 434c ac32 cabf
00000280: 58b6 a0db 7e53 d6bf cb8e 057f fba3 7e3f
00000290: e094 8cb7 7a9b 95bf c8cd 2c67 1d5e b63f
000002a0: 39d3 4de9 8407 a9bf bf47 9e3b 0e1c bebf
000002b0: 0f2d 524f 9aa2 b63f 0db0 150b 5f6e c03f
000002c0: 7ee3 43d1 8346 b33f dbbc e78a f220 c7bf
000002d0: 5041 76a5 7e51 c93f cfdf 4d2d d625 c63f
000002e0: 92c8 846e b88a bc3f 3d5a b68a 4b30 ce3f
000002f0: 85f9 d648 260a d4bf 3461 dbc5 d6a7 b63f
00000300: 93e6 2e68 5878 c73f 4ab5 d372 7736 c6bf
00000310: 96f7 a35a 5a73 923f 91f2 9ff2 d053 b7bf
00000320: 2390 6657 1730 babf b6ac f13b a5fb d23f
00000330: a03a b642 c7ba bdbf e294 f266 9207 d1bf
00000340: fc5f e859 798c c5bf 551c 0716 0b43 c8bf
00000350: 2d8a 78e6 188a cfbf 590d f38d a01e cb3f
00000360: 0311 c1e8 01c0 ca3f cf6c 70be 74ed d1bf
00000370: c474 ddd2 4201 c5bf 0a61 3dc8 31ae c23f
00000380: c934 f7c7 f15e b83f 2762 191e 4250 d73f
00000390: cab3 82da ef7d ccbf 30e2 4634 aad5 c8bf
000003a0: 39a5 483d d0a5 d3bf ccb1 0890 40f6 a8bf
000003b0: d302 c650 c075 b63f af9f efd7 a7e5 cabf
000003c0: 87ec 55d6 f19b d4bf e8e3 d397 0891 d13f
000003d0: 81d5 9e75 1ef0 cebf a0f8 d7e6 cef5 a8bf
000003e0: f0c9 e87f 75e8 d63f b0d9 918c aa46 bbbf
000003f0: 0c38 5850 f00d d33f d14a 0c13 ae8e d2bf
00000400: 0b54 2e6e 17cf d1bf bade 45bf 3379 d5bf
00000410: d115 01dd 9dce cb3f e9a1 64e8 6926 92bf
00000420: 039b ee9b 1b66 c53f 202c 9c8d 20f2 c1bf
00000430: 62dc 5532 3b09 9f3f e30b 1d58 3cd1 d33f
00000440: 61a7 ee8c 07c2 ac3f de4a 144e a7c2 c03f
00000450: 274a b5ed a36a c0bf 3aad a8bd dd08 b63f
00000460: 6f1f ec25 bdd0 babf 7734 2849 ccc1 bbbf
00000470: 38c6 2db8 943f c9bf 94fc e48a 5bb7 a73f
00000480: a430 0a9f 48ac d7bf 5e16 9238 2c45 b03f
00000490: 3b6d 0b12 fdd1 b1bf 556b 971a 822d b53f
000004a0: b3cb c2f7 5f2f b83f a389 53fc 7e62 cfbf
000004b0: c717 70bd bbdc acbf 891e ccc9 f234 c93f
000004c0: 0cb2 6bcf 033a 183f c04b 3466 a5f8 a73f
000004d0: 7041 73cf d77b c23f 084c 57ec 730f c83f
000004e0: c8dd f162 545b b03f 5917 ea2a 6714 cf3f
000004f0: c65c 300a 87f5 d2bf ed61 46a5 7743 c93f
00000500: ff22 aebc 3582 b43f 469d 47fa 3d36 a63f
00000510: 129d 2d9f b840 9cbf c703 9397 6be4 c0bf
00000520: 2e37 2914 1096 c83f e67a c117 18c7 d73f
00000530: 212c a36f daac d7bf f76b ec15 fafe d6bf
00000540: a222 54ef ad7b 853f 75dc 8ff5 6c49 b63f
00000550: e4d3 0944 8fed b2bf 0b98 8d7f 32d6 d4bf
00000560: 0669 6fb2 f13f 8d3f 2921 4c5f 0556 d1bf
00000570: 5eea c92c ef96 d13f 2e47 63ad 64c6 d1bf
00000580: 34b6 6f8a 3ea5 933f 6f2f 4ef4 1939 acbf
00000590: 2939 3ee3 7a39 b9bf 035c eea0 0587 a23f
000005a0: 5e11 54c8 0533 d33f 1689 0731 d583 d13f
000005b0: b29f e1e9 4e51 bbbf 77d0 7909 3109 adbf
000005c0: 5fe3 09c8 b42d 7b3f 9532 ef65 0b88 ba3f
000005d0: f4e2 c65d 2584 c1bf 58b5 dbbb 0c7c b73f
000005e0: c87f 17f4 addc c03f 4402 6240 176b c03f
000005f0: b85c 4acb 54ac c1bf 42f1 02d8 53e3 c63f
00000600: 10b0 c81b 490e d7bf ee2b 3cf5 1225 c9bf
00000610: 77e1 f278 9a29 d23f 2fda 55ec 3d62 81bf
00000620: 8d88 8f50 8ab1 bc3f cde5 bdde ef5f cb3f
00000630: f465 7a7b 3870 bb3f f29e b661 6867 c63f
00000640: 36be 336a 4eaf c23f 6d8e 96a0 1e1a d3bf
00000650: e738 db78 efe6 c3bf 8c3e 61cd 0b21 ce3f
00000660: a4fe 9b9d 808b bfbf c07b 6df0 c3b3 d53f
00000670: 9552 bd36 9888 b8bf 0ca9 bb07 4fd1 d13f
00000680: 24d1 bb20 a269 8cbf 523d 0c6d 8e6a 8cbf
00000690: ffd7 f76b 8ec9 d4bf 59cb bd86 289f d6bf
000006a0: 8b84 0aca 6c4c ba3f 9735 a369 f1f9 863f
000006b0: 3d7c c06c 8b84 d0bf 791c d1d1 1ba9 d3bf
000006c0: a94f 8474 e1bd b9bf e286 1657 00a3 a53f
000006d0: fc33 9294 0c57 d6bf 7296 1344 4029 ae3f
000006e0: 486a 33aa 4ef7 b83f 3cbc 7811 7d93 dcbf
000006f0: 8814 28c9 f960 c23f d0c4 eca6 0019 c6bf
00000700: 93f7 2d37 b671 b53f 3f3c e990 b0ea b5bf
00000710: 5756 f905 f000 d6bf 2890 fece 3f9b a8bf
00000720: c22f 9a1f cffc d3bf 086f 6d8c 986d ca3f
00000730: 9932 7ff7 3252 d5bf 96b2 9192 c4d1 ccbf
00000740: 34e9 f7e1 b1b7 d1bf 1fc1 e03c 0d62 a9bf
00000750: a566 cb4d 6100 d4bf 6e0f ecb3 4078 d0bf
00000760: 0272 c293 b348 bf3f 564a 919d 6f8a cabf
00000770: 1b05 80d1 4231 a1bf 0aff 582f 0e4c aa3f
00000780: 3a16 e825 57b9 ccbf 42e7 845e 0b41 48bf
00000790: afbf fb05 1069 cd3f ec46 3b69 248c dc3f
000007a0: 5a6a 0da6 6908 c73f 624f 9df8 fec5 d8bf
000007b0: e227 7e2c f5a5 973f b393 a125 6c0a d33f
000007c0: e4cd 2f5b 2b21 b63f c847 70f0 a29c bd3f
000007d0: 6709 e3e6 aabc d03f 0db0 c63e cde6 b5bf
000007e0: 1531 9699 4556 c03f 6f9a 3165 07e0 d53f
000007f0: c449 ae4e 5a01 af3f 935d d482 2f1e a33f
0.13070334391513871 0.12664699079818 -0.06789824060715288 0.008412035560855478 -0.01777144844426756 -0.09732170361543264 0.022148419052160362 -0.08083498184007844
0.20361710382301573 -0.177252504565275 -0.17980885461840262 -0.14850939386212242 0.12191350247608358 -0.3218786486263441 -0.06970688849140352 -0.1573544954262525
0.12472932467422394 -0.12030438139665464 -0.041339158214346146 0.12630941652609126 0.05987715507820364 -0.17354685572222206 -0.14231783170248155 -0.0045620205087833
-0.0019788196896288303 0.24435701371897875 0.009194809552580181 -0.18706628924772228 0.28019409012464136 0.04733565822741315 0.17945243248427664 -0.1382774893749177
0.23451243457000226 0.29031276587236504 -0.2627174840139995 -0.01691603807029546 -0.22037234268995662 0.007015277917587304 -0.20944190549323888 -0.19234445561134633
-0.06290642755126638 -0.060026632800166325 -0.24409149522799461 0.031281129768762184 -0.05396406709414031 -0.01870322625002236 -0.04503279163771431 0.126206294789918
-0.1144749908611197 -0.2517665668755963 0.0577178431103217 -0.026617967384350853 0.13133969696867778 0.10622412240821148 -0.18638341136534547 0.15618163528833373
0.19802186186709778 -0.21716962381422403 0.07515736951939686 0.22311290278788456 -0.2759221758921494 0.3522513588635392 -0.2854170592856497 0.007119879174453342
0.24913310388943125 0.08339155364649707 -0.3428481677530806 -0.28351784344755376 -0.11877202265739802 -0.045532752639066705 -0.15265200743169904 -0.026069662259156745
-0.20999567115487006 0.16560108180143224 -0.33208749611473465 -0.24744496699559201 0.3314152378190978 -0.14196240588830883 0.08043795493385694 -0.20467141841664196
-0.3488461632540285 0.00748060455984829 -0.021100919201804014 0.08737357872887863 -0.048885491828434664 -0.11761559443973989 0.0884186214117799 0.12836826363798118
0.07529472216618946 -0.1806929758308574 0.19779952124782563 0.17302968227499924 0.11149170587740034 0.2358488490396712 -0.3131194793058046 0.08849851923458091
0.1833601483065662 -0.1735371885946882 0.018018161566025613 -0.09112268374878797 -0.10229631313137637 0.2966092191115409 -0.1161312616224941 -0.26608715108370806
-0.16834942712807777 -0.18954599929404262 -0.24640189412555583 0.2118721669304289 0.20898460259389404 -0.28011816594671485 -0.16410098358293201 0.1459409930928433
0.09519873744939668 0.36427357615824224 -0.22259329003773437 -0.194020534063172 -0.3069954489206626 -0.048753755171080465 0.08773424121865085 -0.21013353389502984
-0.3220181077119339 0.27447714640544385 -0.2417028497999745 -0.04875036781230446 0.35793817034860265 -0.10654703075292704 0.29772575231697895 -0.28995849476011154
-0.2782648635850939 -0.3355225913905816 0.21724293986532797 -0.01772466164507761 0.1671785842310883 -0.140201634545833 0.03030865187380661 0.30964573483305297
0.056167827561991464 0.13094035446609714 -0.12825440508693584 0.08607278709739755 -0.10474760223234879 -0.10842587266979985 -0.19725283616166833 0.04632078238000151
-0.3698903611300557 0.06355549222106435 -0.06961042109053477 0.08272565030294506 0.0944728832135258 -0.2451933605253319 -0.056371561884631265 0.19692835667978084
9.241722350922954e-05 0.04681889412508822 0.14440438870816363 0.18797158279502946 0.06389357963222786 0.2428101501029072 -0.29623580927859583 0.197371440601969
0.08011184555483551 0.04338258438275004 -0.027590641704049075 -0.1319708337887546 0.1920795534555792 0.37152674026394406 -0.3699251260956676 -0.35931255475014673
0.010489806047659759 0.0870578860775469 -0.07393737231343739 -0.3255735631595377 0.014282119996938746 -0.2708753042829977 0.27483729719066285 -0.277733964275387
0.019185044478879656 -0.05512314898723402 -0.09853332565237295 0.036186386008175496 0.29998917163199745 0.27367143428831875 -0.10670941553109861 -0.05671075096771088
0.006635385682437127 0.10363837469703648 -0.1368452747244856 0.09173659883864127 0.13173460405869108 0.12826815265363412 -0.1380716316823276 0.178812485193598
-0.3602469226195817 -0.1964439103543038 0.2837892705097355 -0.0084881627796963 0.11208404986203586 0.21386526466430525 0.10718110098459716 0.1750307538143186
0.1459749239506764 -0.2984692161792058 -0.1554850902670701 0.23538348701776035 -0.12322238777050615 0.339097008507391 -0.0958342679635485 0.2784001899259614
-0.013873354553176905 -0.013875115111231882 -0.32480202239764816 -0.3534642520746068 0.1027286523117416 0.011218915973951122 -0.25808988209059064 -0.30719657411504603
-0.10055359930657794 0.04225922644697079 -0.3490630579843239 0.05890847044956339 0.09752360968870122 -0.4465019865628539 0.14358446428392235 -0.17263801718357863
0.08376635405690384 -0.08561233079784446 -0.34380722602268093 -0.04805945779597237 -0.31230524145280125 0.2064696012192757 -0.33314203424087335 -0.2251516071004473
-0.27683684413172505 -0.04957620018137931 -0.31252319905397946 -0.2573396451045856 0.12220308644686642 -0.2073497313854939 -0.03357895667432783 0.05136150672887936
-0.22440614081294702 -0.0007401757730243002 0.22976875583799258 0.4460536029483666 0.17994423492457906 -0.38708471564063107 0.023094015923142204 0.29751113581579175
0.08644362426985414 0.11567133302767652 0.26151535556359423 -0.08555300505275927 0.12763280867910312 0.34179863817408934 0.06055719576319832 0.03733967277565422

attention.2.bias f8 [16]
00000000: 7576 3c7b 6e57 c53f e171 e38a e91a bcbf
00000010: 597a cc08 d584 c03f 462b 13f4 ee1d cb3f
00000020: 2bbc 6e94 f42e c23f c43c f48e 7219 c2bf
00000030: 8348 ce48 383b 2e3f 1833 1ff2 0751 ce3f
00000040: 0f61 db4c 60fc c4bf 0137 451d a088 c3bf
00000050: 587d c4b3 0939 bb3f 7fdf fa42 8cac babf
00000060: c8e5 b857 0c7f bcbf e417 ba83 f6d9 a0bf
00000070: 5308 95cd 4212 c93f a780 a1fb a5ac d1bf
0.16673069970504498 -0.10978564873534637 0.12905371598840779 0.21185099523276046 0.14205796477969676 -0.14140159588030177 0.00023064672532463826 0.2368478710399351
-0.16395190956860303 -0.15260697774140655 0.10633907927375696 -0.10419537196400873 -0.11131360189110417 -0.03291292531962123 0.19586977995101282 -0.27616262029006083

attention.4.weight f8 [5, 16]
00000000: 4b5e 4d79 7722 993f 0d78 9b49 6c99 c63f
00000010: 7653 6d5d 5d16 bf3f 1d67 92f6 77fe ddbf
00000020: fecf 78e1 45ef d03f e1ca ac3f bf98 d1bf
00000030: 0835 c531 6922 b33f 14f5 a7b4 081a d53f
00000040: f0e4 ba01 1edc d1bf 5100 a06f 7159 d2bf
00000050: 3915 bc73 1f95 c23f ca04 a99c 17ad bfbf
00000060: 197e e176 ea55 d1bf 6526 7f9e 2432 d23f
00000070: 076c d05e ac62 c43f f387 0530 5ae7 95bf
00000080: 511b 27fe a076 d4bf 14e1 cf87 9c44 c8bf
00000090: cfc2 0dcb 5e26 c7bf 2be6 7b5c 103e dc3f
000000a0: 28bf 8b85 b053 babf b01b a40e d029 cd3f
000000b0: 321b ccba 2148 d33f 4253 8121 41bc c8bf
000000c0: cee8 9787 f496 c03f a626 712b 3ea2 bdbf
000000d0: 8bd6 0f0a 9220 d13f 9402 4043 64d0 cc3f
000000e0: c8ea a301 f393 c03f d96c d433 03cb c23f
000000f0: 3c48 9f3b 94be 93bf dafb 3261 d267 b0bf
00000100: f417 d359 a59b c9bf 6110 19ec ea0f b6bf
00000110: 5433 4067 d739 d4bf 5cad d90c f125 ce3f
00000120: 0e49 5eca dcd7 c2bf 1d9c f8e5 d484 d03f
00000130: da12 e654 2afe c63f a800 955f 8ff4 d4bf
00000140: 939c 317c 1701 bebf 6632 0254 2a34 b4bf
00000150: 3bb3 0b79 8116 d3bf cdd2 099b 6319 6bbf
00000160: 347e 148d 4aaf c93f fe75 f71c 85cf b9bf
00000170: b575 5bbf ce35 803f 57f0 8723 585f 853f
00000180: 2394 7261 2dde dabf 4514 fbe8 56d5 b1bf
00000190: 5ce3 c6a5 2a8a d7bf 0838 a486 29fc be3f
000001a0: 917e 5010 e2cf cbbf c166 4256 e59f cf3f
000001b0: 3c3e 5daa ecc4 c6bf dad8 0ccd 23d0 c1bf
000001c0: 6bac f0b6 4897 bcbf 7550 20be daab 96bf
000001d0: 4143 8bb2 af7f a6bf 17db 8008 fc9b ab3f
000001e0: 8937 1a30 e1bc d53f 3262 1e8a 4b49 07bf
000001f0: 596a 4781 a47e b6bf 19e0 ecdd 3c55 d13f
00000200: cb31 0cb3 245f d6bf e1ef 9774 548a 8c3f
00000210: eca9 82b2 6dca c6bf 5b3f deac a7d8 cf3f
00000220: 7de8 c716 83d4 cebf 8bac 590b 5992 c73f
00000230: a2b7 2414 55d3 bdbf e27e 425c 12ba c4bf
00000240: 4cff 8a58 ac63 b83f cd13 b8c5 47ac b1bf
00000250: 0ff2 0c37 8716 d6bf 7986 d960 e1b6 d7bf
00000260: c397 7ce3 2c18 bd3f 85e3 50aa 7752 dabf
00000270: 16b1 d9c7 7cdb d1bf 0739 7a85 ce1f da3f
0.02454554250593181 0.17655709833246683 0.1214350083440204 -0.4686565311363767 0.2646040632128005 -0.27494794100054604 0.07474381890388682 0.3297139896602215
-0.2790598885436131 -0.28670917416457536 0.14517586852176992 -0.12373492788994436 -0.27086888894516076 0.2843104884928834 0.15926127080533112 -0.02139035146809216
-0.31974053210835957 -0.1895938552040738 -0.18085846819624016 0.44128808051718477 -0.10283950100324246 0.22783852305312058 0.3012775730316434 -0.1932450688933845
0.12960678692599575 -0.11575687943072896 0.2676129434833931 0.22510960849469497 0.12951505260556062 0.14682045012236847 -0.019281688822794005 -0.06408419487978226
-0.2000624359699824 -0.0861803842936424 -0.3160303600605421 0.23553288581329468 -0.1472125995756603 0.25810739954107637 0.17963151116796078 -0.3274267609995243
-0.11720415861201365 -0.07892097998610267 -0.2982486421668004 -0.003308004896377481 0.20066196335481978 -0.10082275349801503 0.00791512986637142 0.010435761055298238
-0.41981062427868404 -0.0696615523148277 -0.36780801953459785 0.12103518998284823 -0.21728158756831253 0.24706713401683625 -0.17788465803686104 -0.13916442405906687
-0.11168341127692975 -0.022139947752365125 -0.04394291929714323 0.053924442327504866 0.3396532983541581 -4.441510942782382e-05 -0.08786991268372314 0.2708275000800327
-0.34955708966370186 0.01393571835341584 -0.17805262771919617 0.2487992853243622 -0.2408603535876103 0.18415368131841023 -0.11650592557700049 -0.1619284582602552
0.09527089273160277 -0.06903503968358322 -0.3451250112155159 -0.3705371328161174 0.11365013650774274 -0.4112834132425223 -0.2790214492477089 0.40819132838159117

attention.4.bias f8 [5]
00000000: 97fb 5245 cdf8 c4bf d00b e0f9 1851 c53f
00000010: b65b b3d2 c673 93bf 9ee0 3c23 91ad c2bf
00000020: 6415 664b eb6f c33f
-0.16384282956093152 0.16653740120827232 -0.018996340379853392 -0.14592184277149028 0.1518530004652049

fcn.0.weight f8 [16, 38]
00000000: 1018 17b2 721c a43f 48ca 4e8c 3fe1 c1bf
00000010: a397 8c0c e70b c33f a7d3 b008 6900 b8bf
00000020: b31f d3c2 0901 d7bf a1ff 25ec 13fd 553f
00000030: 5a0a f8cb 65b1 c53f 8195 b649 e4fe d13f
00000040: 6094 01c4 2d6a ccbf a763 64ca a026 bf3f
00000050: 9d46 9ba1 e792 afbf 33fb a84e 7012 cbbf
00000060: e2d3 14ea eb66 ca3f 4dc3 643b 6fdd c4bf
00000070: 0f6d 4a7a 913d 73bf 3ceb fee2 5e1a ad3f
00000080: 50b2 db43 76ed a9bf 97e4 d4c5 de80 bcbf
00000090: bfdf 1051 406b c8bf f6d5 d7ea 8a75 b83f
000000a0: 3820 2213 0342 cf3f 0604 ccd8 076d c43f
000000b0: af22 9cd1 bbe8 d0bf 1b90 fd0c 28e5 90bf
000000c0: 6d60 6041 31ed c73f 95fa 4513 fcd6 b7bf
000000d0: 9e5d d7fd c64c ba3f 1aa6 7062 511a c2bf
000000e0: 44f6 2244 4b59 93bf 3266 1760 9247 a23f
000000f0: 95e3 2130 6670 c13f 8184 0865 b328 98bf
00000100: 029d e7b8 ac79 c9bf 097e 2336 d6eb d93f
00000110: 7c76 788c 7776 b8bf dc56 2534 8886 c3bf
00000120: 7448 aa43 953a d33f ca2d db27 a258 913f
00000130: b603 e203 af3f c7bf 2620 d539 f3c8 c1bf
00000140: 5847 2d68 8575 ba3f 640b f7e2 9600 96bf
00000150: 16a4 c469 5b73 bbbf 8f33 eced f91f c7bf
00000160: 7dd4 065e 695f c43f 68a3 f6aa 8fb3 d23f
00000170: b624 a157 27aa b2bf 6670 96e3 6b45 b93f
00000180: aeca f107 b30f 37bf 8774 e357 bff1 c6bf
00000190: e52f 8e8b c4e7 b63f 46b0 1e96 c370 d2bf
000001a0: 0dcf e8a1 6b95 a43f dae5 99d9 536c c6bf
000001b0: f3c1 9a3f 42b9 b7bf dc71 352e d5a1 d1bf
000001c0: d2ea 0f12 fdfe cfbf 0ba4 4f61 4b73 bbbf
000001d0: 962e 814c eec7 da3f b517 feb6 da32 cc3f
000001e0: 9019 d883 8267 cebf 275e b0b9 d735 c13f
000001f0: 0893 429e 8e9f 9b3f 991e 9152 9003 c9bf
00000200: 0836 5d3e 78ad b0bf f48d 7daa d577 c4bf
00000210: 0c0b 0ce9 1c21 d13f a6ec a1f1 4507 c8bf
00000220: 30e4 5761 09cf d63f 4896 68f9 75c9 c9bf
00000230: 1986 050c 3f76 d0bf 3961 1015 6d03 c53f
00000240: 27f5 8abc ea18 a7bf 4e0a 7828 65d3 9c3f
00000250: 3ef2 8199 b6d7 c63f 63d7 960f 4c0d b2bf
00000260: f3ef e266 bfeb a63f 0f04 e3a3 3b6a b33f
00000270: 5186 a84a 9a61 a6bf 39ae 350a 4ae5 af3f
00000280: 5625 8532 5127 cf3f 36e4 7c14 5005 ce3f
00000290: d36f ae57 851d a63f f263 fcce 7913 aa3f
000002a0: 8a34 7b7c 00bf b3bf d51b 04c7 a9e8 d4bf
000002b0: f9c2 a7ac fc1c c93f e81b 5873 cd95 d23f
000002c0: 6de4 f5ef da73 b0bf 30c4 3696 8e57 c13f
000002d0: 7b62 b79a b490 b93f 2140 ae6a 8070 adbf
000002e0: 49b8 2373 d658 ae3f a8ad babd f9ff b73f
000002f0: d465 2080 82d3 c53f 293a cf99 b226 ce3f
00000300: c844 e6b4 01cf e5bf c758 4bba 80da 913f
00000310: 403b 4413 d213 d03f 7601 46db 7384 a8bf
00000320: 961b 3dfa 94ef ad3f 404b 2b91 18bb c63f
00000330: 694e bfa0 3c25 ccbf 3b90 fa15 3ba6 96bf
00000340: 5d78 2e6c 6242 9cbf db0e 587d 38cf 6f3f
00000350: db5d 466e 987d dfbf 429a 662a 5ac2 ad3f
00000360: 29aa 8409 13d0 a2bf 7e3c 9269 bf5b e0bf
00000370: 46ec 4db4 57a4 c03f 4831 bef3 c223 ac3f
00000380: 3ac9 0251 df15 cbbf b386 01d3 b5ee 8dbf
00000390: 6d60 6b0a 9111 d13f 52cb 3414 b375 cb3f
000003a0: 6e65 2ee9 f8dd d0bf 0482 0668 b616 afbf
000003b0: 6327 9071 db73 cc3f 0b6e efdf 45f9 953f
000003c0: 43bb c84b 5fe4 d0bf fdbc 3f37 6f5d d3bf
000003d0: 637d 6aff 027f d33f ccb1 0b42 1bce c5bf
000003e0: 9327 1aba 181b d43f 2db4 269c 3901 c73f
000003f0: 20f6 ea2f 8c2a bbbf 3d43 ead9 0a6d c33f
00000400: 159e 598d 986a c53f 9d72 5267 9570 a8bf
00000410: b763 ca04 c098 b43f 8257 b81c 8286 d03f
00000420: 65e1 7072 e84f ac3f f549 a958 ae39 c33f
00000430: 628d 7758 b3ef b9bf 8fd2 415c dc97 d4bf
00000440: e12b 5077 360a b03f af4c ea57 4d97 abbf
00000450: 7a0a 79b6 a2d2 b7bf a7e4 7a96 5041 c53f
00000460: 183d 57d3 ae15 c1bf b121 d94b 2069 b33f
00000470: 8ecb 8ea4 616b c6bf 4ed5 a3da 34d6 c93f
00000480: fce3 64a6 e383 ccbf 390a 951a 3663 c03f
00000490: 0857 59af 3565 d23f 4594 b09b 6f21 603f
000004a0: eb7e 7e7e cc5a d03f ee1e f4a5 6456 cb3f
000004b0: 185b 4039 2f61 d2bf 27b2 8743 5397 bb3f
000004c0: 1e70 900f 258f 5f3f c62a 7f12 aa2b 7e3f
000004d0: cf35 69bb 24e1 b3bf a6cd 8863 1d94 ca3f
000004e0: 55bb 0fa0 621f ae3f 53cd 3d02 8f6f cc3f
000004f0: a38f 3af3 2b84 c5bf 123c a8a8 3682 9dbf
00000500: 3d56 92cf 4555 c73f 58f3 87df d478 cbbf
00000510: 7831 c10c e2b1 d13f 5934 2f64 4d63 753f
00000520: 4d0e 16fc 2be9 c4bf 2e61 6c47 bbe5 b93f
00000530: 1e46 a69f bf3a c13f 59f9 650a 7d39 a33f
00000540: 01b9 d6a8 9dca b33f c613 6365 5be1 b13f
00000550: 8403 9d57 e9f2 c23f 142c 549d 748c c33f
00000560: 0061 c669 11d9 93bf 0b85 c60d 7c8b d2bf
00000570: 3d50 e05a f7b1 c73f a7a7 1ecc 6525 cdbf
00000580: c692 088c a3a3 c0bf cacc a8c1 7d27 bd3f
00000590: cbda 848b 8ff7 d0bf 092c a7f7 0939 ca3f
000005a0: 2627 3112 1137 d0bf 4cf9 f3ec e5f3 c23f
000005b0: 3f83 3608 de03 cabf 1297 3076 3008 ce3f
000005c0: a37c 3614 3436 c63f c739 7e4e 1e7e a3bf
000005d0: 2415 99f0 16ab bb3f d354 2ec9 3f32 793f
000005e0: fde7 a315 3ad6 cbbf 2cad e953 f937 d03f
000005f0: 51d3 9b57 353c c73f 6f9b 9e71 0260 9e3f
00000600: 0b9b cf60 3f5f d0bf 4280 f5ef ccf0 a73f
00000610: 7b47 d9d9 ca36 c33f 17a3 8a5b 7aa6 b23f
00000620: 41ae 7112 6122 9a3f ec79 2d27 5a54 d0bf
00000630: 28b3 e7c4 d3a8 d43f b506 52a1 572c 953f
00000640: 2113 27bc a2e3 b53f 7725 d2c9 4062 c83f
00000650: 45c3 05c7 6636 d1bf df0f 3f87 7950 ca3f
00000660: c95d c80b e6dc 92bf 99eb 7d97 f3f2 c2bf
00000670: ed55 85bf 3ede cc3f 8bc9 5f80 839d cf3f
00000680: 818d acd9 f1ac b93f 6b47 5f62 7b28 b53f
00000690: f9e7 41cb 9fce 7e3f d15f df58 bad3 d4bf
000006a0: 60bc 4fd3 1166 c43f b469 e070 f402 d1bf
000006b0: bbad 8ee3 7783 c6bf e68a d274 8dee d13f
000006c0: 6274 d809 1a2a c9bf 1298 96bb 8270 af3f
000006d0: c369 623f 056f d3bf 5dd6 df8f 94e5 d23f
000006e0: 0343 a1ed 2502 a8bf 3561 21e5 e978 a63f
000006f0: 3b68 3a23 75f5 bb3f 1caa 8ef1 d247 a93f
00000700: a2e1 929a cd20 86bf 167d c3bb d26b be3f
00000710: 9e27 b748 d65c d2bf 6436 f37a 9304 a03f
00000720: f1e6 dc06 a39c c8bf e09f 3d5c ba0d b8bf
00000730: d69c a172 c892 663f f74b 9c94 5187 d0bf
00000740: 992e edeb 034f d6bf 01b9 5eaf 5c84 c8bf
00000750: d233 e7e1 8b44 b33f 0e8b 59fc 3906 d03f
00000760: d2d7 8e23 4b21 c4bf 41cc 9af3 fcd4 c33f
00000770: db4d 4d0a 0c13 d4bf 02cf 505a 4c61 c3bf
00000780: 680f 73a8 3877 66bf b1ca 5f16 d3e6 d4bf
00000790: 60d5 017e c92d b9bf c824 cd69 e824 8f3f
000007a0: bd2a 4873 3e5c c6bf 8f14 8a42 72e7 c1bf
000007b0: b517 5c4d 0c2f c4bf a4b8 2f0d 2738 aabf
000007c0: 7eb0 0eb8 aaae c93f 7122 ac09 dd90 d13f
000007d0: 31cd ada9 2984 cfbf a963 777a 432c a13f
000007e0: 4bb2 354f 3d73 a43f 40f9 7191 b441 a7bf
000007f0: 1032 3d2c cee5 c43f 15a1 7667 ae57 c4bf
0.039279541244056415 -0.1396865305992654 0.14880073654893264 -0.09375626051116957 -0.3594383623681054 0.0013420767359946034 0.16947624644679388 0.2811823577743198
-0.22199031897176535 0.12168316785063259 -0.061667669751512146 -0.2115002044756352 0.20626591615442097 -0.16300764465406772 -0.004697387954958345 0.056841817101903364
-0.05063981607768098 -0.11134140329240193 -0.19077304800316416 0.09554355843996362 0.24420202669375768 0.15957735143459234 -0.26420493573872766 -0.01649916247642134
0.1869260377141048 -0.09312415571728601 0.10273402879044233 -0.1414281588234168 -0.01889531710980054 0.03570229933729897 0.1362426505109197 -0.023592761079389128
-0.19902571705390676 0.4050193337152171 -0.09555766276795369 -0.15254309221443563 0.30045062644888465 0.016939672167422683 -0.18163097085564822 -0.1389450104127274
0.10335572999363529 -0.02148662338528186 -0.10722895939092356 -0.18066333882634608 0.1591617306818626 0.29220954604766414 -0.07290883912459631 0.0987155371316831
-0.00035188790201982456 -0.17925254622869977 0.08947399527659135 -0.28813256893295536 0.04020248748238773 -0.17518089413697063 -0.09267057469219946 -0.275502486348868
-0.24996913320486286 -0.10722800374755097 0.41845281096605313 0.22030195174391812 -0.23753386914922858 0.1344556481060277 0.026975849542071578 -0.19542125732026674
-0.06514693758546042 -0.15990706276635047 0.26764605291843746 -0.18772196100676303 0.35638651376899855 -0.2014605968299057 -0.25721718000394983 0.1641670563556177
-0.04511197616145984 0.028150158495927884 0.17845804687012107 -0.0705153978404645 0.04476736193598176 0.07583973647253138 -0.04371339951854892 0.06229621290807725
0.24338736502458386 0.23453713417419103 0.04319397635774149 0.05092983867343283 -0.07713320769399182 -0.32670063433800794 0.1961971133273648 0.2903932215126006
-0.0642678104249101 0.13548452696480373 0.0998642804837661 -0.057498944304029694 0.05927152781974649 0.09374962694226119 0.17051726585559257 0.23555595884541106
-0.6815193684762102 0.017435084696295868 0.2512097538137148 -0.047885532871989975 0.058468490168301177 0.1775847157319621 -0.21988637780178813 -0.022118495193936587
-0.02759698663032172 0.0038829901993738653 -0.49204073685674893 0.058123414684179156 -0.03674373141469218 -0.5111996709764666 0.13001533798146364 0.054960338834549705
-0.21160499053582688 -0.01461545992077915 0.2666971780540795 0.21452940451271246 -0.2635481145058155 -0.06072015781251497 0.22228568120072642 0.02145871333401143
-0.26393873596946466 -0.3025777854481502 0.30462717955557234 -0.17035237049948504 0.31415384458579715 0.17972488522119204 -0.10611797494762998 0.15176520958314113
0.16731554891451653 -0.04773394476180679 0.08045578114469164 0.25820973210044695 0.05529714962944147 0.15019778565563482 -0.1013137904151811 -0.32176884660229005
0.06265583432120493 -0.0538887185877227 -0.09305779414084184 0.16605574939402354 -0.13347420997022463 0.07582284785997363 -0.17515202078865538 0.20184956241397817
-0.2227749407263956 0.12802768991430627 0.28742735027240984 0.00196906851262438 0.25554191925947006 0.21357400992587067 -0.2871816691489797 0.10777779005702169
0.0019262182161190531 0.007365860314119293 -0.07765416694129289 0.2076451049812082 0.058833200491668215 0.2221544991440206 -0.16809605957416549 -0.028817037624374882
0.1822898162396757 -0.21462498583414447 0.27648211713383075 0.005221655187551987 -0.16336583908933947 0.10116167539343188 0.13460536284814933 0.03754797698910534
0.077310422630692 0.0698449251677423 0.14803807046885364 0.1527238624770183 -0.019382736283291457 -0.2897634634519625 0.18511859834018365 -0.22770378557953316
-0.1299938615567468 0.11388383844387132 -0.26510990738772183 0.20486569015915304 -0.25336100365221836 0.14806818075153172 -0.20324302102110356 0.23462491770731525
0.1735291575141434 -0.03807158191840503 0.10807937025045483 0.0061514369616777085 -0.21747518593457463 0.25341637796982996 0.18152491357582304 0.029663122353351164
-0.25581345037646547 0.04675903729616994 0.1501096309389672 0.07285275206471585 0.025521771193252944 -0.2551484472841412 0.3228043959523341 0.02067696497079537
0.08550469487734037 0.19049844603095398 -0.26894540248672555 0.20558089355301853 -0.018420786351354388 -0.14803929230751292 0.22553238250354415 0.24699443596143697
0.10029517711932635 0.08264895583786618 0.007521270938122265 -0.32542284659348036 0.15936491792624263 -0.2658053495703385 -0.1758870946044747 0.2801850930065214
-0.19659734230745857 0.061405263327557816 -0.3036511534679926 0.29526247072440076 -0.04689138913875548 0.04389124795915437 0.10921413526594474 0.049376098620389025
-0.010804754523960739 0.11883275112221656 -0.2869163236724662 0.03128491283278548 -0.1922801764974831 -0.0939594721982071 0.002755538463179978 -0.2582591964030025
-0.3485727123231555 -0.1915393692301635 0.07526468529904598 0.2503800358155538 -0.15726603733281636 0.1549373807407353 -0.3136625385861557 -0.15140680704063675
-0.002742396030585615 -0.3265884130952755 -0.09835490537974101 0.01520711491470407 -0.1746900618457711 -0.13987568139069537 -0.1576857927067842 -0.05120965991942342
0.2006429098813704 0.2744667620141064 -0.24622078690627228 0.033540829371936205 0.039941707533988145 -0.04542316699461191 0.16326310310468317 -0.15892581989215473

fcn.0.bias f8 [16]
00000000: 3641 0f0e bd48 96bf 6fb7 ce82 4ae7 a7bf
00000010: cc66 372f dd16 a2bf d147 a77a 537a b9bf
00000020: edd9 777a 83c7 b53f e439 b85c f639 babf
00000030: f5a9 5665 6c7c cbbf a626 466b 3750 b83f
00000040: 0294 796c 9e9e b53f f4a6 b1dc 2a0a aabf
00000050: 1192 3905 b44f c4bf e83b cb44 727b b93f
00000060: 1971 f532 f63b cf3f 9d46 72ec 9800 b6bf
00000070: 30ee 0397 36d5 c13f 2aaa 3e03 88aa b9bf
-0.021761850340966414 -0.046686485736571075 -0.035330688489649015 -0.09952279800862064 0.0850755857462457 -0.10244693530714916 -0.2147346014802022 0.09497400635714345
0.08445158146203371 -0.050858821335010435 -0.15868234877702084 0.09953989200151592 0.24401738632412487 -0.08594661495797103 0.13931925176426452 -0.1002583511277996
