checkpoints/GDN_SMAP/model.ckpt (torch, 87485 bytes, 42 tensors)

feature_gat.attn_l f8 [1, 25, 1]
-0.5119346337910061 -0.6991348730900662 -0.5274600216461733 0.42895822797461963 0.2622330497588811 0.18392589995054273 0.6545108148102887 0.07193186101525026
-0.6527585317828829 -0.47245336699481916 0.7257794502312568 -0.06515727696089742 -0.12046106421074307 -0.24469051203750214 0.042480957547473754 0.910653949287093
0.5292682851056699 -0.26071443811127926 -0.5330671633261114 0.7211955221721613 -0.03407206143090571 -0.6684512980822247 0.12262200893111919 0.03664505118424857
0.41479473269401784
00000000: b54e babd c461 e0bf 3a47 ed18 505f e6bf
00000010: 585e ddd6 f3e0 e0bf 1512 2036 0d74 db3f
00000020: 5743 2921 6dc8 d03f bb64 9646 e28a c73f
00000030: d0a1 0faa c0f1 e43f b6d5 995e 206a b23f
00000040: 9f28 46dc 65e3 e4bf 6f2e 080c ad3c debf
00000050: 7744 5bd3 9539 e73f 5dba a4b5 25ae b0bf
00000060: befb 394b 89d6 bebf 34d9 6bc9 0452 cfbf
00000070: 1503 bd66 10c0 a53f 6d29 45c0 1324 ed3f
00000080: e9d7 ea0a c4ef e03f 061c 529c 8baf d0bf
00000090: 15d4 21de e20e e1bf d008 b8a1 0814 e73f
000000a0: 7328 1bab e471 a1bf bf6b 07fa f363 e5bf
000000b0: a004 21ee 2764 bf3f 540e cbe0 23c3 a23f
000000c0: dd53 de34 ff8b da3f

feature_gat.attn_r f8 [1, 25, 1]
0.5362578480788095 0.7186598573163673 -0.001135626465058267 0.3727819499605927 0.5085799975164368 0.3543749735370021 -0.1296909856415402 0.5043189226509147
-0.3429092994581999 -0.11884365188389673 -0.7558639961967929 -0.0019378945998710954 -0.31941347900169426 -0.4067847726569979 -0.5278616761162414 0.0015961209492763963
-0.15906461571044217 0.8194183135599931 -0.0012375228339531318 0.6720103679629094 -0.7037617831182603 -0.5964988046879971 0.3606819572201408 -0.3181372701991602
0.002198761726908179
00000000: 2d19 f737 0629 e13f fbe5 03f5 42ff e63f
00000010: f011 c9a1 299b 52bf b1ab e7d2 a8db d73f
00000020: 9173 178f 4946 e03f c02f 775e 14ae d63f
00000030: 464d f5d6 b699 c0bf ab44 f16f 6123 e03f
00000040: 0cb4 aad8 39f2 d5bf 24b5 2d9e 896c bebf
00000050: 7573 fcb0 0930 e8bf 0c9b 7d7b 1ec0 5fbf
00000060: e0af 8d3b 4571 d4bf 7fa5 c4ff c208 dabf
00000070: 5c64 772b 3ee4 e0bf af3d c4d1 9d26 5a3f
00000080: 14ad 36b5 3a5c c4bf 027a 4fc1 ac38 ea3f
00000090: 3877 6406 8c46 54bf e927 1fe3 1b81 e53f
000000a0: c25c 556e 3785 e6bf 049e 47a9 8416 e3bf
000000b0: 3d23 a1c6 6915 d73f 1339 c96c 5c5c d4bf
000000c0: 5e38 ae36 2303 623f

feature_gat.bias f8 [25]
0.194827857546763 0.16665636882122006 0.19050552725364303 -0.17241899146414819 0.169619422074341 -0.19716337329915865 -0.1737420269724231 0.20088005871582096
0.20563225921736572 0.15882118725802996 -0.1876491271765455 -0.21191735946400603 0.1653924490277958 0.18988309682431817 0.17323328581605596 -0.15638436507372866
-0.17443928434350012 0.18833257294524114 0.18453950895349433 -0.14796586458599195 -0.16530858315355246 -0.10421049862504514 0.16668657210076723 0.1677891049118886
-0.19230684142044135
00000000: 0fad 4186 1ef0 c83f b5ed e0f2 fe54 c53f
00000010: 357d a130 7c62 c83f f41e c654 d311 c6bf
00000020: 08b1 49d7 16b6 c53f 87fb 2440 a63c c9bf
00000030: 7bc6 e4c1 2d3d c6bf 752f 4d11 70b6 c93f
00000040: ccab 2b6a 2852 ca3f 5cb2 97ae 4054 c43f
00000050: 8950 2cf8 e204 c8bf 6821 2da8 1b20 cbbf
00000060: 9734 ca6b 942b c53f 193a 76dd 164e c83f
00000070: 624c 9420 822c c63f 4077 cc22 6704 c4bf
00000080: 194d b2c6 0654 c6bf d621 c920 481b c83f
00000090: 5b38 e399 fd9e c73f 151d a9a2 8bf0 c2bf
000000a0: dc40 32e7 d428 c5bf 6e92 7e0b 8aad babf
000000b0: 4575 ed4f fc55 c53f d45f 1c07 1d7a c53f
000000c0: 4653 59b5 829d c8bf

feature_gat.fc.weight f8 [25, 1]
0.17856454532081698 0.4219759865012897 -0.35704140503772647 0.36158137640490773 -0.9597380879799143 0.16251205441854827 0.18008605383897183 0.45284625168896797
-0.17232550397336216 -0.2865423964264271 0.11858209680191112 0.6058477583330434 -0.123334819099599 0.1985072218886565 0.5352554489086465 0.4068359618850638
0.09948557762523356 -0.38485285166665284 -0.5818820384595086 0.9854392068845399 -0.06448532098251661 -1.6860268123646884 -0.6153581649833015 0.16626236756542814
0.4221966510941378
00000000: eb62 30f9 33db c63f a71a 6e91 a701 db3f
00000010: 7d1d 7d31 c4d9 d6bf 961c a036 2624 d73f
00000020: 7d2d 93a6 2cb6 eebf de7a 77eb 31cd c43f
00000030: 451f da4f 0f0d c73f 08b3 47d8 6efb dc3f
00000040: 1689 ea19 c30e c6bf 086a 64eb b556 d2bf
00000050: b0c2 a773 655b be3f 91a6 8cd6 1a63 e33f
00000060: 99a8 7de6 de92 bfbf 4e0b 0445 af68 c93f
00000070: a030 0209 d020 e13f eb83 c8b3 9909 da3f
00000080: c7f4 5206 e377 b93f 2a8f ebda 6da1 d8bf
00000090: 6707 aa14 c79e e2bf 267d b8cd b788 ef3f
000000a0: 0a25 b128 1c82 b0bf 4491 3440 f7f9 fabf
000000b0: 5ac1 3d9b 03b1 e3bf b5e0 9fd3 1548 c53f
000000c0: d985 3b1a 4505 db3f

attention.0.weight f8 [16, 125]
0.06600745367599709 -0.033625762496883045 -0.0723315573510978 -0.005554706651999152 -0.010340124895024073 -0.09532310826522977 -0.15266542956281232 -0.04098120979626043
-0.052252000499669535 -0.044350584223847085 0.06359014241105665 -0.02693007216342025 -0.066837900712661 0.027676231176152307 0.021900072700681426 0.05793039013522759
-0.04628345216947297 -0.06273339771071161 -0.11481651086037634 -0.09369358968873971 -0.07127752617818131 -0.12992091041800957 -0.11630265243375394 0.038248310096251674
0.0163400061919764 0.029804954596204823 0.16824704859154407 0.11585893588308507 0.16029922861477636 0.0028481297982526355 -0.005279124800791609 0.11486896704182192
-0.02489472057411105 -0.007230923051095991 -0.07539348033057502 -0.017667241010864684 -0.0629846122471375 0.08218826794584551 -0.07370714203262838 -0.06610119939250504
-0.003037096160356045 -0.0483623689958444 0.10910988563079842 0.041691304430577544 0.046513466155827576 0.005065755817009027 0.1656836474542936 0.037981533785453485
0.04200226102521319 0.057460876189439146 0.09881446037488205 -0.021779996002979023 0.05151182084725744 -0.03834078234799199 0.07636064159869534 0.0184107112398656
0.09565720794218899 -0.013058755004649295 -0.006965939506776728 -0.004495700608683641 0.015204546563741445 0.029342049825590924 0.014344605449506638 0.0362735533220007
-0.07146577858896547 0.0651614323939015 0.07798076198556263 0.15917889590863735 0.15062530617950376 -0.02484902206091748 -0.033155941187516996 0.1607776616564505
0.015255945598413631 0.08114317511199423 -0.0703453378213759 -0.05105373082744696 0.009004700735575147 -0.08619614456374167 -0.038172739362561096 0.06506791404918201
0.05460907525031739 0.06455958750239499 -0.011238226375459034 -0.06951932616394883 0.07943920606554762 -0.019053364373145483 -0.02402859400695322 0.02180348319109335
-0.05963421523448627 0.061702461974590034 0.056055880777510836 -0.07097010473619446 -0.11489906503780106 -0.05136101594179856 0.0368520757114706 -0.0025904179161741364
-0.0966273248162502 -0.047188017744590846 -0.08406888669192034 -0.06321372213299202 -0.04666197607184399 0.13025473778099964 0.09018489503497722 0.01946454051522016
0.0040114765491998635 0.062229088293691205 0.013346332915953532 -0.04520827206410864 0.05158431513163581 0.06251227733955934 -0.005183622309477408 -0.005655608714139778
0.08127947407616731 0.08323888591728892 -0.04565580130995658 0.08750839783275674 0.022134299120207236 -0.022390786150205965 0.08675150061123649 -0.08455671373960091
0.08263750170247458 -0.002470879011743542 0.0752339092592547 0.027234938054645882 0.02127435800597241 0.07503895685991345 -0.07527690169650275 -0.06260067237725803
-0.10833225360793397 -0.0036706471835577037 -0.09343505928627971 -0.03708067814870727 -0.021660406990814958 0.029676100633043816 0.06903971604686525 0.026392214984917676
-0.03195542426782072 -0.04388857193312401 -0.08760181742798717 0.06566502669930119 -0.0169438000235902 0.01805420370908365 -0.05788902144686424 -0.11837662211875817
0.03420441663903826 0.05012466304532397 -0.06282564157418084 -0.11777734699073789 -0.03800425865753224 0.0012317048462947568 -0.05226118417242204 -0.013030481136592127
-0.017549804707492546 0.03017563333379804 0.021956150845781678 -0.0027005777926344377 -0.0033579790348600043 -0.03141778396558319 -0.08173700020992128 0.07650365279040791
0.017063842054351894 0.08009045759735828 -0.01441447599099641 -0.025325148974106253 -0.08693181140046571 -0.03395292207453286 0.05865319038177177 -0.09010492694456522
-0.03386940279302736 0.11785226716761076 0.051549148896209096 0.020374926718340226 -0.03052223930786514 -0.0067721154358813184 -0.016985537576738617 -0.024485342674108467
-0.018631906727673394 -0.06761129849963472 -0.07104424997309969 0.020290724128908238 -0.10438828981274768 -0.04529387733153182 0.05934859586584011 0.03342690001166946
0.06708524756890849 -0.06100326346984608 0.01134131302118656 -0.0264123014617631 -0.05510490434206072 -0.05539440739502184 0.022533525297983914 0.009357779949893943
-0.12583805589954186 -0.1417332109180595 -0.039777701616395385 0.08765839076742013 -0.11115080949071869 -0.11587938887281787 -0.03288922540808411 -0.044735549223282114
-0.05462276236516029 -0.06719829625623128 0.05710226984376336 -0.009332197537997156 -0.03155123955578033 -0.024514391592297353 0.08862649115701726 0.07231591098586093
0.086170948414553 0.023702784114750592 0.04321016160833234 -0.005303810569759995 -0.052290649831507684 -0.07934978935028447 0.06275262438301023 -0.013000033378534026
0.03674665223974144 0.017370418941135547 -0.06969824867032352 -0.0435243653853726 0.02516276018165233 0.0038627817326998765 -0.06249382078747581 0.03136349134611176
0.003430235301195489 0.007630130695191031 0.08210744485000364 0.06063668275827912 -0.03640570396020341 0.08034955066333861 0.14242871678296554 0.11456574245066786
-0.034464868008054886 -0.07576046124678087 0.0730964737163909 -0.023079488553457383 -0.07002526651971178 0.057345542857996874 0.03637154743321371 0.026740282948614233
-0.017734488985644663 -0.02791201101942494 0.13075672327586874 0.18326240156541293 -0.0046473899245033645 -0.042292199930880334 0.21977160922637282 0.13438967378323513
0.070705031786192 0.021798647833722207 0.09844883771048263 -0.018888162101313923 -0.07405572006884355 -0.025777397778732333 0.0005753851757490141 -0.11313363829793024
00000000: fca4 d44e dde5 b03f 6950 745c 6537 a1bf
00000010: bbad 4a29 5284 b2bf cc1f 8c36 88c0 76bf
00000020: 67e1 1512 342d 85bf e45e 8d60 1867 b8bf
00000030: 72dd 9971 8a8a c3bf d3a1 a637 7dfb a4bf
00000040: 56e3 9732 c6c0 aabf b18e 99a9 1eb5 a6bf
00000050: 78e3 008e 7147 b03f 001c e28c 8e93 9bbf
00000060: 65b5 b1e5 491c b1bf cfc8 1c6f 2857 9c3f
00000070: e927 1e00 f96c 963f ce90 2656 0da9 ad3f
00000080: 55e6 d3f2 76b2 a7bf dfd2 88c3 4b0f b0bf
00000090: 36a7 2f67 9d64 bdbf c5d7 8e97 4dfc b7bf
000000a0: c204 e073 3e3f b2bf 3cec a796 3fa1 c0bf
000000b0: 691a a4b8 02c6 bdbf c738 fb51 4895 a33f
000000c0: 210a d840 6fbb 903f a673 ffa4 3085 9e3f
000000d0: bdb2 ac89 1e89 c53f c234 9164 eea8 bd3f
000000e0: 26bc 3c64 af84 c43f c002 d30a f654 673f
000000f0: 6f37 ef45 909f 75bf f019 c578 0d68 bd3f
00000100: c9e0 d56a 007e 99bf a3bc 6320 2c9e 7dbf
00000110: e8f7 59b4 fc4c b3bf bcaa 6879 5c17 92bf
00000120: bab0 c071 c21f b0bf 053a f152 4a0a b53f
00000130: 1603 83a4 78de b2bf c9ff 9d19 02ec b0bf
00000140: b287 df95 40e1 68bf e972 63d2 f3c2 a8bf
00000150: 535f 741e a0ee bb3f 5e23 1d0a 9058 a53f
00000160: e8fe ecef 9cd0 a73f c767 0479 d4bf 743f
00000170: ea2a a62b 1f35 c53f 07bf ebca 5072 a33f
00000180: 8e35 ec02 5281 a53f 8bf8 1010 836b ad3f
00000190: f797 ae8b e74b b93f cec2 28ca 7e4d 96bf
000001a0: 8bf2 cae3 c15f aa3f c14a 932c 67a1 a3bf
000001b0: 8533 5efa 5e8c b33f 216f afea 41da 923f
000001c0: 0606 bda3 fd7c b83f 951e 5f6d 8cbe 8abf
000001d0: 175d e125 5188 7cbf f5f4 6371 156a 72bf
000001e0: aa29 efb1 8f23 8f3f 7414 98a1 d70b 9e3f
000001f0: 71bb 3c5a b460 8d3f c595 747a 7292 a23f
00000200: f4a1 d2cd 944b b2bf 69a2 176d 6bae b03f
00000210: 73f5 7116 8cf6 b33f d10b 125c f95f c43f
00000220: a0d7 fea5 b047 c33f 4d5d 5ba4 0572 99bf
00000230: 7410 23c6 d0f9 a0bf 91f3 5ec7 5c94 c43f
00000240: 1864 515b 823e 8f3f 424d 6693 ccc5 b43f
00000250: 036f 5eed 2602 b2bf 773f 7cf0 b623 aabf
00000260: 8843 5b79 0e71 823f 864b f155 f310 b6bf
00000270: a765 5296 608b a3bf 7934 dc72 4aa8 b03f
00000280: 19a3 8780 b8f5 ab3f 304e f724 fa86 b03f
00000290: 4b2b fb35 1104 87bf ff69 50c0 04cc b1bf
000002a0: 055d 12b8 2056 b43f 121b 72a3 b982 93bf
000002b0: dd03 b7a5 f39a 98bf b980 fafc a653 963f
000002c0: 8a3a 4f38 6088 aebf bcef 8610 7797 af3f
000002d0: 5832 603d 5bb3 ac3f 27ed d5c6 182b b2bf
000002e0: 34a7 ad6e 066a bdbf c3ca 84b7 fd4b aabf
000002f0: 0ae3 f077 46de a23f 653f 7407 8038 65bf
00000300: 055b fc7f 91bc b8bf 76c1 f321 0729 a8bf
00000310: 0ef3 f3de 8985 b5bf cf39 3845 c62e b0bf
00000320: f3fe 631a 14e4 a7bf bd8f 75ef 2fac c03f
00000330: 2bb7 c476 5b16 b73f dc34 c733 83ee 933f
00000340: fd55 6689 566e 703f 2da0 29b6 7ddc af3f
00000350: 7515 2a7b 5255 8b3f f64b 0ce4 8925 a7bf
00000360: a930 f464 4269 aa3f 899a c5fa cd00 b03f
00000370: d84f b404 6c3b 75bf 3c91 75e7 552a 77bf
00000380: 9043 fe4a bbce b43f da2d c5c4 244f b53f
00000390: bb74 ff7a 3260 a7bf 062a d14a f366 b63f
000003a0: 1a5c 5dab 5faa 963f 03ca fc38 9ced 96bf
000003b0: 4012 01aa 5835 b63f c637 2b40 82a5 b5bf
000003c0: d43a 3c37 bb27 b53f 97ab 8711 cf3d 64bf
000003d0: 5398 d18b 8742 b33f 6f5e 03c1 79e3 9b3f
000003e0: f824 84ff f1c8 953f 0fa8 a3c9 c035 b33f
000003f0: 7441 eed6 5845 b3bf 1c64 9100 9906 b0bf
00000400: 181a 599e a9bb bbbf 121e 79b3 e711 6ebf
00000410: 5834 ef2b 5ceb b7bf 6ba5 ec17 3dfc a2bf
00000420: e20b 934e 252e 96bf 5e54 c466 6963 9e3f
00000430: b3e1 8b3a 96ac b13f 51b9 ea90 8f06 9b3f
00000440: f0f7 511c 765c a0bf 10e8 3d1a 9078 a6bf
00000450: d461 ec9c 126d b6bf 681a 2a56 6ccf b03f
00000460: 4298 e22b b759 91bf 0a7f f119 cd7c 923f
00000470: 8ecd d23b a1a3 adbf 956b 9c28 ee4d bebf
00000480: bdd5 afc5 3d83 a13f 1660 0199 f0a9 a93f
00000490: 934c e95b 5715 b0bf ccec 88fd a726 bebf
000004a0: 45ed 1550 4b75 a3bf 014e 1f02 252e 543f
000004b0: 98d7 bd59 fac1 aabf 4a97 a992 b9af 8abf
000004c0: 1a58 1475 93f8 91bf 6510 3879 5ce6 9e3f
000004d0: 3190 5057 ac7b 963f fbe2 96a9 851f 66bf
000004e0: e802 5544 3182 6bbf e639 4ae5 fd15 a0bf
000004f0: 7a56 c64e b7ec b4bf 2e64 c24e be95 b33f
00000500: 0c2c 450e 2f79 913f 3432 1ae8 ce80 b43f
00000510: 3230 c337 5685 8dbf cec1 70fa d5ee 99bf
00000520: 3a71 f2c6 2941 b6bf b6d7 d303 4762 a1bf
00000530: c3d5 fd7c ca07 ae3f db74 6fd2 1d11 b7bf
00000540: 6886 a992 5457 a1bf 3f8d 3ef1 902b be3f
00000550: 30ad 4a69 a664 aa3f 8d98 a72f 2add 943f
00000560: a309 83ce 3841 9fbf 1749 26e5 13bd 7bbf
00000570: e699 9621 a864 91bf 730c 1188 af12 99bf
00000580: efdb 3a18 3e14 93bf e561 e55b f94e b1bf
00000590: 420c 34ba f42f b2bf 2beb 2e72 17c7 943f
000005a0: 5dc4 d4e2 30b9 babf 7528 b253 c230 a7bf
000005b0: f656 9d6c f062 ae3f 2dac b6a4 541d a13f
000005c0: 1c3f 5ab0 7f2c b13f e0c1 1adb d13b afbf
000005d0: f955 2844 1d3a 873f 6022 f68b d30b 9bbf
000005e0: f028 ffc3 b536 acbf ba2c 49e0 a75c acbf
000005f0: 00ac df48 0713 973f bb9e c8f6 2b2a 833f
00000600: e322 571f 761b c0bf a537 d358 5024 c2bf
00000610: a1dc 1a2f be5d a4bf 2ae9 90c1 c770 b63f
00000620: 9bc2 af23 6174 bcbf 763d 7d89 45aa bdbf
00000630: fb77 0947 dbd6 a0bf 7ae3 c3f1 93e7 a6bf
00000640: 617a f3c3 83f7 abbf 7676 c454 e833 b1bf
00000650: c63d 033b 823c ad3f edd7 cd59 c21c 83bf
00000660: 32a7 14ec 7b27 a0bf 3257 aef8 4c1a 99bf
00000670: 9820 14c9 39b0 b63f 142b aaa8 4b83 b23f
00000680: 7249 4e9d 4c0f b63f 8554 63ea 8a45 983f
00000690: 0ee2 ec6d a41f a63f d08e 0fcf 72b9 75bf
000006a0: 6369 d30d d7c5 aabf c836 348e 4450 b4bf
000006b0: 5994 7655 8e10 b03f ed64 a9f1 c29f 8abf
000006c0: 98df 360b 75d0 a23f dd79 1415 8dc9 913f
000006d0: d3a4 a092 bed7 b1bf ab93 d15b d348 a6bf
000006e0: a6a9 3a40 44c4 993f 7241 d526 d7a4 6f3f
000006f0: 54f5 f7a8 30ff afbf 5667 3d23 e00e a03f
00000700: 4082 f58d b919 6c3f 8302 cd9c c540 7f3f
00000710: 3f8e 6356 fe04 b53f 1afc c472 c50b af3f
00000720: 953a cbb7 c4a3 a2bf e9ea 58c4 c991 b43f
00000730: ec0a 4cac 1a3b c23f c04c 1135 2e54 bd3f
00000740: 2a3e e911 61a5 a1bf 3482 629f 0965 b3bf
00000750: 3598 1054 73b6 b23f 1399 2e42 26a2 97bf
00000760: 5a89 9805 2ded b1bf 31fd 4a1e 655c ad3f
00000770: b30c 769d 4a9f a23f 2c16 0003 ce61 9b3f
00000780: de86 d168 fd28 92bf d6e0 f959 f794 9cbf
00000790: 6cda 19e5 a2bc c03f bfa9 a772 2475 c73f
000007a0: c0ce cc3b 2409 73bf e675 28bf 52a7 a5bf
000007b0: 57b8 1be1 7921 cc3f 62d8 e84a ae33 c13f
000007c0: 9630 2f97 b919 b23f 00e3 2b7e 6252 963f
000007d0: 40b5 4b6a f133 b93f bad9 061a 6b57 93bf
000007e0: 9904 c7cf 50f5 b2bf ff17 bee1 6365 9abf
000007f0: 23ce 9741 aeda 423f b22d 917c 53f6 bcbf

attention.0.bias f8 [16]
0.05778918352009663 0.05024624876827547 0.0362567870137796 -0.02776199101537317 -0.045783136966204986 0.03047300351677493 0.061741897789781876 0.07378750826554631
0.09916878953934258 0.06937561650449636 0.07224959181207745 -0.063032453813271 -0.03866326288801985 0.0015556847314705208 -0.034131360198027316 -0.007672125675076848
00000000: 0d0e 903a 8b96 ad3f 55b0 6956 e0b9 a93f
00000010: a8e5 f6e4 3f90 a23f 6b76 eead a36d 9cbf
00000020: a5ce f427 e370 a7bf d9cf 0fa6 5034 9f3f
00000030: 1da5 994f a29c af3f fc95 daf6 bce3 b23f
00000040: 66fa da33 2063 b93f 84d2 06b4 99c2 b13f
00000050: e772 fb01 f37e b23f f4f1 b617 e522 b0bf
00000060: b746 52d3 abcb a3bf 6ef2 d9c2 037d 593f
00000070: 8015 a367 aa79 a1bf b517 d88d ce6c 7fbf

attention.2.weight f8 [16, 16]
-0.01260569733850717 0.31187141341275393 -0.1400261869159454 0.40975432228190956 -0.07082663660991795 -0.38794321238573426 -0.03222490948719858 -0.012255789034089049
-0.04301460387707254 -0.17984957595394746 0.08883470843584397 -0.04812730678821004 -0.0010075902831128386 0.2438813596875918 -0.125215873608496 0.15508806796905267
-0.17856438718759096 -0.2843679468839869 0.15898173425641243 0.229981162593168 0.026775225628761553 -0.26008927113367525 0.14697028970710704 -0.17633789444215958
-0.14292817759332518 -0.04912824059214568 0.1320755754081113 0.019169897957454773 -0.24257466214703843 -0.11408840856169777 -0.28669354545286624 -0.39907612289268457
0.11990254742327101 0.31691773666258055 0.07502865157936593 0.07747889634089172 -0.10155168596620362 -0.20495649022952503 -0.009995589285484231 -0.12523579726673237
0.19309846547284518 -0.15626721740806546 -0.32474296951678644 -0.25939307109585347 0.3127880457928298 0.15694626201193798 0.1838058166687645 0.0803933158844195
0.27328483143214 0.2007817176730652 0.2441402833197055 -0.29208168013511965 0.03772581771077632 0.3960934238037524 -0.2750639207062778 0.39660296693448716
-0.028172447881029666 -0.13841021499948086 0.06662448838570036 -0.042697915654177604 0.05431288770698658 -0.14759302083727158 0.07806514272543397 0.2136349784793463
0.06738592904246288 -0.3291343158842638 0.4063128464294552 -0.059064717839855396 -0.06018718995495201 0.33797649936723556 -0.05030486825418397 0.2611440553195789
0.26331225725534 -0.2489405886674029 -0.07766817076954063 -0.19509448521644226 0.021113261538417964 0.23566690184274444 -0.11682740835513337 -0.11806119982903501
-0.20260988514699171 -0.25279658834555163 0.229899450453258 -0.07422507752334785 -0.3157442503831692 -0.2237087124771984 0.26596980403766174 0.015046369301921892
-0.0023635410571330373 0.05517002798508571 -0.15943048673750265 0.18710663985157014 0.021423739716206893 -0.2109874741206815 0.15366468820626844 -0.23664653732820828
-0.18615199019693962 -0.15326671433787817 -0.18742697666154237 0.1359810255735479 0.07966947873863708 0.11755614797793326 0.20209174578840897 -0.11654531457716591
-0.25552011258235163 -0.09314254528804741 -0.013047492986272426 -0.10686616121444624 0.024408261525482956 0.1848791536281035 0.10710426708636779 -0.24836706777585027
-0.15267206221631596 0.3210312374962158 -0.1431418089623579 -0.2351796274062517 -0.09783149179443068 -0.07627899640408115 -0.12100745483395152 -0.10122432639206104
-0.33561929815302377 0.14133820058179572 -0.3153962960605033 0.14228010867597748 0.26771044545788697 -0.25456594392021864 0.043220658778487006 0.010671265057612097
-0.09940975026926467 0.12087287560684423 -0.013016933873175521 -0.0902745408526328 -0.1855688261748986 0.13692541334001346 0.08683883463193623 -0.20821155480007628
0.02905949883454419 0.016957270006842752 0.11899168231014846 -0.18238931518302082 -0.0036327567804356436 0.01994553587207362 0.2549006955933239 0.03973364837520542
-0.2574241023175534 -0.21017009887172627 -0.28732188746170906 0.11576143983076076 -0.31248562831653987 -0.13744282942470093 0.12781246880400457 0.041385686378843434
-0.34534614322083523 0.13837814331905798 -0.070229658457156 0.31098851057279125 0.006574780175845058 0.06202525024153363 0.051404766257680215 0.2445682859615439
-0.12327771551931323 -0.13665228848279357 0.029739403212517983 -0.2650047821793401 -0.05878368513729519 0.23641011449334456 -0.20908589424580934 -0.18036060495179101
-0.09911228250619035 0.05679553349800169 -0.17333905531317043 0.2640191776454288 0.13994982120815552 -0.18188157936098098 0.1218412667849878 0.022254576677918116
-0.12404887967366117 0.2297013244531473 -0.12586847037337975 0.02783779097051471 0.1674309324149309 -0.1626396409707573 -0.07689716729295769 0.3589075601261751
0.1870162818875679 -0.15594097222243195 0.0007756460312264053 -0.3339263041801328 0.11433338451218131 0.1359264070479941 0.30856121488369853 0.08007321662789907
0.04704889106884017 -0.1222290467377798 0.08022374524965774 -0.16145911250872977 -0.2653290788121952 0.2526570674451595 0.1885315489756172 0.02575148194911953
-0.0782252320302179 -0.15307912851410985 0.03669627178061192 0.13083931457295542 0.21149175865138437 -0.36554284600538733 -0.19587753300442254 0.04792257964297659
0.31341920200701756 0.052886599433607406 0.09100831545177204 0.16927681167423203 0.05211283453634994 0.09051252802429235 0.21260987091364236 -0.1481686781440826
-0.09081152364919495 -0.2729403095003752 -0.022963727912201554 -0.06490147599971774 0.2414295173771381 -0.23991707879418964 0.17576798658733084 -0.24202973593897228
-0.04325339981920091 -0.08894154929846912 0.16072589594090236 -0.34710294474241077 -0.2431578220267885 0.11067234681501316 0.12984938906007687 -0.1082896064164692
0.04798818200216075 0.004625767084990138 -0.23198109092401661 0.09071444158318108 -0.10854035600679636 0.16302982317211823 0.11144314872549414 0.2478576372342321
0.16707263304297215 -0.297301574596913 -0.21943682261558703 0.16062523975288884 0.15087262444813876 -0.2967396235424018 0.3168241918046687 -0.12624331962261806
-0.18122693497056194 0.14823329157939644 0.2917988907680284 0.0851078006222757 -0.1262247908074048 0.06366713400017283 -0.24584076832575874 0.01848384256982929
00000000: 124f 7f0e 04d1 89bf 9290 4a84 b3f5 d33f
00000010: d99b b1ca 60ec c1bf c81b 6631 6a39 da3f
00000020: c0de ecc7 b121 b2bf e8b8 79c4 0fd4 d8bf
00000030: 7068 ba88 c87f a0bf 6d67 b428 9019 89bf
00000040: 2c0a ce99 0206 a6bf 5cf9 7597 4f05 c7bf
00000050: 194d 7b17 dfbd b63f 095c 6671 24a4 a8bf
00000060: 7344 14d4 2382 50bf 032a fb1f 8137 cf3f
00000070: ee55 0be1 1207 c0bf dea4 f601 edd9 c33f
00000080: ddb9 99a5 32db c6bf d26e f99d 1533 d2bf
00000090: b275 a572 8359 c43f c750 04d2 0570 cd3f
000000a0: df98 acf9 f66a 9b3f afd0 6378 4da5 d0bf
000000b0: 2949 e325 eccf c23f 7e58 d678 3d92 c6bf
000000c0: db58 3874 784b c2bf 6c7b 4e35 5627 a9bf
000000d0: 4f36 7d3a dae7 c03f f000 2e13 46a1 933f
000000e0: 7240 61c0 af0c cfbf b00b a0df e534 bdbf
000000f0: 3b70 6ce2 2f59 d2bf 5211 1c94 768a d9bf
00000100: 89d9 e3ef eeb1 be3f 6b3d 9f54 6148 d43f
00000110: f3dd cbe4 1335 b33f d40f ea2d a8d5 b33f
00000120: 0419 1492 4aff b9bf adc2 51a7 033c cabf
00000130: a7e7 ae48 9178 84bf f748 c602 ba07 c0bf
00000140: 418c 0e55 73b7 c83f 1f2f 1a6e 9000 c4bf
00000150: af8d 6bbc 96c8 d4bf b99a 4a65 e599 d0bf
00000160: 18a3 d026 b804 d43f 610d 49ab d016 c43f
00000170: cc15 b4f1 f286 c73f 6463 8a06 a894 b43f
00000180: 4a9c 5fa9 7f7d d13f c52f 851f 37b3 c93f
00000190: 8845 3f22 fd3f cf3f 853a fc5b 77b1 d2bf
000001a0: 70b6 9062 cc50 a33f 4d75 593b 9859 d93f
000001b0: 518d efb3 a59a d1bf 76bb 1e69 f161 d93f
000001c0: fb6b 30f9 3cd9 9cbf e273 6d09 6db7 c1bf
000001d0: 61b4 ba6e 4d0e b13f 6422 af4e 80dc a5bf
000001e0: 0bd9 e718 e6ce ab3f 3195 cefe 53e4 c2bf
000001f0: 909b f6c2 13fc b33f bfdb ec16 6458 cb3f
00000200: 28ad 7249 3440 b13f 36b6 ad60 8910 d5bf
00000210: d0fc d698 0701 da3f 8875 f00e bb3d aebf
00000220: e443 fdf8 dad0 aebf 6b53 e62e 68a1 d53f
00000230: 1a6e f647 8fc1 a9bf 2f1d 498e 95b6 d03f
00000240: 460c 63a7 1bda d03f 1d9b 7c03 49dd cfbf
00000250: b433 65ad 0fe2 b3bf c139 d128 dbf8 c8bf
00000260: be10 47ff b69e 953f 7905 1542 552a ce3f
00000270: 7767 29aa 66e8 bdbf bc35 3140 4239 bebf
00000280: 17bd 46e7 1eef c9bf 5c02 dfbd d12d d0bf
00000290: b455 885e 586d cd3f f97e 8128 6a00 b3bf
000002a0: 86ed 525f 2735 d4bf 21bd f5b1 7ca2 ccbf
000002b0: a52d 8436 a605 d13f 2733 9a80 a1d0 8e3f
000002c0: 6e66 6171 b45c 63bf 7ba8 d4f3 3e3f ac3f
000002d0: 8eef 42db 3768 c4bf e772 8341 1cf3 c73f
000002e0: f7a9 c1d5 1af0 953f 7b63 9b36 a301 cbbf
000002f0: d0ae 32d5 48ab c33f 68a5 4409 6f4a cebf
00000300: ec96 fd12 d4d3 c7bf 83c2 d262 3e9e c3bf
00000310: 2722 936f 9bfd c7bf c282 db84 d367 c13f
00000320: fafb ab0d 3865 b43f 324b 02e3 2818 be3f
00000330: 1df4 796f 24de c93f da67 9cea e9d5 bdbf
00000340: 68bb c007 715a d0bf 5edc e099 30d8 b7bf
00000350: d4db 5ddd a4b8 8abf 7711 77ab 945b bbbf
00000360: aa43 04b4 7afe 983f 1dbe 45bf 1eaa c73f
00000370: 41e3 656c 2f6b bb3f b016 c0f8 7dca cfbf
00000380: aeb0 1d15 c28a c3bf 1b9a 829a c68b d43f
00000390: 6e80 1786 7852 c2bf ba99 32b4 5d1a cebf
000003a0: 1ca6 c611 7c0b b9bf f45e ed32 0587 b3bf
000003b0: 4382 1535 58fa bebf 39dd 6963 d6e9 b9bf
000003c0: 4551 5e5d c97a d5bf 7d4f 96c2 5e17 c23f
000003d0: 5500 37f2 732f d4bf 2f3c d10e 3c36 c23f
000003e0: 8582 02fe 2a22 d13f 6d03 f4f4 ce4a d0bf
000003f0: ae2b eea7 0421 a63f d164 6ff3 d0da 853f
00000400: 675d 4fda ea72 b9bf 8072 b457 86f1 be3f
00000410: d561 3c4a 9fa8 8abf fb9b 9f78 3b1c b7bf
00000420: ad05 ca23 b8c0 c7bf 9eb0 249e c586 c13f
00000430: c254 c4e2 113b b63f 7900 421d ada6 cabf
00000440: a5b2 87f4 c5c1 9d3f 7a71 6f20 3f5d 913f
00000450: d1a2 0428 3d76 be3f a4ea ec77 8858 c7bf
00000460: 3713 1f72 71c2 6dbf e745 1641 9a6c 943f
00000470: 3743 d301 4b50 d03f ae00 a500 f857 a43f
00000480: b8fc 29f1 a279 d0bf b625 a092 dae6 cabf
00000490: 92ac 8457 7b63 d2bf 6403 36ae 8aa2 bd3f
000004a0: 31bb 85b8 c3ff d3bf 2e72 b904 ba97 c1bf
000004b0: 5161 c4b2 285c c03f f00e 0a33 8130 a53f
000004c0: deb9 bbb5 261a d6bf d5ad 0400 60b6 c13f
000004d0: 4f61 4826 92fa b1bf 81e1 955a 3ce7 d33f
000004e0: ba9a 561d 28ee 7a3f 9490 a00a c6c1 af3f
000004f0: 82da debb b951 aa3f 50fb eb7a 034e cf3f
00000500: 9125 7bdc 208f bfbf 1584 fa7a d27d c1bf
00000510: 3b21 cd90 0174 9e3f 8e9b 2f9e d6f5 d0bf
00000520: 66f5 672a e518 aebf d7a4 18c7 af42 ce3f
00000530: ef9a eb9a 53c3 cabf 9a9a e069 0e16 c7bf
00000540: e3f9 fe2b 6c5f b9bf 9e96 dddd 4d14 ad3f
00000550: e144 d862 f92f c6bf 6840 60b1 b0e5 d03f
00000560: 06c5 9530 e0e9 c13f bad4 8c45 e547 c7bf
00000570: 440d 2540 fd30 bf3f 0a6a 125c e7c9 963f
00000580: bfc6 4dd9 aac1 bfbf 3de4 2f5e da66 cd3f
00000590: 7bf4 ec41 751c c0bf f4b6 3e87 8281 9c3f
000005a0: 0ccc 8775 606e c53f af54 8031 60d1 c4bf
000005b0: afa4 ad62 88af b3bf 60dc 416a 57f8 d63f
000005c0: 5368 4347 26f0 c73f 0ba1 e6af dff5 c3bf
000005d0: 2595 2f2b 976a 493f 9494 ee6e 0c5f d5bf
000005e0: b620 52e3 f344 bd3f a58a 7758 0966 c13f
000005f0: 3154 af89 77bf d33f 34cd b3a6 ad7f b43f
00000600: f54f e8d0 ca16 a83f 412a 5c1e 674a bfbf
00000610: 03bd 351a 8b89 b43f f3de ee33 b1aa c4bf
00000620: 9d46 0bd1 26fb d0bf 3aef 718c 882b d03f
00000630: e0a7 8e42 cd21 c83f 3115 2eb3 985e 9a3f
00000640: 3fb3 4a9d 9106 b4bf 4b8a 55cd 1898 c3bf
00000650: 499f 5d8e dac9 a23f 699a 8fb8 57bf c03f
00000660: 0cff 6375 2912 cb3f 5450 38d2 0d65 d7bf
00000670: 4b38 23d7 8312 c9bf c9f2 9cf0 4e89 a83f
00000680: 6abf a369 0f0f d43f e090 edcd f313 ab3f
00000690: 9287 872a 524c b73f 4855 0ed1 dcaa c53f
000006a0: bd2a 1290 88ae aa3f 4a1c be3b d42b b73f
000006b0: 88c0 30dd cc36 cb3f 2bcf 75f5 30f7 c2bf
000006c0: 5658 2c8c 6c3f b7bf 561c c4a1 da77 d1bf
000006d0: 1833 82b1 cd83 97bf c083 e114 629d b0bf
000006e0: 6f41 b694 29e7 ce3f 9321 9653 9ab5 cebf
000006f0: ecc5 09bd 907f c63f 393a 4294 d4fa cebf
00000700: 8a1c 5443 4f25 a6bf 4214 7e95 dfc4 b6bf
00000710: 68de 5789 aa92 c43f 8ce4 0045 ef36 d6bf
00000720: 1192 afa6 cb1f cfbf 795d 24de 0555 bc3f
00000730: 0695 b59f e79e c03f c631 0e1e deb8 bbbf
00000740: d669 9630 e891 a83f 4a48 95e5 77f2 723f
00000750: 138f 676f 8eb1 cdbf 0fea dfc7 0f39 b73f
00000760: 516b 58ff 4cc9 bbbf 2c01 6647 29de c43f
00000770: a3a6 23c7 8987 bc3f da0f fe8e ccb9 cf3f
00000780: 48f3 7cd3 a262 c53f dc5a fc2e fd06 d3bf
00000790: 5b07 567c 8116 ccbf f64d d32b 5e8f c43f
000007a0: b4e7 ee4d cb4f c33f 98af a230 c8fd d2bf
000007b0: e27d 98f9 d846 d43f 290e 8fb8 bd28 c0bf
000007c0: 3f2b 6db7 7132 c7bf 3f87 c1f9 4ef9 c23f
000007d0: 83e5 3641 d5ac d23f 35a2 4ef4 9fc9 b53f
000007e0: d92a 3b4a 2228 c0bf dd5c 5c42 7d4c b03f
000007f0: 5cc7 fdd5 b577 cfbf 8708 5ead 6ded 923f

attention.2.bias f8 [16]
0.1569002037891849 -0.058087062805596945 -0.19354427059336102 0.20579544960810814 -0.19929108592045344 -0.14569006906937507 0.13412791912011063 -0.13193745013572197
0.05194445408464177 0.19572182094340226 -0.03408523039364348 -0.043931763454396804 0.23416470229891798 0.04489145014266274 0.09050942420163344 -0.09768595768406707
00000000: 0051 014e 4e15 c43f a037 2466 96bd adbf
00000010: 9969 4304 0fc6 c8bf 9cc0 dd5a 8157 ca3f
00000020: 7dd2 34cc 5e82 c9bf 1ba2 00e1 f8a5 c2bf
00000030: f2fa 0c89 1a2b c13f d7ab b98c 53e3 c0bf
00000040: 9014 01a7 7698 aa3f ab61 08a2 690d c93f
00000050: 4978 a28b 9e73 a1bf c7a0 955e 397e a6bf
00000060: d12e 20e5 1bf9 cd3f 242b 771c 03fc a63f
00000070: a801 ed28 a02b b73f e810 8869 f201 b9bf

attention.4.weight f8 [5, 16]
-0.2995932847338596 0.05106993149961222 -0.19557619885502042 -0.19838242542304432 -0.2662499611848005 0.31345659136834364 -0.1420644584504294 0.17499417717824148
0.022394337177936766 0.243911312891276 0.28119629809359853 -0.22724007191141476 0.12330945898949977 -0.23355062211669467 0.07142712205254648 -0.06212928744929661
-0.3210998009570784 -0.057683417810360446 -0.20029002120590522 0.38951965851645604 0.24561257316017057 -0.17879972693004953 -0.2598210906143404 -0.30112458326809916
-0.07414958661747702 -0.2647485354298678 0.016112782946117378 0.051605393738526156 0.2759516632879805 0.011995233478320249 -0.010450498507435518 -0.21228059240499964
0.04463297148756148 0.29051796745777225 -0.2415304674280868 -0.38412960422434606 0.1026997333366524 -0.046132519179037434 -0.013967594173218514 -0.25033816782149876
-0.23040395480822323 -0.1939272961040771 -0.2674754791765221 -0.23301045009924923 -0.15802632269755462 0.25892990525587734 -0.21294118008739335 0.2890303349376899
-0.2585684502490978 0.08641068719453279 0.007806307085367934 -0.20766507666352726 -0.033088806653836 0.3601403575757996 -0.07275628040859326 0.3083815751333586
0.03391793998623391 -0.06899629264072937 0.1757023856627136 0.18346419856409424 0.25878454729368966 0.32589556761488486 -0.23217031402485105 -0.10306255056205127
0.16773849918288333 -0.269571040779233 0.24738520767211933 -0.0006197351429817576 -0.28194745780866987 -0.27636720403609344 -0.23963626869792098 0.1679388667776728
-0.10266243295253304 -0.11304281662194793 -0.05389317451623172 0.26668475665438374 -0.31676744123369294 0.12229735981500003 -0.23045712445185385 -0.31321444772226226
00000000: 041f 0250 892c d3bf 4b18 338b d625 aa3f
00000010: c0a9 fa10 a408 c9bf 6d85 a566 9864 c9bf
00000020: 3266 f646 3d0a d1bf 8921 293c ac0f d43f
00000030: 49f9 7b0d 2b2f c2bf f748 fc8d 3566 c63f
00000040: 51e9 2d87 8aee 963f b808 ff63 7c38 cf3f
00000050: 955e 04c2 1eff d13f a2a0 99e2 3316 cdbf
00000060: 0ab9 a56d 3591 bf3f edcf f99d fce4 cdbf
00000070: b459 4341 0c49 b23f d5e0 6ff3 68cf afbf
00000080: 7b37 f72d e68c d4bf 7eb4 0852 ae88 adbf
00000090: 7cb2 6579 1aa3 c9bf 898b 9edc e3ed d83f
000000a0: a7cb 9a98 3b70 cf3f ac61 d9d1 e8e2 c6bf
000000b0: 2dfa bfa3 e8a0 d0bf 8d1e 4a0b a045 d3bf
000000c0: 1db3 88a1 77fb b2bf 9573 55d7 a3f1 d0bf
000000d0: fa58 348f de7f 903f c4ef ceac 056c aa3f
000000e0: c650 462a 31a9 d13f 9668 fafb f490 883f
000000f0: 43d9 872a 1267 85bf c43c faac 022c cbbf
00000100: 7b89 b901 22da a63f e46a 48ac d897 d23f
00000110: 4bad 4b69 78ea cebf 546a e455 9495 d8bf
00000120: d124 fd9b 874a ba3f e8e6 4f7a ae9e a7bf
00000130: 9b14 6cc1 0a9b 8cbf 2af8 ee60 8a05 d0bf
00000140: d69b 6275 e07d cdbf cccb 4811 9cd2 c8bf
00000150: c7e2 e278 511e d1bf d3b8 6653 49d3 cdbf
00000160: 6652 f2df 343a c4bf 9cf1 c1bc 4e92 d03f
00000170: 5337 3916 a841 cbbf d8fe 0617 797f d23f
00000180: ce39 66af 628c d0bf e680 86c3 021f b63f
00000190: b1a2 259a 81f9 7f3f 7745 65ec c494 cabf
000001a0: c63f e21c 04f1 a0bf e17f 7024 8a0c d73f
000001b0: bffa eed4 27a0 b2bf 62c0 f812 86bc d33f
000001c0: 3c25 fa35 b15d a13f e8ea 6fb4 bda9 b1bf
000001d0: 8111 2070 6a7d c63f cce9 683e c17b c73f
000001e0: 3d8a d50f ed8f d03f 6f4e 3415 79db d43f
000001f0: 525d ebc0 c1b7 cdbf 303a 1bac 4e62 babf
00000200: 3da3 2284 7478 c53f 7a1c 06e5 a640 d1bf
00000210: 4ba3 3b88 51aa cf3f 5bc8 ec15 b74e 44bf
00000220: 01a1 9e59 6d0b d2bf 2168 c111 00b0 d1bf
00000230: e81b 7fb8 66ac cebf b5c9 4452 057f c53f
00000240: 8515 0fd0 1548 babf c061 70c0 5ff0 bcbf
00000250: 49b7 0cdc e297 abbf e806 0bf1 5c11 d13f
00000260: f452 22f2 ea45 d4bf dae5 ca38 e14e bf3f
00000270: 2851 537a 9e7f cdbf 3084 669c b40b d4bf

attention.4.bias f8 [5]
0.09210687129597389 -0.1301343239345034 0.17212874386971241 0.10349144922073088 -0.11458279419597828
00000000: a4fd f3df 5094 b73f a760 b1d4 3da8 c0bf
00000010: e39c cf8e 5008 c63f 4395 d165 6a7e ba3f
00000020: e08a c149 4c55 bdbf

fcn.0.weight f8 [16, 25]
0.21651279769562806 0.15609802335019446 0.24685010425364062 -0.2612956790430362 0.1699186470085736 -0.4133775926244536 -0.43242398670492493 0.13208941513396236
0.30027104262070353 0.28049626066098693 -0.36586070269505383 -0.29146196154454795 0.25869063610811316 0.4053248416256558 0.06922901919933992 -0.3454150223832894
-0.29702415259567455 0.23887940134599264 0.14337119265474915 0.010616221677391903 -0.33692529956503475 -0.20268882393645393 0.13326940136092294 0.45692428941886865
-0.3841189190940848 0.049704392108173574 0.20331260966230313 0.3385201798070259 -0.4130528025905011 0.6043444022456937 -0.26732157534101186 -0.19324137094320382
0.121599216356728 0.17858844609211885 0.358994511669574 -0.22698033946955123 -0.4072583968461244 0.1629927187410788 0.1538585246233939 0.16717893865358094
-0.3655993736871512 -0.16941853368142998 0.11887105978365667 0.1625550337961098 -0.7743685206812183 -0.24423179288400057 0.16530372926332754 0.3805937219813936
0.05332701795271622 -0.11171943880477095 -0.03999870941858415 -0.30800099640786577 -0.24893966388113373 0.39798267822340755 -0.5577016656441651 0.20683908076072577
0.3962967294230141 -0.29756871201742097 -0.0716771442765607 -0.25386543278143175 0.27579729447926565 0.49476325753042627 -0.4241079252697693 -0.01664210368238948
-0.303517118109615 0.4056640359046506 0.22819093346256095 -0.13980843400913148 -0.3463652507970413 0.29281978841302453 0.22615248423374473 0.0038899800028636138
-0.3852613115297823 -0.37084167698569287 0.2755711360705436 0.09532662407907187 0.07993085738756892 0.2742852583925725 -0.24040242305848739 0.45082829635516
-0.18593496826569608 -0.07939776163341969 0.07011407419316189 0.2347389511512025 0.17207958408492544 -0.15818423766617584 -0.1099952871347599 0.1631367500727614
-0.11127230065427124 0.041222531823321425 -0.06156049338308962 -0.1734148924388784 0.33639710017230534 0.15135937054438775 -0.6738649378419025 0.04418610451991882
0.23260721885877764 0.2509151890618281 0.06905798231952248 -0.2538748587539415 0.05349637874712484 0.19849832325381817 0.20014523488162164 -0.29133215067252854
0.5759051282258147 -0.13416496261018807 -0.2804466233412924 0.1755271513503014 0.08541681365236298 0.4180351414182754 -0.003364174856005447 -0.24415389841976495
0.2233359819778002 0.02189883317614952 -0.12205190588423698 -0.4075217901639205 -0.10144992927449867 0.3372104910248586 0.2982853293790785 -0.6325435989462128
-0.18539177724258243 0.12502803415242508 0.18325835453663625 0.229979624297255 -0.4145989042899991 0.374644624713336 0.3039049099420119 0.2568346934197913
-0.33311983973464127 0.26289292883482807 -0.4406479870111333 -0.2622361466043741 0.04368828369906103 0.2824944540372644 0.22801157681951012 -0.42226091890202594
-0.4875336885490975 0.44384568680108827 0.38182642891570356 0.36368092469288593 -0.24170423920569448 -0.17736551191046881 0.41066356413933713 0.46921145198802816
-0.2916233241946519 -0.2157611396578029 0.11430135359314102 0.41252806951188686 0.10049104521053864 -0.16918159793590776 0.16169096403752245 -0.05247650829688046
-0.3643060300359835 0.15032728684130933 -0.6162136951142478 0.31991332604658507 0.0738395244186465 -0.0730339601622349 0.01371186210922801 -0.07464954773728967
0.15774973478692295 0.4513523801311842 -0.2936047656997901 0.07423985154016097 -0.034658499330639324 0.29972816299890664 0.02011998386759209 -0.013432430599859225
-0.34551452610118283 0.6902745373781738 -0.11592350027528811 -0.23835575760605915 -0.5135343969124668 0.09375652784107193 0.3558425936492901 0.3154489340639147
0.22878564485763941 0.21831133919333653 -0.24240137612617224 0.5195846274287437 -0.41085056407723386 -0.12464166105794061 -0.06334326531280188 0.3020038499072812
0.4583059134101407 -0.27165722758077177 -0.2808269590445238 0.40006650643985964 0.31452730629584735 0.24420925612969524 -0.4505479535229064 -0.1731282334665323
0.1185500467203255 0.383845540764608 -0.8060845134854996 -0.14435155916630932 0.32009024315594525 0.17212615719222057 0.11436663090359533 -0.3706840324141742
0.22351829070816695 -0.013497079253310725 0.33356497585339456 -0.36064876292915027 0.5054410869199985 0.010060646201587536 -0.13333204903195325 -0.07293740566854759
0.060122484615194455 0.32043849345669934 -0.04737441731096443 -0.24245816164595843 0.2421459421290036 -0.05326153824414607 -0.17795384944304293 -0.2916213036477218
0.027253231601904678 0.02164874520359082 0.1958181940706882 -0.6125096712863984 0.005470551663632872 0.45967487912803046 0.3631116966251095 -0.13083485885616242
-0.28602577735422596 0.22222486234215183 0.08265651599263962 0.34208423271959526 -0.0829545684158263 0.5438605338124288 -0.25643353804868535 -0.2747003944029983
0.008084656611038618 0.1704903012946576 0.19580696667110878 -0.2000174018810338 -0.23375973830682226 0.2859006943974939 -0.04596612891186495 0.11984753228066546
-0.45952558329199145 -0.14292954913293388 0.052416173432079785 0.4914082217058431 -0.7559168717560423 -0.22166013048647024 0.38661133306204276 0.4073297226991571
0.2439469316863619 -0.18329389147744132 -0.018949834634227277 -0.030521984670627018 0.42969709110416715 -0.48646754785486845 0.6211557166157534 -0.2696189715555539
00000000: f153 a2fc b0b6 cb3f b631 a120 05fb c33f
00000010: 404c 64c2 c898 cf3f 6adc 0483 11b9 d0bf
00000020: 37f2 f0eb e4bf c53f c828 4e4a c774 dabf
00000030: 71d4 39a8 d5ac dbbf 1df6 1253 4ee8 c03f
00000040: bb78 ff08 a437 d33f 591c 8c96 a6f3 d13f
00000050: a1e0 3d02 436a d7bf 7028 3712 50a7 d2bf
00000060: fc68 772b 638e d03f f377 c29a d7f0 d93f
00000070: c333 6535 feb8 b13f c7bb 2b9c 471b d6bf
00000080: 7550 6197 7102 d3bf 5d0b 3ca8 9993 ce3f
00000090: 3f01 d2bb fc59 c23f 61b8 4a27 f5bd 853f
000000a0: bdea b421 2f90 d5bf d02f 0917 b5f1 c9bf
000000b0: 6d8a 33c4 f80e c13f 4655 f35f 3f3e dd3f
000000c0: 782c d284 6795 d8bf f1f2 24a5 da72 a93f
000000d0: bc97 aec8 2506 ca3f 6da9 538b 50aa d53f
000000e0: 1f6e a905 756f dabf 3f4f 6512 ca56 e33f
000000f0: ccb5 e6f3 cb1b d1bf c4b6 371c 22bc c8bf
00000100: 09ac 7851 2021 bf3f b35d b477 fcdb c63f
00000110: ab1d c41d c4f9 d63f 5da8 6d17 b10d cdbf
00000120: 7e6e de85 8510 dabf d451 3d06 f2dc c43f
00000130: d8f0 bbd9 a2b1 c33f 716e 0c95 1e66 c53f
00000140: 5329 5bea fa65 d7bf ffbe bfaa 81af c5bf
00000150: c22f 3672 556e be3f f42b fa74 9ace c43f
00000160: 6216 ec7d a0c7 e8bf e944 8ac5 fc42 cfbf
00000170: dae1 8b2f ac28 c53f a945 3ec5 a55b d83f
00000180: 1143 33cc ad4d ab3f 7674 fe27 a599 bcbf
00000190: 8a88 abf9 b57a a4bf b742 adcf 49b6 d3bf
000001a0: 53fa 8541 41dd cfbf 8904 d656 8c78 d93f
000001b0: aeb9 db29 b1d8 e1bf 6475 b3f7 b379 ca3f
000001c0: 028d 18f5 ec5c d93f de5e 9ba3 5d0b d3bf
000001d0: 41db 89ee 6e59 b2bf 8764 d8cc 543f d0bf
000001e0: 4f47 07b2 a9a6 d13f 42c2 9682 33aa df3f
000001f0: 3d84 4091 9524 dbbf 9bc3 35ac a00a 91bf
00000200: 54a5 0310 d36c d3bf 10ed d749 66f6 d93f
00000210: 9992 3b4a 5c35 cd3f c918 e325 3ee5 c1bf
00000220: 6e39 2928 d92a d6bf d3c1 b635 8fbd d23f
00000230: 26b7 d889 90f2 cc3f 81de 9e1c e1dd 6f3f
00000240: 91ce 5b0f 1fa8 d8bf 216e a9ba debb d7bf
00000250: 5240 491e f5a2 d13f 3792 db5c 5367 b83f
00000260: babc 6b42 5976 b43f 678b a4c1 e38d d13f
00000270: 812a 75b0 81c5 cebf 583c 3ded 5eda dc3f
00000280: af25 f18f b7cc c7bf 0655 9765 6953 b4bf
00000290: 7321 a6f7 fef2 b13f 4558 250b ed0b ce3f
000002a0: e11d fa2c b406 c63f dc6b c28f 613f c4bf
000002b0: 763a f5b0 a628 bcbf 504b 2b3f aae1 c43f
000002c0: 1cc2 426c 577c bcbf 5937 14a4 1e1b a53f
000002d0: 4aab 9c63 db84 afbf 1b09 d58d 7532 c6bf
000002e0: f764 edb3 8787 d53f 8c34 376d be5f c33f
000002f0: 2577 be33 4d90 e5bf 868d b3a3 8f9f a63f
00000300: 73ee e7c6 12c6 cd3f fac5 c594 fe0e d03f
00000310: 7c10 97af c8ad b13f b1fc e755 7c3f d0bf
00000320: cbbe 589a e063 ab3f 5ece 579f 6468 c93f
00000330: 9d26 22eb 5b9e c93f d35b da9a 2fa5 d2bf
00000340: 9283 6a97 d06d e23f 5c04 5747 512c c1bf
00000350: 1991 e164 d6f2 d1bf f006 4e77 ac77 c63f
00000360: 5059 2a55 e0dd b53f 3718 3e77 16c1 da3f
00000370: a596 819f 2f8f 6bbf 9baf 7358 6f40 cfbf
00000380: 66ae 4e01 4696 cc3f e99c 3fd1 a56c 963f
00000390: c8f0 2f30 cb3e bfbf 9754 4a46 d614 dabf
000003a0: 365d 6a60 9ff8 b9bf bd78 b44f db94 d53f
000003b0: 9ed2 a359 1b17 d33f 7994 d812 cc3d e4bf
000003c0: 8223 1af2 eaba c7bf 7a48 e22a eb00 c03f
000003d0: 6a10 ba7f 0275 c73f a231 8dea f86f cd3f
000003e0: c082 b8d7 c988 dabf ad05 b172 2dfa d73f
000003f0: 74dd 5294 2d73 d33f 0fd6 2dc8 fa6f d03f
00000400: 67c7 53e0 d551 d5bf d87e ecdc 3cd3 d03f
00000410: 0cb5 509d 9333 dcbf 98ab 5f1e 7ac8 d0bf
00000420: 7963 698b 4f5e a63f 1f0d 599e 6314 d23f
00000430: c84b c6bc 7b2f cd3f fd09 44a9 5206 dbbf
00000440: 5c10 0180 c033 dfbf 5c01 52bd f767 dc3f
00000450: 2740 3c1e d86f d83f fa09 6f5b 8c46 d73f
00000460: d7b4 581d 2af0 cebf 6500 8cc0 e9b3 c6bf
00000470: bac8 68d4 4f48 da3f d49f 4c78 8f07 de3f
00000480: 6fad 0ae0 f4a9 d2bf 55fa 499f 0f9e cbbf
00000490: d331 927f da42 bd3f 8f13 cf21 dc66 da3f
000004a0: d859 b8f8 c7b9 b93f 9a20 1c1b bea7 c5bf
000004b0: 93c8 4c1d 4ab2 c43f f301 e36d 33de aabf
000004c0: 805e 2f3d ca50 d7bf d304 57ae ec3d c33f
000004d0: c69d 7bc8 05b8 e3bf c22d 3bbe 7579 d43f
000004e0: 70c0 87a6 25e7 b23f 0ce8 6486 5ab2 b2bf
000004f0: 7275 9cfa f614 8c3f 9d5e 3196 3b1c b3bf
00000500: a666 eeaf 2431 c43f 0fa7 e817 f5e2 dc3f
00000510: 8257 a8a4 6bca d2bf 5ec5 6c06 6201 b33f
00000520: fb9b 4e42 c2be a1bf 3d4f 7108 bf2e d33f
00000530: 0855 d442 559a 943f 07b7 0e51 7682 8bbf
00000540: f270 79f5 e81c d6bf 0aa0 69a0 ba16 e63f
00000550: 722c 859a 29ad bdbf 229c dd03 7182 cebf
00000560: 2c86 03b0 df6e e0bf b129 dd84 6d00 b83f
00000570: 57d7 8f03 20c6 d63f 6a34 d7b9 5030 d43f
00000580: 3c9a 3a17 d948 cd3f 4336 173f a0f1 cb3f
00000590: a6d0 7b1f 0207 cfbf 10f2 c9f0 6fa0 e03f
000005a0: d24f 102a 604b dabf 5085 f611 84e8 bfbf
000005b0: d0b9 f0a4 4337 b0bf 1b8b a7f4 0754 d33f
000005c0: d23c 6a53 e254 dd3f c79c 0bff d462 d1bf
000005d0: 6c9b 3ba3 11f9 d1bf 4096 588c b09a d93f
000005e0: 4056 8f23 3721 d43f 4c90 3ab8 3f42 cf3f
000005f0: 7347 6a15 c7d5 dcbf 9962 60e2 1029 c6bf
00000600: cd62 9abd 4b59 be3f cc29 13e3 ec90 d83f
00000610: ef6e e7bf 71cb e9bf e679 dfa4 1c7a c2bf
00000620: fae6 87c9 5b7c d43f 809f f6db 3a08 c63f
00000630: b011 7cab 2147 bd3f ef91 1785 49b9 d7bf
00000640: 771f 5352 3f9c cc3f 1e3c e04f 5ba4 8bbf
00000650: 3168 98e9 2059 d53f 5ee8 878c de14 d7bf
00000660: e708 4cc9 922c e03f 03b0 4c13 ad9a 843f
00000670: 8bea 0c4b 0611 c1bf 1a62 009c 06ac b2bf
00000680: 4461 5ad2 5fc8 ae3f 89aa 7174 1082 d43f
00000690: 3909 09aa 7541 a8bf 4f76 7579 de08 cfbf
000006a0: 92ce 2663 a3fe ce3f 7559 c9a9 1845 abbf
000006b0: 0c10 c715 31c7 c6bf 69f7 7e66 eca9 d2bf
000006c0: ef10 c369 45e8 9b3f 9b6e 98b2 162b 963f
000006d0: d768 bf11 9210 c93f d214 d5e1 ad99 e3bf
000006e0: 0d38 c807 4a68 763f ff72 292f 506b dd3f
000006f0: df31 73d7 383d d73f 2464 fb57 32bf c0bf
00000700: 0229 e30f 3f4e d2bf f60e 0f42 dd71 cc3f
00000710: 345c fd38 fa28 b53f ad81 0044 b5e4 d53f
00000720: 3a57 66b6 823c b5bf 4be7 c934 4e67 e13f
00000730: 3511 e136 6869 d0bf fe2f 8af6 b094 d1bf
00000740: f84d f33d b08e 803f 3c41 2c4e a0d2 c53f
00000750: 4537 17e3 3310 c93f f5de da93 2b9a c9bf
00000760: eb1c 93cf d6eb cdbf bed1 156d 324c d23f
00000770: 65e4 cc58 df88 a7bf e7d9 a6ef 53ae be3f
00000780: fa85 fafd dd68 ddbf 9038 94f5 834b c2bf
00000790: ba30 58ed 4ad6 aa3f 4493 4d78 3b73 df3f
000007a0: 7efa 5594 7830 e8bf 171c a2f1 5b5f ccbf
000007b0: 8aec f075 3dbe d83f ce9f 6baf b011 da3f
000007c0: 5ab7 c62e a739 cf3f 27e1 b99a 2c76 c7bf
000007d0: 9f0f 13e0 9567 93bf f59e e0b7 2741 9fbf
000007e0: 85a3 5e3a 2880 db3f c286 26c8 4822 dfbf
000007f0: c1d1 12f4 81e0 e33f a495 4dee 6f41 d1bf

fcn.0.bias f8 [16]
0.23125197298446235 0.3064713599406772 -0.3851971265747971 0.27015612160683045 0.2599968128871873 0.20593911671717163 -0.1806900381855756 0.25763460831041124
0.18621552249614015 0.01412302561328199 0.01475482258225331 -0.21720142027777065 -0.23967559438366384 0.152827534207247 0.18288939976567492 0.14361573246470422
00000000: 6547 8d26 aa99 cd3f 4cc6 060d 3a9d d33f
00000010: 28b9 49d9 11a7 d8bf f064 c7e6 3c4a d13f
00000020: 758a 1aac c9a3 d03f 7a39 a285 365c ca3f
00000030: 382a 5ce6 d920 c7bf ffb3 40de 157d d03f
00000040: d871 9005 e9d5 c73f 5f74 0969 88ec 8c3f
00000050: e5ac 97c3 c637 8e3f 736f 5e92 41cd cbbf
00000060: 357b c39b b0ad cebf eb99 ac46 da8f c33f
00000070: 9aaa 637b eb68 c73f 3641 1015 0062 c23f

fcn.2.weight f8 [5, 16]
0.10691610472332196 -0.03832554614679068 0.15690864670501853 -0.2447491121729928 -0.18794752114367352 0.03619850333101587 0.30751365837867767 -0.16055991418572801
-0.40005068586069964 -0.37425684493356387 -0.04474623668362224 -0.06798223920977348 0.1156105153693317 -0.16122491036521547 -0.37237188066922805 0.032389709086084816
-0.10627060875300483 -0.3207210672450415 -0.18522711123346827 -0.28857860594259516 -0.17719339656295666 -0.10112895914597157 0.2508504731023655 -0.10127049028463396
-0.4566634248991865 -0.3068331813448486 -0.13826724240646449 0.24141775271060129 0.10588087664156036 -0.3117063448892466 -0.20779158358607466 -0.28188245564041486
-0.22781062581734568 -0.235153837992803 0.17096382455099246 -0.022514831765405825 -0.37182812054116576 -0.2357669910864314 0.1885238790675915 -0.19703310320765155
-0.4840809092442654 -0.34256539273626796 -0.08799384595205516 0.07022895543608033 0.14833043784748906 -0.2774051145695026 -0.4355518909085293 -0.43824483478970394
-0.34801752526834157 -0.23338007023107393 0.15529389746249322 -0.18478910173552426 -0.4380438370462892 -0.30024227856557995 0.019879699475659863 -0.09668408657071229
0.012641764781624034 -0.405895643560873 -0.3757497320708634 0.4704850122135286 0.4376680293584727 -0.11944839620356175 -0.38163333678964334 -0.1915439024246395
-0.4080910906581319 -0.09639488358657713 0.46974234521751485 -0.29949431801201193 -0.19616815319548234 -0.5934031740355752 0.35563471512176276 -0.4715392319548403
-0.035500499755069526 -0.47004680232633766 -0.5401986556566506 0.13946634826131102 0.26223509221510677 -0.3191577476018794 -0.3335917104690532 -0.2805608554345685
00000000: 1bcf 3395 da5e bb3f 2886 9aee 679f a3bf
00000010: d261 0721 9515 c43f 7107 415c f053 cfbf
00000020: 8492 5614 aa0e c8bf 9714 f137 9c88 a23f
00000030: bbd2 73c4 4dae d33f 5cf6 3c2e 3a8d c4bf
00000040: 99e6 2031 6e9a d9bf 9fcd 52fb d2f3 d7bf
00000050: 24b8 598e fae8 a6bf 3c65 1db6 4867 b1bf
00000060: 94c1 9596 a698 bd3f 50d9 a892 04a3 c4bf
00000070: 8928 5bde f0d4 d7bf 4bdd 804a 6295 a03f
00000080: 45c3 1ef5 8c34 bbbf b329 bda7 b186 d4bf
00000090: 4947 8aa0 85b5 c7bf 6351 b666 1278 d2bf
000000a0: 210c a7f1 45ae c6bf 3be1 3564 96e3 b9bf
000000b0: 584a 8a24 ef0d d03f 0f88 d2e3 dcec b9bf
000000c0: bb2a ce3a f939 ddbf 700a cda3 27a3 d3bf
000000d0: 1c37 1fb2 bdb2 c1bf b46d 48e4 c6e6 ce3f
000000e0: 0b83 7256 021b bb3f 1952 502b fff2 d3bf
000000f0: 5970 f123 ea98 cabf 13ac 12b6 5c0a d2bf
00000100: ac8c c809 e628 cdbf cd9e da5d 8519 cebf
00000110: a46f 9f81 24e2 c53f c5ef 6dc8 200e 97bf
00000120: e846 5d2c 08cc d7bf 5ca5 18de 9c2d cebf
00000130: 6c20 8eeb 8c21 c83f 00cd 4077 6138 c9bf
00000140: b29c 747e 2efb debf 70cb a265 97ec d5bf
00000150: c703 9dc2 c386 b6bf 6988 d45a 86fa b13f
00000160: b235 c7e5 7dfc c23f e76c b461 01c1 d1bf
00000170: 1e70 ca09 15e0 dbbf 4d03 4410 340c dcbf
00000180: a597 5d4c eb45 d6bf 661f 97ec 65df cdbf
00000190: 2455 6fa1 abe0 c33f de3e 4e56 2ba7 c7bf
000001a0: a900 9504 e908 dcbf 3a34 d463 2b37 d3bf
000001b0: cdb8 680c 585b 943f 4a66 ddcd 49c0 b8bf
000001c0: bb09 68f2 ece3 893f 5db3 abb8 31fa d9bf
000001d0: 6068 ae9a 480c d8bf ebc6 2d2b 6d1c de3f
000001e0: b45c 26c4 c002 dc3f c102 418b 2b94 bebf
000001f0: b3ca 243b ae6c d8bf c9bd 54b6 8284 c8bf
00000200: f999 0a18 2a1e dabf 328e 81c8 55ad b8bf
00000210: 3b5b 9032 4210 de3f 37c3 4c37 ea2a d3bf
00000220: 65e3 3ebd 091c c9bf 9c69 3aa7 28fd e2bf
00000230: bd4b b11b b8c2 d63f 53ba 01e3 b22d debf
00000240: b01d e11a 1f2d a2bf 0e2f e52e 3f15 debf
00000250: 6d6e ecb0 4e49 e1bf 6162 5686 08da c13f
00000260: fa5a 3bb2 75c8 d03f 1cc4 0d9e 146d d4bf
00000270: 2a9a ab0b 9159 d5bf b945 a884 b5f4 d1bf

fcn.2.bias f8 [5]
-0.27330083841359387 -0.1700934769342895 -0.15702415687476842 -0.13822074445954113 -0.23407990265590034
00000000: 462b bdcc c27d d1bf d20c 5980 9fc5 c5bf
00000010: ebc3 3a19 5e19 c4bf 708f 8aa4 37b1 c1bf
00000020: 166b 478b 54f6 cdbf
