checkpoints/LSTM_AD_SMD/model.ckpt (torch, 540881 bytes, 22 tensors)

lstm.weight_ih_l0 f8 [256, 38]
00000000: 0000 0040 097d b03f 0000 0080 8a3f acbf
00000010: 0000 0000 74d0 98bf 0000 0000 240a ae3f
00000020: 0000 0040 4020 bebf 0000 0040 e230 b33f
00000030: 0000 0000 3555 9abf 0000 0040 a147 b03f
00000040: 0000 0000 4fcb 913f 0000 0000 8058 8fbf
00000050: 0000 0000 48c0 a13f 0000 0000 0442 793f
00000060: 0000 0000 e65f a73f 0000 0080 dcf0 a8bf
00000070: 0000 0000 26aa 82bf 0000 0000 080c 87bf
00000080: 0000 0000 868d 923f 0000 0000 e05c 40bf
00000090: 0000 0080 2cf9 bb3f 0000 0000 8aea a33f
000000a0: 0000 0000 81d5 a7bf 0000 00c0 a653 b3bf
000000b0: 0000 0000 6e74 95bf 0000 0000 169b abbf
000000c0: 0000 0080 3a82 a4bf 0000 0000 f083 783f
000000d0: 0000 0080 7a13 b33f 0000 0000 a764 b13f
000000e0: 0000 00c0 1848 bfbf 0000 0080 63d6 b33f
000000f0: 0000 0000 19e1 a13f 0000 0000 915a be3f
00000100: 0000 00c0 351f b53f 0000 0040 0a28 bdbf
00000110: 0000 00c0 056d bebf 0000 0080 87de aebf
00000120: 0000 00c0 7d19 bc3f 0000 0000 2252 95bf
00000130: 0000 0000 b063 ab3f 0000 0000 d5bd adbf
00000140: 0000 0040 2366 bf3f 0000 0080 0b14 abbf
00000150: 0000 0040 62ff b73f 0000 0000 7040 583f
00000160: 0000 0040 b0db b0bf 0000 0040 cf72 b03f
00000170: 0000 0080 7afc b0bf 0000 0080 9cd2 a23f
00000180: 0000 0080 ff7a a2bf 0000 0000 0011 8cbf
00000190: 0000 0000 b1c3 bebf 0000 0080 9783 aebf
000001a0: 0000 0000 425d b13f 0000 0000 281d 9fbf
000001b0: 0000 0040 a3df bf3f 0000 00c0 9ca6 b93f
000001c0: 0000 0000 44f9 77bf 0000 0080 055c b5bf
000001d0: 0000 0040 9e7c b33f 0000 0000 e4dc a33f
000001e0: 0000 0080 78af b4bf 0000 00c0 11c9 b43f
000001f0: 0000 00c0 606d b33f 0000 0080 7161 bc3f
00000200: 0000 00c0 1af0 b1bf 0000 0000 cf11 95bf
00000210: 0000 0000 38d6 63bf 0000 0000 03b2 923f
00000220: 0000 0000 0f49 b8bf 0000 0000 3ab5 b6bf
00000230: 0000 0040 7c68 b13f 0000 0000 d503 9ebf
00000240: 0000 0000 2643 af3f 0000 0000 6830 7d3f
00000250: 0000 0000 9a03 a53f 0000 0000 5025 9c3f
00000260: 0000 0080 3645 a73f 0000 0080 b9b9 af3f
00000270: 0000 00c0 b5a2 bdbf 0000 0080 741b b03f
00000280: 0000 0040 fc7f b6bf 0000 0000 f024 b8bf
00000290: 0000 0000 1023 7f3f 0000 0000 e7cf 95bf
000002a0: 0000 00c0 5bcb b23f 0000 0080 4788 b2bf
000002b0: 0000 0040 8a72 bcbf 0000 00c0 e149 b73f
000002c0: 0000 0000 e6fa 92bf 0000 0040 a6ff b13f
000002d0: 0000 0000 3493 a43f 0000 0080 fafe b7bf
000002e0: 0000 0000 09b7 993f 0000 0000 c3be 9e3f
000002f0: 0000 0040 066d b5bf 0000 0000 c15d aebf
00000300: 0000 0080 8bd2 a53f 0000 0000 7ded 963f
00000310: 0000 0000 4e39 abbf 0000 0080 b25f a3bf
00000320: 0000 0040 e94e bd3f 0000 0000 c7ae 97bf
00000330: 0000 00c0 940a b23f 0000 0000 53b6 ab3f
00000340: 0000 0000 5eaf b4bf 0000 0000 b836 bbbf
00000350: 0000 0080 68b7 be3f 0000 0000 28bc 7a3f
00000360: 0000 00c0 45ef b53f 0000 0000 8f86 9a3f
00000370: 0000 0080 7795 a43f 0000 00c0 15e7 b73f
00000380: 0000 0040 c657 be3f 0000 0040 0e3c b5bf
00000390: 0000 0000 f300 903f 0000 0000 57e1 b73f
000003a0: 0000 0080 922e b73f 0000 0080 2fe1 b33f
000003b0: 0000 0080 b428 b7bf 0000 0000 180b b7bf
000003c0: 0000 0000 4a5a b3bf 0000 0000 9714 903f
000003d0: 0000 00c0 ade4 bf3f 0000 00c0 af36 b4bf
000003e0: 0000 0040 5c0d b13f 0000 00c0 2cb6 b1bf
000003f0: 0000 0040 3f16 bebf 0000 0000 8034 9bbf
00000400: 0000 0000 fe6f b23f 0000 0040 3fb5 bd3f
00000410: 0000 00c0 8cdf b3bf 0000 0000 06c7 9b3f
00000420: 0000 0000 8d9c bb3f 0000 0040 7534 b53f
00000430: 0000 0080 71f1 b33f 0000 0080 80bd b63f
00000440: 0000 0000 933d b43f 0000 0080 ed87 a03f
00000450: 0000 00c0 dae1 b5bf 0000 0040 4ddf babf
00000460: 0000 0080 7c53 adbf 0000 0000 66cf 8dbf
00000470: 0000 0000 4e9d b3bf 0000 0080 256a a73f
00000480: 0000 0000 a6ce a33f 0000 0000 d5fb 9cbf
00000490: 0000 0000 0a99 a83f 0000 0000 0faf a43f
000004a0: 0000 0000 8989 b33f 0000 00c0 d98c b53f
000004b0: 0000 0080 7cac a5bf 0000 0040 cb43 bf3f
000004c0: 0000 0000 7898 8dbf 0000 0000 1c97 71bf
000004d0: 0000 0000 4434 bebf 0000 0000 8198 b4bf
000004e0: 0000 0080 cbb1 b2bf 0000 0000 d05f abbf
000004f0: 0000 0040 43c0 b63f 0000 0000 fbe9 a4bf
00000500: 0000 0040 bae9 b7bf 0000 0000 be9f a83f
00000510: 0000 0080 a87d a43f 0000 00c0 e1b9 b43f
00000520: 0000 00c0 218f b0bf 0000 0000 98c0 9b3f
00000530: 0000 0000 9b4c a7bf 0000 0000 24c2 9cbf
00000540: 0000 0000 5b80 b9bf 0000 0000 302b adbf
00000550: 0000 0000 ba99 a3bf 0000 0080 605e ab3f
00000560: 0000 0000 5e62 973f 0000 0000 3c9e 9f3f
00000570: 0000 0040 7af0 bf3f 0000 0000 2630 bf3f
00000580: 0000 0080 54d3 b53f 0000 0000 cc4d 703f
00000590: 0000 00c0 2723 b6bf 0000 0080 2002 b93f
000005a0: 0000 0000 0a01 a0bf 0000 0000 48b2 84bf
000005b0: 0000 0040 6691 bbbf 0000 0000 9e48 99bf
000005c0: 0000 0080 bda3 b4bf 0000 0080 ad67 bd3f
000005d0: 0000 0000 28aa bbbf 0000 00c0 85f1 b8bf
000005e0: 0000 0000 b862 71bf 0000 0080 8a4d b1bf
000005f0: 0000 0000 63e6 a63f 0000 0000 9fa2 a8bf
00000600: 0000 0080 5c0f aebf 0000 0000 9cff 7c3f
00000610: 0000 0000 2c2a b73f 0000 0080 7282 b6bf
00000620: 0000 0080 070e ae3f 0000 0040 e18e b43f
00000630: 0000 0040 644d bf3f 0000 0080 d565 b6bf
00000640: 0000 0000 1400 9f3f 0000 0080 62a9 b7bf
00000650: 0000 0000 ec51 bb3f 0000 0000 75d3 a8bf
00000660: 0000 0040 7946 b33f 0000 0000 687c 6e3f
00000670: 0000 0000 1ef0 83bf 0000 0000 3856 70bf
00000680: 0000 0000 61c2 953f 0000 0080 5a2b ae3f
00000690: 0000 0000 5487 943f 0000 0000 0586 a33f
000006a0: 0000 0000 e8c8 bcbf 0000 00c0 2d50 b73f
000006b0: 0000 0040 4fe6 bb3f 0000 0000 8e73 ba3f
000006c0: 0000 0040 b6a7 b73f 0000 00c0 9a17 b7bf
000006d0: 0000 0080 8cb9 a7bf 0000 0000 1837 bc3f
000006e0: 0000 00c0 815f b8bf 0000 00c0 f407 bd3f
000006f0: 0000 00c0 f92a b9bf 0000 00c0 838a b6bf
00000700: 0000 0000 c749 af3f 0000 00c0 dcfd b6bf
00000710: 0000 0000 2c53 9dbf 0000 0000 9d47 b73f
00000720: 0000 00c0 ca58 b93f 0000 0080 a143 be3f
00000730: 0000 0000 33f9 99bf 0000 0000 52df b8bf
00000740: 0000 00c0 ee81 bf3f 0000 0000 7144 9bbf
00000750: 0000 0000 f454 aabf 0000 0000 fb33 9f3f
00000760: 0000 00c0 dd60 b6bf 0000 0080 7008 b53f
00000770: 0000 00c0 310e b43f 0000 00c0 3264 b9bf
00000780: 0000 00c0 ae48 babf 0000 0000 b86c 86bf
00000790: 0000 0080 b2e1 aa3f 0000 0000 40a8 6dbf
000007a0: 0000 00c0 fa39 b0bf 0000 0000 4069 673f
000007b0: 0000 00c0 ec13 bebf 0000 0040 c99d b6bf
000007c0: 0000 00c0 534d b5bf 0000 0040 5c5a ba3f
000007d0: 0000 00c0 4b35 bc3f 0000 0080 19bd a5bf
000007e0: 0000 0000 a0f6 763f 0000 0000 e78a ac3f
000007f0: 0000 0000 5aac 8e3f 0000 0040 2a06 b0bf
0.06440789997577667 -0.055172279477119446 -0.024232685565948486 0.05867111682891846 -0.11767961084842682 0.07496465742588043 -0.0257156640291214 0.06359298527240753
0.01737712323665619 -0.015305519104003906 0.034670114517211914 0.006166473031044006 0.04565352201461792 -0.04871262609958649 -0.009113594889640808 -0.011253416538238525
0.0181179940700531 -0.0004993528127670288 0.109270840883255 0.038898766040802 -0.04655078053474426 -0.0754951685667038 -0.020951956510543823 -0.05391758680343628
-0.04005606472492218 0.00598520040512085 0.07451596856117249 0.06794208288192749 -0.12219385802745819 0.07749006152153015 0.03492048382759094 0.11856943368911743
0.08250747621059418 -0.11389221251010895 -0.11885105073451996 -0.06029151380062103 0.109763965010643 -0.02082112431526184 0.053494930267333984 -0.05808892846107483
0.12265224754810333 -0.05288730561733246 0.09374059736728668 0.001480206847190857 -0.06585218012332916 0.0642518550157547 -0.06635251641273499 0.036763086915016174
-0.036094650626182556 -0.013704299926757812 -0.12017351388931274 -0.059597715735435486 0.06782925128936768 -0.03038465976715088 0.12450619041919708 0.10019855201244354
-0.005852952599525452 -0.08343538641929626 0.0761202722787857 0.038794636726379395 -0.08080247044563293 0.08119307458400726 0.07588772475719452 0.1108618676662445
-0.07006995379924774 -0.02057574689388275 -0.0024214833974838257 0.01825718581676483 -0.09486478567123413 -0.08870279788970947 0.06800056993961334 -0.029311493039131165
0.06105917692184448 0.00712624192237854 0.041043102741241455 0.027486085891723633 0.04544992744922638 0.06196384131908417 -0.11576400697231293 0.06291893124580383
-0.08789040148258209 -0.0943136215209961 0.007601797580718994 -0.021300897002220154 0.07341550290584564 -0.07239195704460144 -0.1111227422952652 0.09097109735012054
-0.018535226583480835 0.07030715048313141 0.04018557071685791 -0.09373441338539124 0.02511228621006012 0.03002457320690155 -0.08369483053684235 -0.059309035539627075
0.042621955275535583 0.022390320897102356 -0.05317157506942749 -0.037839487195014954 0.11448533833026886 -0.023127660155296326 0.07047395408153534 0.05412539839744568
-0.08080089092254639 -0.10630369186401367 0.11998608708381653 0.0065270960330963135 0.08568225800991058 0.02590392529964447 0.04020284116268158 0.09336982667446136
0.11852683126926422 -0.08294762670993805 0.015628620982170105 0.09328216314315796 0.0905543863773346 0.07765480875968933 -0.09046486020088196 -0.09001302719116211
-0.07559645175933838 0.01570354402065277 0.12458311021327972 -0.07895945012569427 0.06661011278629303 -0.0691860169172287 -0.11752696335315704 -0.026567459106445312
0.07202136516571045 0.11604686081409454 -0.07762984931468964 0.027126401662826538 0.10785752534866333 0.08283169567584991 0.0779028832912445 0.08882907032966614
0.07906454801559448 0.03228704631328583 -0.08547751605510712 -0.1049698144197464 -0.05727757513523102 -0.014555737376213074 -0.07661902904510498 0.04573170840740204
0.03868597745895386 -0.028304412961006165 0.04804259538650513 0.040398091077804565 0.07631736993789673 0.08418045938014984 -0.04233159124851227 0.1221282035112381
-0.01445096731185913 -0.004294499754905701 -0.11798501014709473 -0.08045202493667603 -0.07302543520927429 -0.05346536636352539 0.08887119591236115 -0.04084762930870056
-0.09341014921665192 0.04809373617172241 0.04002119600772858 0.08096133172512054 -0.06468401849269867 0.027101874351501465 -0.04550632834434509 -0.02808433771133423
-0.09961479902267456 -0.05697011947631836 -0.03828221559524536 0.05345441401004791 0.02283617854118347 0.03087705373764038 0.12476314604282379 0.12182843685150146
0.08525589108467102 0.0039804428815841675 -0.08647392690181732 0.0976887047290802 -0.03125792741775513 -0.010105669498443604 -0.10768736898899078 -0.024691075086593628
-0.08062347769737244 0.11486324667930603 -0.10806512832641602 -0.09743534028530121 -0.0042445361614227295 -0.06758943200111389 0.04472646117210388 -0.048115700483322144
-0.05871094763278961 0.007079705595970154 0.09048724174499512 -0.08792796730995178 0.05870078504085541 0.08030517399311066 0.12227465212345123 -0.08749136328697205
0.030273735523223877 -0.09242835640907288 0.10671877861022949 -0.04848828911781311 0.07529409229755402 0.0037214308977127075 -0.009735330939292908 -0.003988474607467651
0.021249309182167053 0.058924511075019836 0.020047485828399658 0.03813186287879944 -0.11244058609008789 0.09106718003749847 0.10898299515247345 0.1033257246017456
0.09240283071994781 -0.09020392596721649 -0.04633750021457672 0.11021566390991211 -0.0952073186635971 0.11340264976024628 -0.09831200540065765 -0.08805106580257416
0.0611097514629364 -0.08981113135814667 -0.028637588024139404 0.09093648195266724 0.09901110827922821 0.11821946501731873 -0.02536468207836151 -0.09715759754180908
0.12307636439800262 -0.026628270745277405 -0.0514293909072876 0.03047172725200653 -0.08741556107997894 0.08216002583503723 0.07834158837795258 -0.09918515384197235
-0.1026715487241745 -0.010949552059173584 0.052503183484077454 -0.0036202669143676758 -0.06338469684123993 0.002857804298400879 -0.11749152839183807 -0.08834512531757355
-0.08321116864681244 0.10294128954410553 0.11018823087215424 -0.042458340525627136 0.005606293678283691 0.05574724078178406 0.014977172017097473 -0.06259407103061676

lstm.weight_hh_l0 f8 [256, 64]
00000000: 0000 00c0 cd7a bb3f 0000 0000 f1a9 a5bf
00000010: 0000 0000 32d4 af3f 0000 0000 0e85 873f
00000020: 0000 0000 4850 aabf 0000 0000 a921 a53f
00000030: 0000 0000 83a1 923f 0000 00c0 9a4d b1bf
00000040: 0000 0000 eaf8 833f 0000 0000 f45b 7a3f
00000050: 0000 0000 3707 93bf 0000 0000 711e 9f3f
00000060: 0000 0080 4b70 aebf 0000 0000 b5a3 abbf
00000070: 0000 0000 3a11 a1bf 0000 0000 797f a53f
00000080: 0000 0000 e22e 82bf 0000 0080 c930 bebf
00000090: 0000 0000 d29e 9bbf 0000 0000 c833 723f
000000a0: 0000 0000 77a0 b2bf 0000 0000 e3bb 9dbf
000000b0: 0000 0000 c759 9e3f 0000 0000 79bf b83f
000000c0: 0000 0040 6a38 b23f 0000 0080 4687 acbf
000000d0: 0000 0000 7699 b6bf 0000 0000 a559 ad3f
000000e0: 0000 0000 90ad 863f 0000 0080 62b9 aebf
000000f0: 0000 0080 9c4e ae3f 0000 00c0 df31 bcbf
00000100: 0000 0000 8aed aa3f 0000 0080 7093 a03f
00000110: 0000 0040 c45d bc3f 0000 0000 0f58 9dbf
00000120: 0000 0000 98df b4bf 0000 0000 39b4 bf3f
00000130: 0000 0000 7f06 9bbf 0000 0080 2a63 bfbf
00000140: 0000 0080 5776 a7bf 0000 0080 489b b93f
00000150: 0000 0080 d45c b5bf 0000 0000 28fe 9b3f
00000160: 0000 00c0 7a7c bfbf 0000 0000 604e a3bf
00000170: 0000 0000 08e4 a8bf 0000 0000 d4eb a2bf
00000180: 0000 0040 2659 b0bf 0000 0080 5b40 b7bf
00000190: 0000 0080 c805 a43f 0000 0000 1923 ad3f
000001a0: 0000 0000 902a 963f 0000 0080 0f61 a23f
000001b0: 0000 0040 2455 b4bf 0000 0080 491c aa3f
000001c0: 0000 0080 baf0 a03f 0000 00c0 f3ce b83f
000001d0: 0000 00c0 3746 b03f 0000 0000 caf5 bf3f
000001e0: 0000 0000 cfad ac3f 0000 00c0 b2b1 bbbf
000001f0: 0000 0080 59f5 b23f 0000 0000 3f45 92bf
00000200: 0000 0000 c832 7c3f 0000 0000 ea69 ab3f
00000210: 0000 0000 0cf2 773f 0000 0000 4177 a4bf
00000220: 0000 0000 4e95 a23f 0000 0080 4705 a93f
00000230: 0000 0080 24a2 a83f 0000 0080 6b74 aabf
00000240: 0000 00c0 95c3 b4bf 0000 0040 d398 babf
00000250: 0000 0040 7530 b9bf 0000 0000 e09f a1bf
00000260: 0000 0080 cd49 b0bf 0000 00c0 cb4d b93f
00000270: 0000 0080 96cc a9bf 0000 0080 f176 abbf
00000280: 0000 0000 cdd5 b4bf 0000 00c0 f2f6 b1bf
00000290: 0000 0040 e069 b23f 0000 0040 f6fa ba3f
000002a0: 0000 0080 7165 b83f 0000 0040 375a b6bf
000002b0: 0000 0080 3eaf a5bf 0000 0040 05a5 bbbf
000002c0: 0000 00c0 a09f b03f 0000 0080 41bc bb3f
000002d0: 0000 0000 82b6 babf 0000 0080 2143 b73f
000002e0: 0000 0080 d439 afbf 0000 00c0 214f bfbf
000002f0: 0000 0000 f605 a43f 0000 0040 d75e bdbf
00000300: 0000 0000 7123 b1bf 0000 00c0 bb2f bf3f
00000310: 0000 0040 6374 bbbf 0000 00c0 787d b4bf
00000320: 0000 0000 da30 a2bf 0000 00c0 322b b93f
00000330: 0000 0040 ca69 b53f 0000 00c0 e113 b63f
00000340: 0000 00c0 5536 b0bf 0000 00c0 e60b b0bf
00000350: 0000 00c0 077e b23f 0000 0040 68a6 bc3f
00000360: 0000 0080 8361 b73f 0000 0000 ec15 a83f
00000370: 0000 0080 8656 a1bf 0000 0000 e5a5 9b3f
00000380: 0000 0080 e998 b8bf 0000 0000 3d1d 92bf
00000390: 0000 0080 a2ce bf3f 0000 0000 dea7 823f
000003a0: 0000 0000 f3c3 b83f 0000 0040 6c57 b53f
000003b0: 0000 00c0 e4c8 bf3f 0000 0000 c53b b13f
000003c0: 0000 0000 c1cf bdbf 0000 0000 2599 abbf
000003d0: 0000 0000 2033 4cbf 0000 0040 92e7 bb3f
000003e0: 0000 0000 c614 923f 0000 0000 934b a03f
000003f0: 0000 0000 469c 8f3f 0000 0000 a7b6 afbf
00000400: 0000 0000 13d2 bfbf 0000 0000 c89f 803f
00000410: 0000 0080 6b44 a5bf 0000 0000 ae8b a53f
00000420: 0000 0080 38c8 b13f 0000 0000 7dd1 babf
00000430: 0000 0080 297c a63f 0000 0080 fe1e a83f
00000440: 0000 0000 dd6d a43f 0000 0000 e7a1 b13f
00000450: 0000 0080 ae8f b2bf 0000 0000 eb5d acbf
00000460: 0000 0000 fa71 b2bf 0000 0000 8127 bd3f
00000470: 0000 0000 6dab ad3f 0000 0000 3029 803f
00000480: 0000 0080 6a48 a73f 0000 0000 26ea bbbf
00000490: 0000 0040 7226 bc3f 0000 0040 40cd b8bf
000004a0: 0000 0000 6449 99bf 0000 0000 a188 b4bf
000004b0: 0000 0000 36c7 81bf 0000 0040 4a63 b4bf
000004c0: 0000 0080 0f9b acbf 0000 0000 90d8 89bf
000004d0: 0000 0080 e328 b73f 0000 0040 62d5 bb3f
000004e0: 0000 0080 f66b acbf 0000 0000 60ac ab3f
000004f0: 0000 0000 12fd b63f 0000 00c0 3bd9 bd3f
00000500: 0000 0000 e0ff b23f 0000 0000 371e b43f
00000510: 0000 0080 b7bb bc3f 0000 0000 e33f 9f3f
00000520: 0000 00c0 a58f b9bf 0000 00c0 5f12 b73f
00000530: 0000 0040 a945 bb3f 0000 0040 aaea be3f
00000540: 0000 00c0 d8af b8bf 0000 0000 7cae a53f
00000550: 0000 00c0 cd9c b93f 0000 0000 10fb 5d3f
00000560: 0000 0000 89b5 aa3f 0000 0080 f8e9 abbf
00000570: 0000 0040 2e7a bd3f 0000 0040 f15d bfbf
00000580: 0000 0000 c026 613f 0000 0080 e07d bcbf
00000590: 0000 0080 ea17 a93f 0000 0080 4693 a0bf
000005a0: 0000 0000 dcbb 8d3f 0000 0000 aaf8 b43f
000005b0: 0000 0000 14bb a6bf 0000 0000 527c b63f
000005c0: 0000 0000 385a b23f 0000 0080 4bfb b1bf
000005d0: 0000 0000 3078 a1bf 0000 0000 0f79 b73f
000005e0: 0000 00c0 956b bcbf 0000 0000 f2f6 a23f
000005f0: 0000 0080 24f9 b9bf 0000 0000 b0bb 5d3f
00000600: 0000 0040 4f58 bb3f 0000 0000 aed3 92bf
00000610: 0000 00c0 6590 b3bf 0000 00c0 361e bcbf
00000620: 0000 0000 ea41 96bf 0000 0000 20ea 40bf
00000630: 0000 0000 57b2 9e3f 0000 0000 8d66 913f
00000640: 0000 00c0 c524 bf3f 0000 0000 24ed 713f
00000650: 0000 0000 28ef 60bf 0000 0080 002e bb3f
00000660: 0000 0080 6535 a5bf 0000 0000 04dc ad3f
00000670: 0000 0040 6109 b83f 0000 0000 5895 aebf
00000680: 0000 0080 9db6 b3bf 0000 00c0 9a46 b33f
00000690: 0000 0000 da6e b43f 0000 0080 d1a2 be3f
000006a0: 0000 0000 36af bdbf 0000 0040 f00a bf3f
000006b0: 0000 0000 a3d0 923f 0000 0000 8eb7 b5bf
000006c0: 0000 0080 1fa5 a7bf 0000 0000 b3e5 9f3f
000006d0: 0000 00c0 e91f b33f 0000 00c0 3035 b83f
000006e0: 0000 0000 d88c 623f 0000 0040 f39b b5bf
000006f0: 0000 0000 ae6c adbf 0000 0000 dea7 abbf
00000700: 0000 0080 c36e a33f 0000 0000 734e aebf
00000710: 0000 00c0 98a9 bf3f 0000 0000 4c13 883f
00000720: 0000 0000 f827 9bbf 0000 00c0 8b0f bdbf
00000730: 0000 0080 c2f1 b13f 0000 0080 df8d ab3f
00000740: 0000 0000 71f9 98bf 0000 0000 0799 9fbf
00000750: 0000 0080 a7e9 a03f 0000 0080 0a3e a4bf
00000760: 0000 0000 3a42 9e3f 0000 0000 8684 95bf
00000770: 0000 0040 0539 b43f 0000 0080 7dbe aebf
00000780: 0000 00c0 ff47 b5bf 0000 0000 8764 a63f
00000790: 0000 0000 cc0d b2bf 0000 0040 203e b6bf
000007a0: 0000 0080 e8d3 b83f 0000 0000 ff9d a13f
000007b0: 0000 0080 11e4 a23f 0000 0080 9580 a8bf
000007c0: 0000 0000 ed99 a3bf 0000 0040 bfa9 b03f
000007d0: 0000 00c0 b129 b0bf 0000 0000 74d0 983f
000007e0: 0000 0040 9ede bebf 0000 0000 ae47 b73f
000007f0: 0000 0080 e29d bebf 0000 0000 4ca8 bebf
0.10734258592128754 -0.042312175035476685 0.062165796756744385 0.01148425042629242 -0.051393747329711914 0.04127243161201477 0.01819424331188202 -0.06759040057659149
0.00975210964679718 0.0064353495836257935 -0.018582209944725037 0.030389562249183655 -0.05945049226284027 -0.05398336052894592 -0.033334553241729736 0.04198816418647766
-0.00887848436832428 -0.11793193221092224 -0.026973038911819458 0.004443913698196411 -0.07276099920272827 -0.02903704345226288 0.0296393483877182 0.09667164087295532
0.07117332518100739 -0.05571956932544708 -0.088279128074646 0.05732455849647522 0.01107323169708252 -0.06000812351703644 0.059193506836891174 -0.110136017203331
0.05259352922439575 0.032374873757362366 0.11080576479434967 -0.028656229376792908 -0.08153676986694336 0.1238437294960022 -0.02639196813106537 -0.12260690331459045
-0.04582475125789642 0.10002568364143372 -0.08344772458076477 0.027336716651916504 -0.12299315631389618 -0.03770732879638672 -0.0486147403717041 -0.03695547580718994
-0.06386031210422516 -0.09082576632499695 0.03910662233829498 0.05690839886665344 0.021646738052368164 0.03589676320552826 -0.07942415773868561 0.050997063517570496
0.033086612820625305 0.096907839179039 0.06357143819332123 0.12484419345855713 0.0560135543346405 -0.1081802099943161 0.0740562379360199 -0.017842277884483337
0.006884366273880005 0.05354243516921997 0.005846068263053894 -0.03997233510017395 0.03629535436630249 0.04886840283870697 0.04811204969882965 -0.05166946351528168
-0.08110938966274261 -0.1038944274187088 -0.09839566051959991 -0.034422874450683594 -0.06362614035606384 0.09884332120418549 -0.05038900673389435 -0.05364184081554413
-0.08138734102249146 -0.07017438113689423 0.07192803919315338 0.10539187490940094 0.0952979028224945 -0.08731408417224884 -0.04235263168811798 -0.10798676311969757
0.06493572890758514 0.10834130644798279 -0.1043473482131958 0.09086808562278748 -0.060988083481788635 -0.12230120599269867 0.03910797834396362 -0.1147284060716629
-0.06694704294204712 0.12182210385799408 -0.10724468529224396 -0.08003954589366913 -0.03552895784378052 0.09831540286540985 0.08364547789096832 0.08624087274074554
-0.06332908570766449 -0.06268160045146942 0.07223556935787201 0.11191417276859283 0.09133169054985046 0.047042250633239746 -0.033863261342048645 0.027000024914741516
-0.09608325362205505 -0.01768966019153595 0.124246746301651 0.009109243750572205 0.09673994779586792 0.08336521685123444 0.12415914237499237 0.06731826066970825
-0.11645132303237915 -0.053902775049209595 -0.0008605867624282837 0.1090022474527359 0.017657369375228882 0.03182658553123474 0.015434786677360535 -0.061940401792526245
-0.12429922819137573 0.008117258548736572 -0.04153762757778168 0.04208129644393921 0.06946137547492981 -0.10475903749465942 0.04391603171825409 0.04711146652698517
0.03990069031715393 0.06887668371200562 -0.0725049078464508 -0.05540403723716736 -0.07205164432525635 0.11388403177261353 0.05794849991798401 0.007891058921813965
0.04547436535358429 -0.10904157161712646 0.10996164381504059 -0.09688188135623932 -0.02469402551651001 -0.08020979166030884 -0.008680745959281921 -0.07964004576206207
-0.05587051808834076 -0.012620091438293457 0.0904676616191864 0.10872472822666168 -0.05551119148731232 0.05404949188232422 0.08979904651641846 0.11659596860408783
0.07421684265136719 0.07858604192733765 0.11223933100700378 0.03051714599132538 -0.09984813630580902 0.09012411534786224 0.10653169453144073 0.12076820433139801
-0.09643320739269257 0.042346835136413574 0.10004888474941254 0.001829877495765686 0.052166253328323364 -0.05451942980289459 0.11514557898044586 -0.12252719700336456
0.002093672752380371 -0.11129572987556458 0.049010589718818665 -0.03237362205982208 0.01451846957206726 0.08191931247711182 -0.044396042823791504 0.08783447742462158
0.07168912887573242 -0.07024070620536804 -0.03412008285522461 0.09169095754623413 -0.11101661622524261 0.03704029321670532 -0.1014578640460968 0.0018147677183151245
0.10681624710559845 -0.018385618925094604 -0.0764220803976059 -0.10983602702617645 -0.021735817193984985 -0.0005161911249160767 0.029977187514305115 0.016992762684822083
0.12165485322475433 0.004376545548439026 -0.002067163586616516 0.10617068409919739 -0.0414230078458786 0.05831921100616455 0.0938931256532669 -0.05973315238952637
-0.07700523734092712 0.07529608905315399 0.07981646060943604 0.11967191100120544 -0.11595475673675537 0.12126065790653229 0.018374010920524597 -0.0848320722579956
-0.04618166387081146 0.031149670481681824 0.07470570504665375 0.0945616215467453 0.0022644251585006714 -0.08441086113452911 -0.05746978521347046 -0.05401510000228882
0.037954434752464294 -0.059192270040512085 0.12368158996105194 0.011755555868148804 -0.02651965618133545 -0.11351846158504486 0.07009521126747131 0.0538167804479599
-0.02438904345035553 -0.030857190489768982 0.03303264081478119 -0.03953583538532257 0.029549509286880493 -0.021013349294662476 0.07899506390094757 -0.060047075152397156
-0.0831298679113388 0.04373571276664734 -0.07052302360534668 -0.086885467171669 0.09698346257209778 0.03440853953361511 0.036896273493766785 -0.04785601794719696
-0.038283735513687134 0.0650901347398758 -0.06313620507717133 0.024232685565948486 -0.1205843836069107 0.09093749523162842 -0.11959663033485413 -0.11975550651550293

lstm.bias_ih_l0 f8 [256]
00000000: 0000 0000 067a a93f 0000 0040 ceb9 b43f
00000010: 0000 0000 3321 953f 0000 0000 a304 a93f
00000020: 0000 0000 63b8 9ebf 0000 0040 11b6 b83f
00000030: 0000 0000 0e95 bf3f 0000 0000 f265 b8bf
00000040: 0000 0040 79ba b63f 0000 0040 53bf bdbf
00000050: 0000 0080 f30f b0bf 0000 0080 cfbe acbf
00000060: 0000 0000 2f49 bbbf 0000 0080 ed50 a33f
00000070: 0000 0000 119c adbf 0000 0080 9109 bcbf
00000080: 0000 0000 f94b 9b3f 0000 0000 0f6b bf3f
00000090: 0000 0000 90ed bf3f 0000 0080 d49e a83f
000000a0: 0000 0000 b4e0 b33f 0000 0000 2b0f ac3f
000000b0: 0000 00c0 915e b03f 0000 0000 9002 883f
000000c0: 0000 0080 680a acbf 0000 0000 786e 77bf
000000d0: 0000 0000 1b0a a7bf 0000 0080 3e7e b63f
000000e0: 0000 0000 3699 9fbf 0000 00c0 6a8e b43f
000000f0: 0000 00c0 c422 ba3f 0000 0080 e710 a6bf
00000100: 0000 0080 be1b b03f 0000 0080 7b9b a03f
00000110: 0000 0080 088c bbbf 0000 00c0 083a b1bf
00000120: 0000 0000 a879 6dbf 0000 00c0 d06c b53f
00000130: 0000 0080 bb18 a53f 0000 0000 ea99 a8bf
00000140: 0000 0000 b653 883f 0000 0080 8527 b83f
00000150: 0000 0000 38a3 a4bf 0000 0080 e90b b4bf
00000160: 0000 0000 c7a2 a4bf 0000 00c0 3d80 b83f
00000170: 0000 0000 2302 9f3f 0000 0000 764a a63f
00000180: 0000 0000 efef 903f 0000 00c0 a20f ba3f
00000190: 0000 0080 818d b33f 0000 0080 da6e a43f
000001a0: 0000 0080 bb80 ac3f 0000 0000 5863 6a3f
000001b0: 0000 0040 41dd b63f 0000 0000 3689 8cbf
000001c0: 0000 0080 0eb3 b93f 0000 0000 a889 963f
000001d0: 0000 0040 f83d b83f 0000 0000 86bb a33f
000001e0: 0000 0000 7536 96bf 0000 0000 a8e0 863f
000001f0: 0000 00c0 0332 b4bf 0000 0040 8a7f b5bf
00000200: 0000 0000 9602 bbbf 0000 0000 f94c bc3f
00000210: 0000 0080 c74d b6bf 0000 0040 5b8f bfbf
00000220: 0000 0000 43c9 b43f 0000 0000 8dfa 9ebf
00000230: 0000 00c0 6f39 b33f 0000 0080 17e3 b1bf
00000240: 0000 0080 6de8 b5bf 0000 0000 31bf ba3f
00000250: 0000 0080 58cc aebf 0000 0080 7387 b4bf
00000260: 0000 0000 0c5f 733f 0000 0000 9a1f b6bf
00000270: 0000 0040 6805 b8bf 0000 0040 58d3 bc3f
00000280: 0000 0000 6da4 b53f 0000 0080 db91 ba3f
00000290: 0000 0000 5c35 b63f 0000 0080 03ec b6bf
000002a0: 0000 0080 d4b4 acbf 0000 0040 4a00 bdbf
000002b0: 0000 00c0 72ab b53f 0000 0000 014b a2bf
000002c0: 0000 0080 b0f2 ad3f 0000 0000 871d a53f
000002d0: 0000 0080 6111 a6bf 0000 0000 552f 9d3f
000002e0: 0000 0080 7d0f ad3f 0000 0000 aa7f bd3f
000002f0: 0000 0040 6d16 b33f 0000 0000 d690 8b3f
00000300: 0000 0080 0c61 be3f 0000 0000 0df6 babf
00000310: 0000 0000 684f 65bf 0000 0040 6625 b6bf
00000320: 0000 0000 90e7 bebf 0000 0000 88e6 843f
00000330: 0000 0040 5e32 bfbf 0000 0000 94a4 9cbf
00000340: 0000 0000 f245 873f 0000 0000 978a babf
00000350: 0000 0000 d02c 61bf 0000 00c0 70eb b73f
00000360: 0000 0000 679c bbbf 0000 00c0 38eb bcbf
00000370: 0000 0000 b068 a7bf 0000 0080 0030 afbf
00000380: 0000 00c0 85b5 bcbf 0000 0000 44a7 b83f
00000390: 0000 0080 f8b3 acbf 0000 00c0 e329 be3f
000003a0: 0000 0000 5230 b8bf 0000 0040 4d93 b53f
000003b0: 0000 0080 2c53 a4bf 0000 0080 42cd a3bf
000003c0: 0000 0000 981f 8fbf 0000 0000 f204 b93f
000003d0: 0000 0000 b0a7 a03f 0000 0080 be14 a93f
000003e0: 0000 0000 e725 98bf 0000 0000 c8cc b4bf
000003f0: 0000 0040 1f15 b9bf 0000 00c0 ad62 b43f
00000400: 0000 0080 70fc bc3f 0000 0000 6983 b43f
00000410: 0000 0000 1038 bbbf 0000 0000 aa26 8f3f
00000420: 0000 0000 481e aa3f 0000 0040 dd67 b23f
00000430: 0000 0040 cca1 b6bf 0000 0080 e4e9 a6bf
00000440: 0000 0000 14ed af3f 0000 0000 e8b3 b53f
00000450: 0000 0080 b9e5 aebf 0000 0000 b267 b63f
00000460: 0000 0040 cb7b b7bf 0000 0080 5649 bcbf
00000470: 0000 0000 ef21 903f 0000 0000 20c1 b5bf
00000480: 0000 0080 613b b6bf 0000 0000 4081 7c3f
00000490: 0000 0040 fe2a b03f 0000 0080 5b0c a5bf
000004a0: 0000 0080 7e9d a1bf 0000 0000 6eb5 a8bf
000004b0: 0000 0000 ca2d bebf 0000 0040 3afd b53f
000004c0: 0000 0040 7fa9 bb3f 0000 0000 aa63 bd3f
000004d0: 0000 0000 4846 74bf 0000 0040 98bb b03f
000004e0: 0000 0080 d571 bcbf 0000 0080 7e18 b3bf
000004f0: 0000 00c0 5117 bebf 0000 00c0 c703 b13f
00000500: 0000 0000 426e 9b3f 0000 0040 43a6 b53f
00000510: 0000 0000 b7c8 9bbf 0000 0000 c5ab 973f
00000520: 0000 0000 1495 aabf 0000 0080 0efb a9bf
00000530: 0000 0000 705d 753f 0000 00c0 ab2e b13f
00000540: 0000 00c0 325b b23f 0000 0040 f2aa b93f
00000550: 0000 0000 3178 ab3f 0000 0000 11ba 903f
00000560: 0000 0080 a7c9 ba3f 0000 0000 9013 bd3f
00000570: 0000 0000 f871 a43f 0000 0000 b405 bf3f
00000580: 0000 0000 4428 783f 0000 0000 934a 90bf
00000590: 0000 0040 1595 bd3f 0000 0000 6894 99bf
000005a0: 0000 0080 336c b43f 0000 00c0 c22d bb3f
000005b0: 0000 0000 565a a83f 0000 0080 e8bc b13f
000005c0: 0000 0080 a79d b7bf 0000 0040 3665 bc3f
000005d0: 0000 0040 f926 b4bf 0000 00c0 e1bb b43f
000005e0: 0000 0000 689f 663f 0000 0080 792a b63f
000005f0: 0000 0000 5672 a43f 0000 00c0 9458 bd3f
00000600: 0000 0000 2415 9c3f 0000 0080 a3e9 b7bf
00000610: 0000 0080 8281 bc3f 0000 0000 40c7 7c3f
00000620: 0000 0000 6f7b 963f 0000 0040 4974 bd3f
00000630: 0000 0000 d9ca 93bf 0000 0080 718b b5bf
00000640: 0000 0000 2cda 8d3f 0000 0080 7ea0 a13f
00000650: 0000 0000 38c4 babf 0000 0080 15d1 bfbf
00000660: 0000 0000 c7c3 9d3f 0000 00c0 1cc9 b73f
00000670: 0000 0080 e4c6 bebf 0000 0000 785e 7bbf
00000680: 0000 0040 2e92 b43f 0000 0040 54d6 b9bf
00000690: 0000 00c0 89d6 b3bf 0000 0000 87a9 a4bf
000006a0: 0000 0080 615e b0bf 0000 0000 26fc 8c3f
000006b0: 0000 0000 a1f5 a33f 0000 0040 9833 b93f
000006c0: 0000 00c0 d3c8 b7bf 0000 0040 fa4a b1bf
000006d0: 0000 0000 8e0b 9ebf 0000 0000 c5e1 af3f
000006e0: 0000 0000 4253 8bbf 0000 0040 e78f babf
000006f0: 0000 0080 ffe9 b9bf 0000 0000 1022 5e3f
00000700: 0000 0000 143c 87bf 0000 0080 bb06 a6bf
00000710: 0000 0000 2caa 97bf 0000 0000 c451 8fbf
00000720: 0000 0000 aa82 98bf 0000 0080 f420 b7bf
00000730: 0000 00c0 29ee b7bf 0000 0040 ea3c b43f
00000740: 0000 0000 9491 763f 0000 0040 31ee bfbf
00000750: 0000 0000 a358 903f 0000 0000 e641 b7bf
00000760: 0000 0000 6122 ab3f 0000 0080 9d0c a2bf
00000770: 0000 0000 c5aa bf3f 0000 0000 b3ed b9bf
00000780: 0000 0040 97f2 b03f 0000 0000 a140 98bf
00000790: 0000 00c0 948f ba3f 0000 0080 b397 a13f
000007a0: 0000 0040 fbe5 babf 0000 0000 1127 bcbf
000007b0: 0000 0080 1daf aabf 0000 0000 0ca9 bebf
000007c0: 0000 0000 6ad1 a5bf 0000 0000 ac89 71bf
000007d0: 0000 0000 5d41 a03f 0000 0000 f468 8cbf
000007e0: 0000 0000 e8a6 9e3f 0000 0000 6e35 95bf
000007f0: 0000 0080 af54 b0bf 0000 00c0 0f51 b53f
0.049759089946746826 0.08096016943454742 0.02063445746898651 0.048863500356674194 -0.03000025451183319 0.09652812778949738 0.12336814403533936 -0.09530556201934814
0.08878286182880402 -0.11620064079761505 -0.06274339556694031 -0.05614326894283295 -0.10658544301986694 0.03772680461406708 -0.05783131718635559 -0.10952100157737732
0.026657000184059143 0.12272733449935913 0.12471866607666016 0.048086777329444885 0.07764744758605957 0.05480322241783142 0.06394301354885101 0.011723637580871582
-0.054766908288002014 -0.005720585584640503 -0.04499897360801697 0.08786383271217346 -0.030857890844345093 0.08029811084270477 0.10209302604198456 -0.04309771955013275
0.06292334198951721 0.03243623673915863 -0.10760548710823059 -0.06729178130626678 -0.003598049283027649 0.08369164168834686 0.04120431840419769 -0.04804927110671997
0.011878415942192078 0.09435304999351501 -0.04030776023864746 -0.07830676436424255 -0.04030439257621765 0.09570680558681488 0.030281588435173035 0.04353684186935425
0.016540274024009705 0.1018010824918747 0.07637795805931091 0.03990824520587921 0.05566965043544769 0.0032211989164352417 0.0893135815858841 -0.013933584094047546
0.10038843750953674 0.02200949192047119 0.09469558298587799 0.0385400652885437 -0.02169211208820343 0.011170685291290283 -0.07888816297054291 -0.0839773565530777
-0.10550820827484131 0.11054950952529907 -0.08712431788444519 -0.12328119575977325 0.08119601011276245 -0.030252650380134583 0.07509516179561615 -0.06987139582633972
-0.0855778157711029 0.1044798493385315 -0.06015278398990631 -0.08019182085990906 0.004729315638542175 -0.08641970157623291 -0.09383250772953033 0.11259986460208893
0.08454018831253052 0.1037881076335907 0.08675169944763184 -0.08953878283500671 -0.056067124009132385 -0.11328567564487457 0.08464734256267548 -0.03572848439216614
0.05849219858646393 0.04124090075492859 -0.04310135543346405 0.028500869870185852 0.056758806109428406 0.11522924900054932 0.07456095516681671 0.013459846377372742
0.11866834759712219 -0.10531693696975708 -0.002601340413093567 -0.08650816977024078 -0.12072086334228516 0.010205328464508057 -0.12186230719089508 -0.02797156572341919
0.011363878846168518 -0.10367721319198608 -0.0020965635776519775 0.09343628585338593 -0.10785526037216187 -0.1129641979932785 -0.045720577239990234 -0.060913100838661194
-0.11214481294155121 0.09630227088928223 -0.05606056749820709 0.1178266853094101 -0.09448730945587158 0.0842788964509964 -0.03969706594944 -0.03867538273334503
-0.01519697904586792 0.09773170948028564 0.032529354095458984 0.048986390233039856 -0.023582085967063904 -0.08124971389770508 -0.09797854721546173 0.07963071763515472
0.11322692036628723 0.08013015985488892 -0.1063241958618164 0.015210464596748352 0.051012277603149414 0.07189734280109406 -0.08840633928775787 -0.04475320875644684
0.062355637550354004 0.08477640151977539 -0.06034640967845917 0.08751976490020752 -0.0917326956987381 -0.11049404740333557 0.015754446387290955 -0.08497810363769531
-0.0868435800075531 0.006959199905395508 0.06315602362155914 -0.041109904646873474 -0.03440470993518829 -0.048259198665618896 -0.11788618564605713 0.08589519560337067
0.10805507004261017 0.11480200290679932 -0.004949837923049927 0.06536246836185455 -0.11111196875572205 -0.07459250092506409 -0.11754332482814789 0.06646393239498138
0.026787787675857544 0.08456821739673615 -0.027132853865623474 0.023116186261177063 -0.051918625831604004 -0.05074353516101837 0.005216062068939209 0.06711839139461517
0.07170407474040985 0.10026468336582184 0.053651362657547 0.016334787011146545 0.10463950037956238 0.11357975006103516 0.0399320125579834 0.12118077278137207
0.005897775292396545 -0.015909478068351746 0.11555607616901398 -0.02498018741607666 0.07977601885795593 0.10616700351238251 0.04756420850753784 0.06928876042366028
-0.09224936366081238 0.11091937124729156 -0.07871969044208527 0.08099184930324554 0.002761557698249817 0.08658561110496521 0.03993481397628784 0.11463288962841034
0.027424395084381104 -0.09340879321098328 0.11135116219520569 0.007025957107543945 0.021955236792564392 0.1150556355714798 -0.019328489899635315 -0.0841589868068695
0.01457628607749939 0.03442759811878204 -0.10455656051635742 -0.12428411841392517 0.02906714379787445 0.09291248023509979 -0.12022235989570618 -0.006681889295578003
0.08035553991794586 -0.10092665255069733 -0.07749234139919281 -0.04035589098930359 -0.0639401376247406 0.014152809977531433 0.03898337483406067 0.09844352304935455
-0.09290812909603119 -0.06755031645298004 -0.0293409526348114 0.062269359827041626 -0.013342395424842834 -0.10375829041004181 -0.10122677683830261 0.001839175820350647
-0.011345058679580688 -0.04302011430263519 -0.02311009168624878 -0.01529267430305481 -0.023935943841934204 -0.09034660458564758 -0.09347783029079437 0.07905448973178864
0.005509927868843079 -0.12472827732563019 0.015963122248649597 -0.09084928035736084 0.052996665239334106 -0.03525249660015106 0.12369948625564575 -0.1012832522392273
0.06620164215564728 -0.02368403971195221 0.10375337302684784 0.03436051309108734 -0.10507173836231232 -0.10997110605239868 -0.05211727321147919 -0.1197669506072998
-0.042613327503204346 -0.004281684756278992 0.031748682260513306 -0.01387205719947815 0.029933571815490723 -0.020711630582809448 -0.06379219889640808 0.08326815068721771

lstm.bias_hh_l0 f8 [256]
00000000: 0000 0080 b398 b4bf 0000 0080 20a4 ab3f
00000010: 0000 0000 d722 b5bf 0000 0000 77a0 93bf
00000020: 0000 0080 193d aabf 0000 00c0 c325 b33f
00000030: 0000 0000 b25d 9dbf 0000 0000 f8d4 8fbf
00000040: 0000 0080 769c a8bf 0000 0080 35a5 b93f
00000050: 0000 0080 cd41 b73f 0000 00c0 f1a5 b5bf
00000060: 0000 0040 3880 bb3f 0000 0040 fdac bcbf
00000070: 0000 0000 4017 723f 0000 0040 b7c2 bcbf
00000080: 0000 0080 adcb ba3f 0000 0000 6ac8 b73f
00000090: 0000 0000 ee7b 993f 0000 00c0 2508 b73f
000000a0: 0000 0080 fcc9 b43f 0000 0080 ad1d be3f
000000b0: 0000 0000 992a af3f 0000 0080 7e53 af3f
000000c0: 0000 0000 fa7b 8fbf 0000 00c0 b7e9 bfbf
000000d0: 0000 0080 36d7 bbbf 0000 0000 a4b4 72bf
000000e0: 0000 0000 803a 953f 0000 0080 3b36 bebf
000000f0: 0000 0000 af44 b3bf 0000 0080 f51a a5bf
00000100: 0000 0080 c6c2 bebf 0000 0000 7829 bb3f
00000110: 0000 0000 3944 ab3f 0000 0000 4c75 86bf
00000120: 0000 0000 74a8 773f 0000 0000 9f2f 95bf
00000130: 0000 0080 2dd1 a7bf 0000 0080 bc31 b23f
00000140: 0000 0000 f475 bdbf 0000 0000 e65a 8a3f
00000150: 0000 0000 09b7 b73f 0000 0000 f6fd a6bf
00000160: 0000 0040 af8b bd3f 0000 0000 10f6 76bf
00000170: 0000 0040 d687 b23f 0000 0000 5815 a73f
00000180: 0000 0000 5b93 a93f 0000 0080 2bb9 b53f
00000190: 0000 0000 7d4e af3f 0000 0000 4bc7 aa3f
000001a0: 0000 0000 ce2b a2bf 0000 0080 217e b4bf
000001b0: 0000 0080 996c b23f 0000 0000 8e25 91bf
000001c0: 0000 0000 787b 92bf 0000 0000 9e28 bb3f
000001d0: 0000 0000 d3be b1bf 0000 0040 5102 bd3f
000001e0: 0000 0040 cf48 b13f 0000 0080 5a9b ad3f
000001f0: 0000 0000 0b16 92bf 0000 0080 1af1 bdbf
00000200: 0000 0000 93af 9a3f 0000 0000 af41 913f
00000210: 0000 0040 f7dd bf3f 0000 0040 1f34 bdbf
00000220: 0000 0000 e8c1 693f 0000 0000 01d4 adbf
00000230: 0000 00c0 2bac be3f 0000 0000 5e53 bc3f
00000240: 0000 0000 f3e9 ba3f 0000 0000 63f0 963f
00000250: 0000 0040 69de b0bf 0000 0000 ca8d 833f
00000260: 0000 0080 c8e6 b13f 0000 0080 87c9 bf3f
00000270: 0000 0080 0fe4 acbf 0000 0000 c58c a1bf
00000280: 0000 0000 ea63 ae3f 0000 0000 5423 993f
00000290: 0000 0080 86a8 a4bf 0000 00c0 1f7e b03f
000002a0: 0000 0000 a5ce 92bf 0000 00c0 f914 bfbf
000002b0: 0000 0000 83bd afbf 0000 0040 8496 b13f
000002c0: 0000 0080 8a02 b3bf 0000 0080 7005 bf3f
000002d0: 0000 0000 6010 803f 0000 0080 63ab b13f
000002e0: 0000 0000 c835 a03f 0000 0080 3088 bc3f
000002f0: 0000 0000 760b 943f 0000 0080 3848 af3f
00000300: 0000 0000 19a9 95bf 0000 0000 4d76 a83f
00000310: 0000 0000 087e a6bf 0000 0080 ad1f bb3f
00000320: 0000 0000 d0b3 8cbf 0000 00c0 d95d b9bf
00000330: 0000 0080 053e b8bf 0000 0000 bc08 bbbf
00000340: 0000 0000 f373 a63f 0000 0080 f373 b9bf
00000350: 0000 00c0 05c2 b83f 0000 00c0 1c40 bcbf
00000360: 0000 00c0 2585 b83f 0000 0080 5844 aebf
00000370: 0000 0080 2967 bb3f 0000 0000 a0fd 5cbf
00000380: 0000 0000 608d 73bf 0000 0040 7703 b83f
00000390: 0000 0000 9091 a23f 0000 00c0 a3b8 b0bf
000003a0: 0000 0080 199c a4bf 0000 0040 8b6c bb3f
000003b0: 0000 0080 431c a83f 0000 0080 ec20 a83f
000003c0: 0000 00c0 5e1d bd3f 0000 0040 2891 bfbf
000003d0: 0000 0080 4c79 b8bf 0000 0080 d341 bfbf
000003e0: 0000 0040 2740 b83f 0000 00c0 2e4b b83f
000003f0: 0000 0080 50eb b33f 0000 0000 6ffe 96bf
00000400: 0000 00c0 2f52 b13f 0000 0000 0000 cdbe
00000410: 0000 0000 249b a7bf 0000 0080 4a00 b93f
00000420: 0000 0000 18e0 b43f 0000 00c0 a5b9 b43f
00000430: 0000 0080 f117 bdbf 0000 0000 4dbc bf3f
00000440: 0000 0000 da38 8b3f 0000 0000 10f4 72bf
00000450: 0000 0040 93ee bb3f 0000 0000 b042 913f
00000460: 0000 0000 a664 95bf 0000 0000 328d b3bf
00000470: 0000 00c0 f6a4 bb3f 0000 0080 5559 a23f
00000480: 0000 0080 9168 a0bf 0000 0000 d5df b23f
00000490: 0000 0000 1e6d 8fbf 0000 0080 1bd3 ac3f
000004a0: 0000 0000 f476 7a3f 0000 0080 d83d a4bf
000004b0: 0000 00c0 848a be3f 0000 0040 3241 b3bf
000004c0: 0000 0040 5c8c b4bf 0000 00c0 9206 b23f
000004d0: 0000 0000 e6e8 99bf 0000 0080 f1c6 ba3f
000004e0: 0000 0000 10b0 563f 0000 0000 7140 99bf
000004f0: 0000 0000 dbc5 93bf 0000 0000 9c5d ac3f
00000500: 0000 0080 cbe5 abbf 0000 0000 df44 bbbf
00000510: 0000 0080 5570 aebf 0000 0000 3e7d a6bf
00000520: 0000 0040 159d bd3f 0000 00c0 0086 b43f
00000530: 0000 0000 cde9 b5bf 0000 0000 caac 97bf
00000540: 0000 0000 0eeb 8d3f 0000 00c0 6c79 b1bf
00000550: 0000 0040 fcb5 b5bf 0000 0080 4bdc b23f
00000560: 0000 0000 4c0d 8d3f 0000 0040 015f bfbf
00000570: 0000 0080 1e6e ab3f 0000 0040 4ba1 b5bf
00000580: 0000 00c0 e45a bb3f 0000 0000 7e88 b03f
00000590: 0000 00c0 36ed bfbf 0000 00c0 166e bc3f
000005a0: 0000 0040 313a b23f 0000 0080 c091 aebf
000005b0: 0000 0000 0867 92bf 0000 0000 0f33 be3f
000005c0: 0000 00c0 fe64 b93f 0000 0000 67a8 b53f
000005d0: 0000 0040 5648 bf3f 0000 0000 1fe2 a63f
000005e0: 0000 0000 3a29 993f 0000 0080 eb00 a1bf
000005f0: 0000 00c0 7209 b13f 0000 0080 0f46 a0bf
00000600: 0000 0040 e36f b63f 0000 0000 f073 583f
00000610: 0000 0000 8429 73bf 0000 00c0 2062 bf3f
00000620: 0000 0040 4bcb b23f 0000 00c0 c220 b6bf
00000630: 0000 0080 6f63 babf 0000 0000 bc7c 933f
00000640: 0000 0000 5797 9a3f 0000 0000 d0b7 6abf
00000650: 0000 0000 a297 b93f 0000 0080 1598 a43f
00000660: 0000 0000 4453 a83f 0000 0040 4730 bbbf
00000670: 0000 0000 2f6d a03f 0000 0000 7302 9fbf
00000680: 0000 0000 104f 7bbf 0000 0000 6471 ba3f
00000690: 0000 00c0 47ed b6bf 0000 00c0 c55f b9bf
000006a0: 0000 0000 ca9b 903f 0000 00c0 5cb7 b83f
000006b0: 0000 0080 2b9c a43f 0000 0080 34fb afbf
000006c0: 0000 0000 00a5 933f 0000 0080 48c1 a63f
000006d0: 0000 0080 92c1 a83f 0000 00c0 57fe b03f
000006e0: 0000 00c0 e308 babf 0000 0000 50dd be3f
000006f0: 0000 0000 c032 3ebf 0000 0000 55f4 92bf
00000700: 0000 00c0 b042 b93f 0000 0000 1e52 bebf
00000710: 0000 0080 0a26 a1bf 0000 0000 6995 bfbf
00000720: 0000 0040 da79 b23f 0000 0040 ab72 b6bf
00000730: 0000 0000 1c17 be3f 0000 0080 51bb a2bf
00000740: 0000 0000 6eec b0bf 0000 0080 c54e babf
00000750: 0000 0000 e94a a3bf 0000 0000 472e b53f
00000760: 0000 0080 43d0 b8bf 0000 0000 280a 9fbf
00000770: 0000 0080 53e1 b2bf 0000 0000 4208 87bf
00000780: 0000 0040 5b40 bbbf 0000 0000 9cb0 99bf
00000790: 0000 0000 3ade b53f 0000 0080 84f8 bc3f
000007a0: 0000 0000 e818 923f 0000 0040 f3d1 b93f
000007b0: 0000 0040 62dc b1bf 0000 0000 f0e8 983f
000007c0: 0000 0080 ae21 bdbf 0000 0040 5e73 b93f
000007d0: 0000 0000 dd58 9b3f 0000 0000 5c71 86bf
000007e0: 0000 0000 711d 9fbf 0000 0080 aad5 aebf
000007f0: 0000 0000 82ae b3bf 0000 0040 6280 b1bf
-0.08045503497123718 0.0539865642786026 -0.08256286382675171 -0.019166812300682068 -0.051247403025627136 0.07479499280452728 -0.02867773175239563 -0.015542924404144287
-0.04806871712207794 0.10017713904380798 0.09084782004356384 -0.08456335961818695 0.10742522776126862 -0.11201460659503937 0.004416704177856445 -0.11234612762928009
0.10467037558555603 0.09290182590484619 0.02488681674003601 0.08996807038784027 0.08120706677436829 0.11764034628868103 0.06087186932563782 0.06118388473987579
-0.015373185276985168 -0.12466000020503998 -0.10875263810157776 -0.004566803574562073 0.020730972290039062 -0.11801502108573914 -0.0752667784690857 -0.04122130572795868
-0.12015953660011292 0.10610151290893555 0.0532548725605011 -0.010965913534164429 0.005775883793830872 -0.020689472556114197 -0.04651777446269989 0.07107141613960266
-0.1150810718536377 0.012868687510490417 0.09263664484024048 -0.04490631818771362 0.11541266739368439 -0.005605757236480713 0.07238520681858063 0.04508471488952637
0.04995235800743103 0.08485671877861023 0.06114569306373596 0.05230173468589783 -0.035490453243255615 -0.08004960417747498 0.07196959853172302 -0.01674482226371765
-0.018049120903015137 0.10608851909637451 -0.06931799650192261 0.113316610455513 0.0675172358751297 0.057825878262519836 -0.017662212252616882 -0.11696019768714905
0.02606038749217987 0.01685212552547455 0.12448067963123322 -0.11407656967639923 0.0031442195177078247 -0.05825808644294739 0.11981461942195892 0.11064708232879639
0.10513228178024292 0.02240137755870819 -0.06589372456073761 0.009547784924507141 0.06992772221565247 0.12416884303092957 -0.05642746388912201 -0.034277111291885376
0.05935603380203247 0.024548828601837158 -0.040348246693611145 0.06442449986934662 -0.018366411328315735 -0.12141381204128265 -0.06199273467063904 0.06870295107364655
-0.07425752282142639 0.12117674946784973 0.007843732833862305 0.06902143359184265 0.03166031837463379 0.1114530861377716 0.01957497000694275 0.061097875237464905
-0.02115286886692047 0.04777756333351135 -0.0439302921295166 0.10595211386680603 -0.014014840126037598 -0.09908829629421234 -0.09469637274742126 -0.10560202598571777
0.04385337233543396 -0.09942552447319031 0.09671054780483246 -0.11035327613353729 0.09578166902065277 -0.05911518633365631 0.10704287886619568 -0.0017694532871246338
-0.004773497581481934 0.09380288422107697 0.03626680374145508 -0.06531737744808197 -0.040253445506095886 0.10712499916553497 0.04709063470363617 0.04712618887424469
0.11372940242290497 -0.12330867350101471 -0.09560087323188782 -0.1220981776714325 0.09472890198230743 0.09489719569683075 0.07780936360359192 -0.022454962134361267
0.06766031682491302 -3.4570693969726562e-06 -0.04610550403594971 0.09766069054603577 0.08154439926147461 0.08095775544643402 -0.11364659667015076 0.1239669919013977
0.01329202950000763 -0.0046272873878479 0.10910911858081818 0.016855955123901367 -0.02089175581932068 -0.07637321949005127 0.10798589885234833 0.0358378142118454
-0.03204779326915741 0.07372790575027466 -0.01534484326839447 0.05629812180995941 0.006461098790168762 -0.039534345269203186 0.11930112540721893 -0.07521356642246246
-0.08026672899723053 0.07041279971599579 -0.025302499532699585 0.10459813475608826 0.0013847500085830688 -0.024659886956214905 -0.019309446215629578 0.05540168285369873
-0.054487571120262146 -0.10651963949203491 -0.05945079028606415 -0.04392427206039429 0.11567814648151398 0.08016972243785858 -0.08559876680374146 -0.023120075464248657
0.014608487486839294 -0.06825904548168182 -0.08480812609195709 0.07367393374443054 0.014185518026351929 -0.12254340946674347 0.053574517369270325 -0.08449240028858185
0.10685567557811737 0.0645827054977417 -0.12471334636211395 0.11105482280254364 0.07120044529438019 -0.05970574915409088 -0.017971158027648926 0.11796659231185913
0.09919731318950653 0.08460086584091187 0.12219752371311188 0.04469391703605652 0.024571329355239868 -0.0332101434469223 0.06655041873455048 -0.03178451955318451
0.08764477074146271 0.0014924854040145874 -0.004678264260292053 0.1225910633802414 0.07341451942920685 -0.08643738925457001 -0.10307976603507996 0.019030511379241943
0.02596794068813324 -0.003261476755142212 0.09996998310089111 0.040222808718681335 0.04751026630401611 -0.10620541870594025 0.03208300471305847 -0.030282780528068542
-0.006667196750640869 0.10329270362854004 -0.08955810964107513 -0.09911762177944183 0.016219288110733032 0.09654788672924042 0.040253981947898865 -0.062463417649269104
0.019184112548828125 0.04444338381290436 0.04835183918476105 0.06638096272945404 -0.1016981452703476 0.12056446075439453 -0.0004607886075973511 -0.018510177731513977
0.09867386519908905 -0.11844050884246826 -0.03349335491657257 -0.12337356805801392 0.07217182219028473 -0.08768720924854279 0.11754012107849121 -0.03658537566661835
-0.06610763072967529 -0.10276445746421814 -0.03768089413642883 0.08273738622665405 -0.09692785143852234 -0.030312180519104004 -0.07375070452690125 -0.011246219277381897
-0.10645075142383575 -0.02508777379989624 0.08542215824127197 0.11316707730293274 0.017673134803771973 0.10085983574390411 -0.06976903975009918 0.024326086044311523
-0.1137951910495758 0.09941662847995758 0.02670617401599884 -0.01095840334892273 -0.03038574755191803 -0.06022389233112335 -0.0768815279006958 -0.06836523115634918
