checkpoints/MAD_GAN_5G/model.ckpt (torch, 40213 bytes, 36 tensors)

generator.1.weight f8 [16, 10]
000000 40 bc fb e3 cb fb b1 3f 3a 24 9a 1e 73 22 d1 bf
       0.07024835887908498 -0.26772764194953746
000010 21 f1 0e b9 5b 0b c2 bf 7f 06 03 82 f2 b4 d7 3f
       -0.14097162757924145 0.37041914650408353
000020 20 70 94 5f 36 1e e4 bf 05 90 a7 74 85 a9 e2 3f
       -0.6286880366128607 0.5831935194405565
000030 28 55 62 5c 2a ee c5 3f 5b 4c 1c 03 f7 1d e1 3f
       0.1713307334036156 0.5349078236344086
000040 a9 d9 b6 0d eb ec e3 3f c6 72 ff 74 8b 86 bb bf
       0.6226706760269752 -0.10752174002068235
000050 a4 bd 22 90 ec 29 e4 3f 0a 52 b7 29 e4 b4 e4 bf
       0.6301176848555099 -0.6470814528243534
000060 75 e9 92 3d c4 8a b6 3f 7f f8 65 e3 83 a2 bb bf
       0.08805490973728587 -0.10794853498188849
000070 fc ac 7c 89 ba a7 8e bf 50 ca d4 a7 4d f1 c0 bf
       -0.014968354531069476 -0.13236399359591866
000080 59 49 7a 16 84 27 d8 bf d0 52 a2 c7 22 a3 d5 bf
       -0.3774118632801638 -0.3380820226241612
000090 aa ae 06 ff 2b 49 d8 3f 1a ed d6 3f 1d 72 cd bf
       0.3794660559167179 -0.2300449907032565
0000a0 43 ce 4a f6 1d 10 db bf ab 3d e9 32 60 ea da bf
       -0.4228587060162889 -0.4205551621607479
0000b0 d4 ec fd a2 44 8c dc bf 90 ef 5e b2 1b 87 dc bf
       -0.44606128613641016 -0.4457463495161784
0000c0 5d 1a 34 fa 54 e9 4f 3f 68 19 d0 b5 0a 68 b0 bf
       0.0009738602570060307 -0.06408755244055941
0000d0 b9 65 34 67 3f 83 e0 3f 8c bb ef df 9b 62 e1 3f
       0.5160214439121581 0.543287217498674
0000e0 9e fe 69 eb e1 7a e1 bf f9 61 27 61 3a ff d0 3f
       -0.546250304978418 0.2655778836029011
0000f0 7b 0e bf 46 0b d5 ae bf 06 cf ee 7b e9 7a 73 3f
       -0.06021914709665751 0.004755889937701379
000100 68 07 d3 4b 5b 5b ae 3f f4 de 9b f2 05 d7 e9 bf
       0.059290745740795014 -0.8074979532675273
000110 bb 39 c5 fd 5f 65 e5 bf 7f 84 f6 8c 60 1d d1 bf
       -0.6686248737767565 -0.26741803899682987
000120 3d 32 ae 74 0f 7c cf 3f bb 85 50 48 08 e4 c3 bf
       0.2459735221604137 -0.15539649516089846
000130 6f d1 3d 64 62 a4 cd 3f 25 28 1b 0e 43 03 e6 bf
       0.23157911200145118 -0.6878981853017235
000140 77 24 c5 44 d8 a2 b2 bf ae f0 83 b6 5c a6 c5 3f
       -0.07279731444318026 0.1691394702137407
000150 18 9d 56 0f 35 a2 e2 3f e0 5a 4d f9 0e 32 e2 bf
       0.5823006915642592 -0.5686106557066886
000160 7c fe 28 0e 69 7b e2 bf 40 ea 09 40 5d 5d e2 3f
       -0.5775647427144146 0.5738970041996438
000170 d9 14 ca 23 82 f1 96 3f 5b 5e cf 7a fa 93 db 3f
       0.022405656275186956 0.430906886989282
000180 2a c5 fe 61 79 b6 d3 3f c1 ae 79 8d 43 27 c9 3f
       0.3080123383507095 0.19651073844885583
000190 20 45 12 86 6e ac e0 bf c4 bd 9d 4e 09 28 e6 bf
       -0.5210487955647842 -0.6923872504684643
0001a0 4d 0c fb f0 d9 43 bd 3f 71 5d 1f 38 e3 a6 a8 bf
       0.11431657918278511 -0.04814825115289068
0001b0 e3 61 db c2 dc 19 c5 3f f1 b4 25 97 2a eb e4 3f
       0.16485175623417012 0.6537068321319152
0001c0 ba 6f 86 44 f5 46 c9 3f ab b3 fe 1a 6f 8c ea bf
       0.19747796865419592 -0.8296428229565341
0001d0 11 7c e0 c7 0e 21 c5 3f 1a 05 82 f9 f3 55 d1 3f
       0.16507134208311006 0.2708711563683025
0001e0 69 77 81 60 6a e0 e4 bf a0 ef da a4 17 b6 ba 3f
       -0.6523944744946962 0.10434100889955156
0001f0 8e 03 e8 76 02 f8 e9 3f ff 3d 10 95 5f 15 e3 3f
       0.8115246126545672 0.5963590537448339
000200 05 0f b3 30 4d 2b d0 3f 59 47 bf d5 5a ce 85 3f
       0.25264291530423605 0.010647496841474856
000210 44 88 69 65 70 f1 c3 3f e5 36 00 c3 2f 61 d3 bf
       0.15580563499230682 -0.3028067974381499
000220 0d 80 b4 03 30 32 d0 bf 50 f2 0d a5 11 42 e6 bf
       -0.2530632053549205 -0.6955650542946135
000230 ba aa d5 ad a3 6c ca 3f f8 65 53 1f 70 fa e2 bf
       0.2064404104997573 -0.593071042235521
000240 49 e4 20 a4 b7 5c cc 3f 6e 95 bd 85 2b 0f d2 3f
       0.22157950891576864 0.2821759038982553
000250 b2 f5 2c 78 a7 cd c2 bf a7 a3 f7 0b 9a fb b7 3f
       -0.14690106742811576 0.09368288795634659
000260 b6 3e 28 cf a5 9d d8 bf b2 cb ec 56 88 c9 e5 3f
       -0.38462205152698503 0.6808511445764138
000270 0a 37 3d 27 89 46 eb bf df 7e a6 2d c8 89 b5 3f
       -0.8523603216542324 0.0841336356593234
000280 71 47 db bb 97 71 d8 bf 42 f0 97 2c c3 0d e0 bf
       -0.3819331488167484 -0.5016799803702343
000290 c3 36 6e 31 bd 0d cc 3f e9 13 47 7b ef b7 d7 bf
       0.21916928208923112 -0.3706015304454114
0002a0 5b 6d 3e c0 c6 4e ee 3f 12 c1 52 f8 70 4f db bf
       0.9471162562144103 -0.42672371149366584
0002b0 e8 c0 00 7f 5e 71 b4 bf c4 93 35 7a 93 0c e7 3f
       -0.07985487557084847 0.7202851664447896
0002c0 ef 1e 48 e1 4b fe e3 3f 27 62 3b 17 1a 3c d0 3f
       0.624792041781772 0.25366832989451144
0002d0 5b 4e ea 61 57 68 de 3f 94 16 9b 27 1f ab dc bf
       0.4751184898570721 -0.44794443958049013
0002e0 61 2e 13 bc e5 d2 e5 3f f0 81 4c b1 89 ae d5 3f
       0.6819943116510779 0.33877794565526553
0002f0 41 de 69 b7 37 83 dc bf d0 77 e8 0b f8 be e0 bf
       -0.44550888930777793 -0.5233116371707585
000300 7d 91 08 e5 c7 0e cc 3f b4 8c 7e 60 2e e1 b9 3f
       0.21920107539439107 0.10109224181956017
000310 ce 9c 1f 61 46 14 bc bf 10 43 54 3c 54 f3 8e 3f
       -0.10968437071970813 0.015112550822352883
000320 a2 4f 53 9f 9a 9c bc 3f 23 e3 ab be 15 ab c3 3f
       0.11176458730488872 0.15365859804276125
000330 3b 8b 76 3b e6 73 df 3f dd ea 99 b9 49 32 c3 3f
       0.49144893462123534 0.14997216761169954
000340 47 07 c1 a2 54 fa e2 bf 08 fb c0 b0 26 af e7 bf
       -0.5930579355992699 -0.7401307537291766
000350 39 2a d0 76 60 f4 ec 3f 49 a1 19 48 23 e1 a0 3f
       0.9048311539239143 0.032967665244373175
000360 21 02 88 03 de d0 b1 bf 60 7e ec 11 d3 b7 c2 3f
       -0.06959331117833091 0.14623487830339155
000370 9a 09 56 f7 5d 28 dd 3f cd f9 1c c5 c2 df c1 3f
       0.455588809527535 0.1396411383120281
000380 ce 1a 12 7a 47 10 d9 3f b9 37 07 98 d7 e7 e2 bf
       0.39161860390633485 -0.5908010453510918
000390 ef e3 b1 30 6b 7e d4 3f e6 8c e6 fe 81 b4 d0 3f
       0.32021598582610883 0.26101732151637547
0003a0 36 52 ce 55 89 d3 89 bf 26 2e 10 2e 33 da b2 3f
       -0.012610505038346802 0.07364196657743402
0003b0 69 3d 67 9d 76 4b df bf 58 91 a6 75 d1 1d e7 bf
       -0.4889809167043127 -0.7223899171699868
0003c0 39 2e ae 2b ce e1 df bf a4 8d 45 62 a5 fd ad 3f
       -0.4981570650640808 0.05857579063993093
0003d0 f5 9e cf 32 9a f2 e5 3f 0e 14 6b c7 e3 5d b2 bf
       0.6858645431902618 -0.07174514406786178
0003e0 fc bf 82 55 f4 0c c1 bf 0e 31 9c 30 c1 10 c2 bf
       -0.13320783782319257 -0.141136311278736
0003f0 4f 4e fc 53 9b 1f ef bf e5 09 59 a2 bf 25 cf bf
       -0.9726082458823359 -0.2433394949640181
000400 ac dc 61 84 f1 14 c5 bf fc ac 13 e1 a1 e9 e1 3f
       -0.1647016426465816 0.559769572833289
000410 bb 2b fc 51 c8 b1 e5 bf b1 39 bc 74 a2 5c d0 bf
       -0.6779519654531819 -0.25565396690299297
000420 70 c2 50 2e 27 66 d2 3f 9b a8 58 7a 81 00 dc 3f
       0.2874849273967248 0.43753086994059637
000430 71 6c 12 d4 03 d6 bc 3f b4 47 05 15 4b 2f d5 3f
       0.11264060905016195 0.33101155331416554
000440 5d 4b 3f 76 4c 3e b7 3f 69 e2 c0 2d 44 61 dc 3f
       0.09079435240645979 0.4434366652308542
000450 95 41 9f 56 ce 17 c3 bf 2c 4f ca 8a 61 3e eb bf
       -0.14916400174707847 -0.8513648710963699
000460 2f 31 be b6 3e 23 e5 bf ad 3b ed 8c 49 33 dc bf
       -0.6605523652265556 -0.4406303287732339
000470 af d1 0b a6 36 f1 d4 bf 45 9d e2 9a f3 2f d4 3f
       -0.3272225019020664 0.3154267323065663
000480 66 f6 0a a1 24 8e d3 bf 66 53 b3 a4 1d 1f e2 bf
       -0.3055507252391635 -0.5662983147436591
000490 68 75 1d 94 9f 06 89 bf 0c 22 4d 1b 26 aa c1 3f
       -0.01221966429482775 0.1380050309474118
0004a0 c1 c5 06 c1 b8 19 de 3f 9f cf 10 a6 31 84 c8 3f
       0.4703199276946997 0.19153423889804075
0004b0 ba 6c af 1b 41 e3 71 bf 02 7e 11 8c de 71 e2 3f
       -0.00436711724156707 0.5764000640592146
0004c0 99 a9 9d 87 b1 53 e0 bf 7d c7 6e e5 c3 40 cf 3f
       -0.5102164887187427 0.24416397764940348
0004d0 05 0a 12 ce 57 cc df bf fb 9a 89 13 66 7b d2 bf
       -0.4968471062094582 -0.2887816611095528
0004e0 f6 ff 7e 9e 17 39 e7 bf aa 6e ad 55 c2 7b 4a bf
       -0.7257192702891178 -0.0008082102680008936
0004f0 26 9d 2e ba 90 e7 c1 3f 95 c8 3d 55 73 81 dc bf
       0.13987931338235987 -0.44540103268003267

generator.1.bias f8 [16]
000000 74 20 fb 08 d8 0d dd bf 9d 95 e7 7d 71 d9 d6 3f
       -0.4539699638085104 0.35702168746350954
000010 6c e0 44 d3 f2 27 d5 3f b2 6a ea 8e 6d 23 d4 3f
       0.3305632651495276 0.31466235119448094
000020 96 ba db 79 16 f4 d7 bf d1 23 c5 0c 7d b5 cd 3f
       -0.37427293682314067 0.2321010887483497
000030 51 c3 58 66 8a bd cf bf b9 3c 29 88 ab d5 b8 3f
       -0.2479718208064932 0.09701034616704164
000040 1f 3f 4b 11 63 c8 d8 bf 49 e4 f2 3c ad 24 d3 bf
       -0.38723065079556024 -0.29911356880217405
000050 9f 1d d5 bb ab 34 b5 3f e3 93 09 7e 91 8c d5 3f
       0.08283494315866456 0.33670460995045753
000060 85 be bf 37 bc 22 d1 3f 6e 3b 2d 75 99 47 cd 3f
       0.2677450699256741 0.22874754163282368
000070 35 97 bf cc 79 3f d8 3f 50 78 63 0c 03 c4 e0 3f
       0.37887425417862924 0.5239272348369557

generator.3.weight f8 [16, 16]
000000 d7 f8 ce 2b 39 90 e7 3f 55 d3 ff cd f9 ac a1 bf
       0.7363553863176787 -0.034522825619126486
000010 06 49 f8 1b 78 3f e8 bf 61 ae 22 8b 12 bd db bf
       -0.7577477022444163 -0.43341506564568105
000020 d3 86 db 73 fd e8 c3 bf 32 81 dc 15 ac e9 a5 bf
       -0.15554779202562105 -0.042798402470227606
000030 54 6d 19 5a cd d3 ba bf 06 cf ee 84 22 33 b7 bf
       -0.10479434442225016 -0.09062400575095006
000040 97 86 73 7d 6f 33 d2 bf 91 ba 62 f6 c7 af c4 3f
       -0.2843893742666323 0.16161441355275888
000050 1d ad b2 04 a3 29 c1 bf a8 9e ec 49 02 09 e9 bf
       -0.13408315400497708 -0.7823497241815476
000060 5d 03 62 e6 07 d8 d1 3f f2 28 d3 2c 39 01 c3 bf
       0.2788104772408156 -0.14847483338082373
000070 fa 4b 27 bc b5 fd dd 3f 22 ac a9 9e 8d c9 d6 3f
       0.4686102235256723 0.3560518311921347
000080 e6 5a 2e 54 47 46 f0 bf e2 d5 df dc 21 f9 e5 bf
       -1.017157868225405 -0.686661654849271
000090 3c 3b fb 59 d1 7c ec 3f 18 b7 e0 a6 df 62 8a 3f
       0.8902365453194316 0.012883899002271756
0000a0 63 26 1f be 2e 58 e5 bf 1e b0 30 93 ed 8b e0 3f
       -0.6670144761385014 0.5170810580070826
0000b0 de 7b 0d d1 aa 10 c9 3f 45 94 b9 83 56 f0 e1 bf
       0.19582114417695967 -0.5605881283523863
0000c0 84 3e 54 14 5b 0d b4 3f 13 e5 4d d7 9b 5d d7 bf
       0.07832879301371959 -0.365088424928744
0000d0 25 23 86 df 3a 3b dd 3f 79 f0 f7 99 53 e2 cf bf
       0.4567401106692606 -0.24909443872445872
0000e0 52 aa c7 68 4c 83 d6 3f 40 f5 de 8f f6 32 c1 bf
       0.35176382286468766 -0.13436777138660183
0000f0 6b b1 0c 26 cd 7f e2 3f 73 f6 56 47 43 31 d0 bf
       0.5781007521778013 -0.25300676314132103
000100 7c 55 20 02 d8 81 cc bf 4e ad 90 e7 f8 0f ec 3f
       -0.2227125177748056 0.8769497416264274
000110 15 04 e7 81 d6 8c aa 3f 92 0a 4b 09 10 72 e4 3f
       0.05185575805399637 0.6389236623293348
000120 6f b6 a6 c2 e8 ae cb 3f 06 33 f9 c5 0c ab e3 3f
       0.21627530579046403 0.6146301142376565
000130 ae 42 8c 9b f8 68 bb 3f 96 23 39 52 bf 78 d3 3f
       0.10707048223072022 0.30424483327493
000140 5c 33 9c a9 76 2a e2 3f a3 90 15 e7 b4 2c c5 bf
       0.5676835358332073 -0.165426838716603
000150 08 44 ae 21 7d 72 e2 bf 53 70 51 64 0b f5 e5 3f
       -0.5764756830050155 0.6861626586283002
000160 e0 90 bc 9f d6 77 d5 3f e8 eb 0c 7e 62 c9 da 3f
       0.3354393539359659 0.41854154882065453
000170 ad 4b 33 f7 7c 49 cf bf dd 58 97 12 72 bd ce bf
       -0.24443018026667343 -0.24015642078183577
000180 84 73 d3 10 36 45 ce 3f 42 21 64 97 4d b0 d8 bf
       0.2364871580274689 -0.3857606867245701
000190 ed 94 bc c6 7a 62 ce 3f 43 da 38 db fa 0d b9 bf
       0.23738035873353827 -0.09786956646062443
0001a0 5c 1d fe a3 f1 8d e1 3f 21 2a 9a d6 4e 26 e7 3f
       0.548577137277714 0.7234262649010966
0001b0 06 7d 40 14 52 b5 af bf 1e aa 73 d6 54 8e cf bf
       -0.061930241558224394 -0.2465311095359803
0001c0 08 a0 0d cb eb e0 bf bf 7c c2 41 11 21 08 c4 3f
       -0.12452577311853485 0.15649808256741327
0001d0 50 56 3b 77 ec 71 d5 3f a8 bd ca 0b 5b 3b c3 bf
       0.33507835048417167 -0.15024889064578173
0001e0 d3 bc fb f5 c6 69 d7 bf 45 e5 79 e9 50 52 d3 bf
       -0.3658311273747589 -0.30189917374044156
0001f0 83 6c bd 2c 42 f2 b8 bf 5a 85 1b 2b be ce ef bf
       -0.0974465712765085 -0.993987163729041
000200 f1 b4 5a 0b 22 6f c0 bf 25 ba 13 fd c9 59 d4 3f
       -0.1283915095749886 0.31798028673702766
000210 16 35 99 8d a4 30 d6 3f be ea aa 37 a7 0c e7 3f
       0.34671892002082083 0.7202945792444877
000220 28 3a a1 65 34 5f e0 3f ce 2f 5d d5 5f ff d9 bf
       0.5116216645199687 -0.4062118133194844
000230 27 93 53 61 f1 78 d9 bf 51 b6 75 4b 80 7a bb bf
       -0.3980067682698966 -0.10733796922951312
000240 98 19 31 d0 ac eb cc 3f f5 67 37 f5 78 7f e3 3f
       0.22594223180403783 0.6093106068976782
000250 4f e7 52 38 33 48 f0 3f 94 09 23 d0 df 44 91 3f
       1.0176269722127989 0.016864296988168784
000260 24 a7 4d 8d 12 f5 d0 3f e3 17 aa 52 22 cf c0 bf
       0.26495803641465643 -0.1313212302813432
000270 92 d1 26 02 27 6d d4 3f e3 95 41 8e f9 8b ab bf
       0.3191621323597015 -0.053802298178918816
000280 91 2d 84 44 c8 ae e7 3f 85 c9 86 c3 ab 3c da 3f
       0.7400857294282323 0.40995306105028134
000290 f7 0b 77 57 0d e8 ea 3f f5 dd 24 fc 0d 04 da 3f
       0.8408266742993636 0.40649747489393856
0002a0 31 2e 64 f4 18 1b d8 3f 5f 70 7f 0f f3 ba d9 3f
       0.37665389887181094 0.4020354892106805
0002b0 a1 c8 15 ce d2 21 e7 bf 63 52 c3 0a 57 0a e1 3f
       -0.7228788399791207 0.5325122080053685
0002c0 b2 c9 91 f3 60 54 c4 3f 3d d3 67 13 e7 52 d3 bf
       0.15882503407517629 -0.3019349755771151
0002d0 e0 d7 8f 5b f6 18 c0 bf 15 5e 9b b3 35 ee ce bf
       -0.125761789997056 -0.24164458532207847
0002e0 b4 f2 eb f6 ed 0e b2 bf bf 90 98 77 ef aa 98 bf
       -0.07054030683861862 -0.024089566874082587
0002f0 96 b4 6a 11 61 be e7 3f 5c ec 02 d5 f6 dd c0 3f
       0.7419896450206973 0.1317738094420261
000300 41 66 99 2f 1a 5a d2 bf 26 36 fd b6 a1 bf e7 3f
       -0.2867494072757815 0.7421425413137441
000310 72 b1 b2 c0 9e 45 a6 bf f4 e3 29 6c d5 92 d6 3f
       -0.04349990942259553 0.35271201670508323
000320 88 55 69 ad 8c 75 ea bf e2 42 d3 a8 a5 b3 cf 3f
       -0.8268493067686657 0.24766989463252914
000330 71 9a 82 5f 24 18 e0 bf dc c6 26 cd 6c 48 92 bf
       -0.5029470315392485 -0.017854404469921245
000340 ae a5 64 5e 30 3f ef bf f6 b9 0b 6b c6 4f 9c 3f
       -0.9764634936920424 0.02764806774478675
000350 b8 78 52 71 d0 49 cb 3f ba 0b 80 f9 74 23 bf 3f
       0.21319013150509192 0.1216347798472687
000360 06 e7 02 0e c7 a6 e2 bf 68 fb 05 d5 d0 b6 e0 bf
       -0.5828585885676325 -0.5223163757908482
000370 c0 bf 7b b9 d4 1e d5 bf b0 5e 1f a1 7c ee d1 3f
       -0.33000677217114216 0.28018108114836604
000380 a0 87 75 6e 7e 2a ba bf a5 ec 4e 3f 46 f1 d8 3f
       -0.10221090504413022 0.3897262209172346
000390 8a 91 bb c3 9c 6f d8 bf 89 d9 ce 9b f5 11 a1 bf
       -0.38181227793236217 -0.03334014441445549
0003a0 a4 24 a7 82 f5 cb df 3f e6 fb 21 29 db e9 d4 3f
       0.49682367095062774 0.3267734433829318
0003b0 79 70 28 b4 a8 8c c3 bf 8d 2c bc 96 bb fe e8 bf
       -0.152730071990735 -0.7810953086895026
0003c0 e8 23 34 71 5f ae e3 3f 0d 7e 5b 99 bc 3e 9e bf
       0.6150357447633015 -0.029536196575348273
0003d0 1b ec 73 6a 40 d8 d6 bf 47 82 8e be 27 31 d3 bf
       -0.35694895168097823 -0.2998751984505685
0003e0 9a 47 9a dd 9b 47 d5 3f 10 33 bf 9a 67 5f db bf
       0.332495657357066 -0.42769804107665355
0003f0 bd 35 ff a3 dd 21 c6 3f 39 6b 27 8b 63 24 cb bf
       0.17290850169812969 -0.2120479993307869
000400 a3 47 06 ff b3 f3 db 3f 52 bc 49 d3 bf 53 e3 bf
       0.4367494574045116 -0.6039733053893406
000410 e8 9b 06 16 79 12 e1 bf 64 99 ae 6d 4d 19 c7 3f
       -0.5335050039474227 0.1804596696430948
000420 cb 20 37 b9 1a 4b e9 3f 19 90 e2 46 78 56 b0 3f
       0.7904180161940756 0.06381942492095084
000430 ca fe 09 1c 94 55 b9 3f e7 8b 7c 6d 9b 89 e5 bf
       0.09896207508608793 -0.6730477465065378
000440 26 4a 6a ba 55 9a bf bf c3 51 19 24 53 49 d4 bf
       -0.1234487133136005 -0.3169753887680395
000450 d3 ee e8 80 2c 0f cb 3f e2 5e a8 2a 6c 7e d3 bf
       0.2114005689089625 -0.3045912186221199
000460 17 6b d7 61 77 94 ad bf 94 27 bf 9b 7b 3b c9 3f
       -0.05777333325723626 0.19712777237719747
000470 bd 25 3f 8b 51 34 be bf f9 61 b7 0c cc d3 c9 3f
       -0.11798581742836851 0.20177603360095
000480 57 c8 bc ec 09 e1 dc bf 3b b5 cb 66 de 2f d1 bf
       -0.45123527640237654 -0.2685466770042983
000490 70 50 b8 9f 90 77 cd bf 83 79 ba b4 ef 27 d4 3f
       -0.2302113323099806 0.31493752145060955
0004a0 1c 85 2f 10 66 d8 e3 3f 54 ea 71 b2 ca c0 c5 bf
       0.6201658550382123 -0.1699460383714092
0004b0 e5 95 1d 6e e1 bf b2 3f 2b eb 88 b7 96 88 d8 3f
       0.07324036539429064 0.38333671496700344
0004c0 a6 7f b8 65 27 e8 ea bf 48 98 14 29 2e 8a bb bf
       -0.8408390986187342 -0.10757721426907196
0004d0 ff 75 61 a3 5e 0a c4 3f 0c 10 ad 16 c2 fb d5 3f
       0.156566457534538 0.3434910985417907
0004e0 c6 9a a9 35 d5 8d f5 3f 29 a2 cf e8 a5 d6 c0 bf
       1.3471271606628519 -0.13155053966262756
0004f0 be 96 0a d2 48 e3 c5 bf 24 31 2e a3 35 73 df 3f
       -0.17099867111135397 0.4914068311270674
000500 1e f9 3d d0 09 b1 d4 bf c0 69 60 e3 f5 27 e3 bf
       -0.3233055623640143 -0.5986279908132062
000510 19 55 8a f3 df 62 d2 3f c5 89 ee 18 72 01 d2 bf
       0.28728483947027567 -0.28133823809380615
000520 f2 ab 2b b8 47 3d d1 3f bc ba 47 52 f7 ca ec bf
       0.2693652437725965 -0.8997761351618787
000530 60 62 2f bd 71 7c db bf 57 ec ca ab c6 c1 e3 3f
       -0.4294704768667881 0.6174043040586054
000540 7b a3 81 6e ba 39 d4 3f 6a 66 62 74 0f 44 a7 3f
       0.31602345267906856 0.04544113441188531
000550 3f c4 95 15 42 9e c0 3f 38 ab 42 78 6a d4 bc bf
       0.12982965520817122 -0.11261620937390837
000560 41 e6 51 2a 5d f0 bd 3f a3 ad 46 09 3f 15 e3 bf
       0.11694891246033824 -0.5963435345815252
000570 fc e5 c5 4e df 85 d1 bf 6b 5e 10 e6 87 3c bc bf
       -0.27379591648750057 -0.11029862753673007
000580 63 79 3b 32 a9 9e 93 bf f9 22 55 a0 39 55 d3 bf
       -0.019159930888116416 -0.3020767274615959
000590 b5 77 fb 22 5e e4 cd 3f d1 94 a1 48 fb 8d e0 3f
       0.23353172977561845 0.5173317354753185
0005a0 29 b3 d5 1e 2e 6f de 3f 37 a0 8f ce 58 1c e2 3f
       0.4755358983155014 0.5659603151698381
0005b0 e8 b9 97 88 73 af d5 bf 27 f0 90 21 b0 b7 d9 bf
       -0.3388336976921935 -0.40183642652459856
0005c0 67 2f 28 40 12 c0 e8 bf 61 88 c4 fd 91 71 e7 bf
       -0.7734462025705228 -0.732613559379626
0005d0 a0 86 7e 32 ab c4 da bf 18 83 b7 92 89 cf a0 bf
       -0.41825370722845356 -0.032833384666224485
0005e0 d6 b9 ac 7c b3 e5 b7 3f bf f9 49 de 4e 03 cb bf
       0.09334871095482042 -0.21103845457032652
0005f0 a8 37 3e f3 d1 ea dc bf a7 27 0f 2b 3d 96 a2 bf
       -0.45183228258326347 -0.036302482134103635
000600 14 d6 e2 b9 de ef b5 bf 7a bd 89 a0 c8 6b c8 3f
       -0.08569137609705307 0.19078929747363899
000610 51 7f fe 99 15 20 eb bf 2e f7 27 e9 c0 3c a7 3f
       -0.8476665504167419 0.04538538786071765
000620 c3 30 40 a8 aa 1d c7 3f 2f 4d 1d 6c 3d b3 df 3f
       0.1805928536927067 0.4953149371915115
000630 22 b5 6f 31 75 92 e7 3f f8 a8 75 90 66 c3 cd bf
       0.7366281476549015 -0.2325256543511569
000640 fb bb 67 b1 bf 32 d1 bf 24 9d 83 85 f0 fa e7 3f
       -0.2687224609825873 0.7493822677323903
000650 b9 1e dd 88 b3 9f e0 3f 80 64 d8 0c 8b 73 bb 3f
       0.5194947884674185 0.1072317987785869
000660 62 d9 a9 47 e2 5f b8 bf 52 13 c3 17 2b 7b d1 bf
       -0.09521307229610934 -0.273142598347751
000670 22 52 2c f8 16 53 d0 bf b0 51 70 d5 5a 7f e3 bf
       -0.255071394306727 -0.609296242592384
000680 3a fb 4f fa 4e 5a c2 bf 90 4e 7b 27 01 25 d3 3f
       -0.14338099691664202 0.29913357596999735
000690 43 d4 2e ec 13 4f da bf 0c b8 08 fe 08 eb e3 3f
       -0.411076527259244 0.6224408113100721
0006a0 7e a8 a7 17 e1 8f e2 bf 9e 27 31 9c 19 0f d3 bf
       -0.5800633871088079 -0.29779663327337313
0006b0 e2 04 08 19 47 98 cc 3f 14 76 82 27 21 e8 dc bf
       0.2233971473906769 -0.451668060859306
0006c0 61 4c 35 8d 69 4c b1 3f 0b 19 20 0f 03 a1 cd bf
       0.06757220933404674 -0.23147619474929856
0006d0 84 29 99 c1 65 c4 df 3f 49 a9 2d 89 74 75 98 bf
       0.4963621512039469 -0.023885556099608327
0006e0 40 5f 87 2a 89 54 90 bf 91 2a 97 91 e3 4a da 3f
       -0.01594747850489786 0.4108208581716691
0006f0 0a e7 0a aa 13 d6 e9 3f 05 c7 5a 95 a9 63 eb 3f
       0.8073824235100073 0.8559158246118562
000700 b6 17 59 1f f0 15 e1 bf 2e c9 d3 ba f6 fe df 3f
       -0.5339279758707025 0.4999367546544303
000710 26 00 7a 64 0d d2 e5 bf 05 56 02 33 af b5 c9 bf
       -0.6818911516602426 -0.20085706701927122
000720 70 59 e5 cd c8 2c d0 bf b3 83 e6 74 d3 85 e0 bf
       -0.25273342234631624 -0.5163361819469315
000730 56 e4 53 b9 18 91 d6 bf 80 47 cb b0 a7 4a e8 bf
       -0.35260599230202183 -0.7591131642350177
000740 3a 58 d4 d8 b6 5e dd 3f 03 00 43 aa 31 b3 c7 bf
       0.4589058988070779 -0.1851560670238542
000750 2a cd 71 41 f6 45 c9 bf a6 4d 9c f7 d2 f8 ca 3f
       -0.19744756885084175 0.2107185086284577
000760 da 11 2e 3f ab 5e ac 3f a1 9f 4f 58 22 cb e4 bf
       0.05540976663818116 -0.6497966503929896
000770 e6 c8 f4 73 71 df dd bf 64 90 10 8f a3 dd b4 3f
       -0.4667628891358063 0.08150694124975782
000780 79 51 e8 74 fc f8 d7 bf b0 aa c7 7e f8 b3 d9 3f
       -0.37457190911052113 0.401609538849395
000790 94 6d 9e 06 25 5a b8 bf c6 04 05 f8 05 b6 e1 bf
       -0.09512549792855501 -0.5534696430333035
0007a0 b0 26 65 2b 1f 3b d2 bf 86 3c 4b be 4d 1b e6 3f
       -0.2848585056095585 0.690832969348677
0007b0 57 6b 4f 5d 80 d8 8a bf d0 32 84 cf 84 a4 ea 3f
       -0.013108256194689067 0.8325828602842993
0007c0 eb 07 cf 1a 63 1e d6 bf 83 fd fc 84 ba 7f d7 3f
       -0.34560468309439213 0.367170934554416
0007d0 c2 81 83 b7 1c c3 57 bf 88 38 a2 ce 12 31 dd bf
       -0.0014503269613258406 -0.4561202066332801
0007e0 ef 12 15 40 36 0b ee 3f 96 c4 f1 b9 3e 46 d3 bf
       0.9388686420066658 -0.30116241606362715
0007f0 e4 b1 b5 b5 35 e3 d3 3f 73 9f 7e 26 68 68 c3 bf
       0.31074278588383053 -0.15162374381656782

generator.3.bias f8 [16]
000000 e8 df 69 a4 ba 52 bb bf 50 4f c5 45 55 60 d1 3f
       -0.1067310954475712 0.2715047055582902
000010 9a a1 43 0c bc a8 d3 3f 57 0e e4 7c d6 ee da bf
       0.30717374036478307 -0.42082750507708994
000020 5e bf ec 3a 7a c0 c8 3f 92 ec 00 4d d0 f5 c8 3f
       0.1933739459723211 0.19500163803045162
000030 16 a5 2e d3 d1 17 d4 3f 82 8d 01 94 33 be bb 3f
       0.3139538347555385 0.10837099421910604
000040 3f 50 0e 47 9e d4 d7 bf 0a 48 f2 b4 24 e5 db 3f
       -0.3723521894364729 0.4358608023695757
000050 68 54 de 98 e4 36 dc bf 62 48 31 bb 82 2b ce 3f
       -0.4408504002433973 0.23570284023532212
000060 68 4a e5 cc da fd c6 bf 48 76 ef 2b 55 e1 d7 3f
       -0.17962203030272694 0.37312821665350215
000070 57 25 fe 11 fe c3 d0 bf d7 d7 ef 89 d7 73 ca 3f
       -0.2619624305449028 0.20666021571349688

generator.5.weight f8 [10, 16]
000000 c3 fe c3 f4 0e f7 af 3f 44 1f d3 15 7e 69 eb bf
       0.062431781176198985 -0.8566275049460974
000010 b3 2a 1a a7 c9 0c be bf 89 73 14 72 26 0e c2 3f
       -0.1173826249088659 0.1410568291693404
000020 79 d1 36 c2 a5 01 ca 3f 84 39 a0 2d d3 fa c6 bf
       0.20317527754890444 -0.17952956893755012
000030 ef 08 bb 45 d0 02 e5 3f 47 20 8c fd c0 77 bf bf
       0.6565934526372795 -0.12292104902383115
000040 bc 31 ca 2b 3f b8 d0 bf 69 a5 62 ec be b6 d5 bf
       -0.2612455299029326 -0.33927891811852945
000050 c8 b0 7b 77 57 36 d5 3f 84 31 16 81 87 9b c0 bf
       0.3314417521312518 -0.12974637797414001
000060 89 10 8e 54 16 c0 cc 3f fa 83 1a 50 86 51 d9 bf
       0.22461203697833224 -0.3956008703481185
000070 d7 a0 b3 ff ba 4e e1 3f 3b 10 1a 0a 06 9a a4 3f
       0.5408606523679066 0.04023760674775231
000080 99 e2 13 55 7a e3 be 3f 26 ed 9b 58 62 e7 be 3f
       0.12065853669254024 0.12071814215953633
000090 f2 b2 dd e3 bb a1 e1 bf 0b 1b 49 29 94 af 56 3f
       -0.5509929132946054 0.0013846346747798412
0000a0 21 f7 b0 21 0a c3 c3 bf f8 98 eb 1d bc e8 e5 bf
       -0.15438963551599108 -0.6846600136166492
0000b0 00 58 0f ed a6 d4 d3 bf d3 f9 9d fd dd 82 c1 bf
       -0.3098542513884013 -0.13680624850890286
0000c0 7f 58 cc 6a cc cc e3 3f 3b a4 b6 c0 1b 70 d9 3f
       0.6187498174574698 0.39746755428001607
0000d0 55 b9 11 7a eb c1 db 3f 01 d1 86 52 ca a1 d1 3f
       0.43371092720817234 0.2754998975681389
0000e0 4a 3a 3b 66 7a 37 c1 bf 4a 11 40 5b 6f 3b 87 bf
       -0.13450555793538604 -0.011343831989514403
0000f0 7b fe 82 d7 00 ea dc 3f be de 91 94 22 71 e1 bf
       0.45178242727340717 -0.5450604345087056
000100 43 06 ec f0 03 c2 be bf 78 df 9a b1 fb d0 cf bf
       -0.1201479399860768 -0.2485651604854373
000110 b2 bf ed a7 5c b2 d5 3f 9f 8f 82 ea 4f d5 c4 3f
       0.33901134871757244 0.16275977087672985
000120 5e d6 17 57 5b 17 d9 3f 83 fe a9 cf 20 21 df bf
       0.3920505857962321 -0.48639698295298944
000130 6b fa e3 52 c6 45 e3 bf 41 fc f1 ad 5d 02 c5 3f
       -0.6022674197154861 0.16413470261974974
000140 b5 2f 22 72 75 21 cd 3f 15 15 44 a5 8a 41 d7 3f
       0.2275835807125738 0.363375340836073
000150 38 ef e8 46 e8 54 a6 3f 15 64 cc 76 f9 67 d9 bf
       0.043616541534417796 -0.39697109795958
000160 7f 2b c8 b7 94 15 e6 3f 02 87 ef 4c e5 1c ca bf
       0.6901343907824041 -0.20400682694076272
000170 53 af f7 9d 90 c3 a7 bf ca bf ad ad fe ec c0 3f
       -0.04641391685785714 0.1322325084724965
000180 2d cf dc a9 cb 0e e6 3f 65 d3 fe f5 6e 8d cd bf
       0.6893060987117444 -0.23087870608801633
000190 f5 e5 28 e0 11 09 e2 bf ab f8 be 7d a7 ac 91 3f
       -0.563607156574277 0.017260186242986347
0001a0 64 7b e6 ca c1 0d e3 bf db fb 54 c4 49 a1 d8 bf
       -0.5954293215653306 -0.38484424756091834
0001b0 eb 95 2c 19 bc d0 b0 bf 56 7f 0f ec 69 79 d7 bf
       -0.06568503965953425 -0.3667855077055625
0001c0 e7 99 42 c3 36 05 b0 3f aa 63 3c 3e 1a 81 d5 bf
       0.0625795580586793 -0.3360047920010013
0001d0 ca e3 b7 bd 78 f4 c5 bf 9e f2 84 90 65 dc e2 bf
       -0.171523182521723 -0.589403898491202
0001e0 6a db 87 f4 8c b8 c9 3f 24 39 aa 15 af a2 8e bf
       0.2009445375440138 -0.014958732460652664
0001f0 ce f4 c8 6b 6e 77 d5 bf 77 ac 7e 9f c5 60 d3 3f
       -0.3354145100200413 0.3027814920012086
000200 de 7d cf f5 29 ec d3 bf bc a9 08 90 e2 f5 d1 3f
       -0.31128930096562424 0.2806326300220936
000210 7c 9f b5 bf a9 4f ca 3f ff b2 6f 56 ed e1 bd bf
       0.20555612431348524 -0.11672862396489946
000220 4a 47 d3 3d 47 95 e5 bf 83 cc a2 ee 52 c7 df bf
       -0.6744724471593397 -0.49654076866426794
000230 70 d0 6f 78 c0 61 d4 bf 43 57 55 6c 54 be cd 3f
       -0.3184662986889242 0.23237090387072543
000240 7d 2f 4b 90 af b8 ca bf fa 0f 77 93 f3 74 e3 bf
       -0.2087611631926584 -0.6080263023545733
000250 59 bb f6 39 74 01 ca 3f 34 bd ea ed 82 df d4 bf
       0.20316937284720885 -0.32614205583645917
000260 ff da 08 3f cf 32 a0 3f 7b 02 cc 41 55 61 cf bf
       0.03163764614548902 -0.24515786850681195
000270 da 97 9a 20 0a 6a e0 3f f1 12 73 fa 8a b1 c7 bf
       0.5129442822260402 -0.1851056788347232
000280 ed a4 99 1e 10 d1 af 3f 9b 00 4b a3 c0 21 e0 bf
       0.06214189885651842 -0.5041201772037484
000290 41 5e 6a 0a 3a 07 b6 3f fa 05 9c e9 16 96 d3 3f
       0.0860477710178822 0.30603573621200975
0002a0 80 13 1f 04 63 19 ea bf 02 47 99 65 89 56 c5 3f
       -0.8155989723678516 0.1667033907020184
0002b0 03 50 60 56 40 74 be bf a1 5b df 2e 4d 75 b9 bf
       -0.11896135433954673 -0.09944612879131266
0002c0 66 2f 22 62 4b 99 d7 3f 00 51 db 4e cc 92 a0 3f
       0.3687313516936598 0.03236998045545825
0002d0 72 9b 16 e8 69 cb c3 bf f4 b9 0b be 89 1f e0 3f
       -0.15464519340931876 0.5038498603660728
0002e0 92 f0 f3 f5 e7 df ba 3f 0f 18 11 88 5e 31 e5 bf
       0.1049790358992502 -0.6622765214494865
0002f0 54 45 62 56 b1 17 cd bf fc 8c e8 8c 9c 04 bf bf
       -0.22728554456674976 -0.12116411628862872
000300 33 b2 97 bd 17 6d d3 bf 3a ef 3a 0e 45 42 d7 3f
       -0.3035334922304031 0.36341978444737644
000310 72 27 88 14 4b 66 db bf 93 11 1a fe bd f0 e3 3f
       -0.4281184864527098 0.6231374705244427
000320 34 0d 2f 10 92 e5 c3 3f 74 cc 68 63 df b0 a4 bf
       0.15544343748306633 -0.04041193092816622
000330 e7 bb 04 9b 42 15 c9 3f 4e 76 09 a0 3a c7 d5 bf
       0.19596130913984597 -0.34028497341737285
000340 6f 33 95 f7 9f 70 cf 3f 67 d4 a0 1d 0c f0 e0 bf
       0.24562453831677142 -0.5293026522327978
000350 f0 5d 56 b0 d1 b7 a6 bf 5c fc 8d 2c c1 06 ba bf
       -0.04437117841296956 -0.10166556680450028
000360 65 70 af 39 e0 0b e0 3f f3 23 cc f2 59 f8 c9 bf
       0.501449692408198 -0.20289158206313082
000370 12 5d 5e c2 6a cd c5 bf 67 37 89 bf 6e e5 de bf
       -0.17033133021025343 -0.48275345520675333
000380 3d 11 4f 70 a7 dc b2 bf 6c f0 a3 24 60 2e dd bf
       -0.0736794137183709 -0.4559555394951136
000390 a3 48 8f 5e d9 43 c1 bf 75 52 bd 19 93 4f c3 bf
       -0.13488309018300013 -0.15086592442334604
0003a0 96 42 cf cd b1 73 bc 3f e5 05 e4 97 b6 4a ce 3f
       0.11114035868309666 0.2366550676015741
0003b0 f2 12 96 56 0b d0 e5 bf 02 3d 46 47 fc 2d d1 bf
       -0.6816460314881552 -0.2684317298926119
0003c0 bb b8 8b 7e a0 32 b6 3f 40 21 9a 96 99 fe bd bf
       0.08671000566002622 -0.1171661369973025
0003d0 f5 9d 51 56 2c 4b e1 3f 58 3a f7 16 f5 f4 df bf
       0.5404264150537857 -0.4993260120653864
0003e0 63 04 8f 56 72 3f d8 bf 30 89 d3 a5 51 20 d1 bf
       -0.3788724751758023 -0.2675975913426951
0003f0 3c 4b a8 f6 4a 9b bd bf 45 2d 33 3d d8 a9 de bf
       -0.11565083047780161 -0.4791164968161932
000400 7e 4a 9a a8 af 71 de 3f 87 d6 c6 02 16 a3 d6 bf
       0.47568885293109264 -0.3537039782635038
000410 d4 8d 94 a1 a9 18 a2 3f 87 d8 2b 8d e1 12 89 3f
       0.03534441087165488 0.012243044014649719
000420 db cc 25 c9 22 88 ce 3f 8a 7a b0 9b 29 94 c2 3f
       0.23852953740752167 0.14514656164188394
000430 9d 64 42 52 2e ff d4 bf 2f a1 57 65 6a 77 e9 3f
       -0.3280750087083762 0.795827100691019
000440 5b 41 e3 a9 c0 0f de 3f 20 ee 1a 0f 8e e3 e1 bf
       0.46971146193120256 -0.5590276999495849
000450 71 a5 f0 a1 e8 25 ca bf 2e 83 05 46 1a 6c a2 bf
       -0.20428188235500103 -0.03598100762133637
000460 f0 a4 fc 3c bc aa c4 3f b4 83 46 5c 75 dd d1 3f
       0.16146042802692007 0.2791417504432119
000470 03 89 ad d8 83 4b d9 3f 89 0a 33 45 4c 42 cc bf
       0.3952340713496058 -0.220773252285728
000480 ed e6 24 6a 01 01 da 3f 66 96 6a ba 4c 97 d2 3f
       0.4063113724292709 0.29048460201952364
000490 b7 37 8f b9 36 68 dd bf d7 ed cf ef a2 d8 e0 3f
       -0.4594857036689705 0.5264448818047026
0004a0 66 17 76 2f f3 31 b9 3f 15 0b 0c c4 2b ff b7 3f
       0.09841842564318667 0.0937373498564223
0004b0 61 08 49 92 1b 14 b6 bf 5a 14 a0 1b 8f f3 dd 3f
       -0.08624431916635579 0.46799066255363686
0004c0 b7 be e5 18 d4 19 bc 3f bb 40 3e 1a 3d b2 a7 3f
       0.10976911170814217 0.04628172822333584
0004d0 65 1d 87 54 45 60 e4 3f de 36 3b a4 99 ef b6 3f
       0.6367518092091983 0.08959350833466881
0004e0 75 d8 74 dc a3 f7 b5 bf b7 42 b8 da 6a 14 e2 bf
       -0.08580993778454789 -0.5649923583860844
0004f0 ed 32 4b 0a 80 30 d1 3f 1a 7a e3 f3 fc ab e2 3f
       0.26858521466492286 0.5834946406792512

generator.5.bias f8 [10]
000000 a0 f4 57 07 df c6 d2 bf cc 1f 8a 52 61 f3 9e bf
       -0.29338813511987816 -0.03022529665261668
000010 44 0b 88 0a 17 07 bc bf 85 13 e4 28 f1 d1 c0 bf
       -0.10948318488230507 -0.1314069223082265
000020 27 ca 47 cc ee 1a cd bf 31 31 e3 e0 c2 82 ba bf
       -0.22738442396765032 -0.10355775823990566
000030 df ac 07 48 e1 54 bd bf 4e be fb ac 0e 1e b3 3f
       -0.11457641609711143 0.07467738841273183
000040 52 65 9c 07 9b 2d 98 bf bd 3c ab 32 7a fe ad bf
       -0.02361147149995208 -0.05858213299290458

discriminator.1.weight f8 [16, 10]
000000 58 1a 53 78 12 b0 25 bf ba 76 ce 5c 8c 71 4d 3f
       -0.00016546464408957978 0.0008985457767384999
000010 88 fc 91 f8 97 15 40 3f 2d 15 46 93 dd 79 41 bf
       0.0004908554120816181 -0.0005333263311945495
000020 c5 2a fb 5f 98 e7 40 bf aa 12 1d 94 2c 16 23 bf
       -0.0005158895509905439 -0.00014561933681469147
000030 94 7d 2b d8 a5 06 52 3f ae 20 19 2d 14 f3 13 3f
       0.001100217778620881 7.610140462433149e-05
000040 10 fc 9a 73 c0 fc 3f bf 06 8d e2 c5 ba 78 4d bf
       -0.00048808764004698666 -0.0008994018533211863
000050 58 ef e0 c1 02 34 63 3f f8 2b b2 89 74 e7 68 3f
       0.002344136605669716 0.0030400539522523716
000060 16 49 83 4d 5b 0a 61 3f 57 ab 0b 95 c5 54 39 bf
       0.0020801337487707057 -0.00038652251991660086
000070 16 8d 27 c7 02 6c 50 bf 9e 3e ba aa 65 da 56 3f
       -0.0010023142937079558 0.001394843372427269
000080 bf c8 26 8c ba 2b 6c 3f cd 49 c8 7e 62 8d 22 3f
       0.0034388202195368696 0.00014154269537465375
000090 ad 1e 3f 67 f7 9f 1a bf c7 6f 8b f1 09 9a 47 bf
       -0.00010156581430386764 -0.0007202671577846092
0000a0 19 38 32 68 21 23 52 bf da 18 ea b3 74 4a 3c bf
       -0.0011070085754769697 -0.00043168400944927426
0000b0 7a f3 7a b8 fd 1f 50 bf f2 a8 80 ba 87 3b 44 bf
       -0.0009841897716988666 -0.0006174481141034956
0000c0 fd 86 a4 54 2e c8 4b bf 1c 8b a4 5b 73 fb 21 3f
       -0.0008478380416685191 0.00013719351938686834
0000d0 8e 39 0b cb 2f 84 31 bf 45 17 aa 48 9d ed 44 bf
       -0.00026727835488040634 -0.000638677405121448
0000e0 59 2d 16 84 dd 24 12 bf c0 52 3e d1 c3 2f 4f 3f
       -6.921388651031281e-05 0.0009517389430465303
0000f0 b6 ce e6 db 3b 00 71 3f 90 94 0b 8d da 2e 4a 3f
       0.00415061361711693 0.0007990424292897581
000100 81 e9 1c 52 4d cb 6f 3f 38 ab 39 17 1f 9e 19 3f
       0.0038811216517419815 9.772362482755599e-05
000110 ae cd 6f 84 f4 27 11 bf 84 a9 ea 3a 08 63 5c 3f
       -6.54452315840745e-05 0.0017325954792491724
000120 27 3b 52 c2 78 ba 58 3f bf ce a8 83 d7 f1 2d bf
       0.0015093020713583068 -0.00022845989026764287
000130 35 81 d0 0b 59 36 51 bf bf c9 23 35 f0 fd 3e bf
       -0.0010505551902114222 -0.0004728995746880147
000140 e3 20 a0 91 97 64 66 3f cd a3 bf cd 56 dc 61 3f
       0.002733512909802825 0.0021802611718055643
000150 ea 38 7a 7f ff 17 6f 3f 95 9d 18 ea 51 8c 63 3f
       0.00379562284417211 0.002386245717179223
000160 be f7 47 a5 22 4f 68 3f c1 80 3e c7 87 71 57 3f
       0.0029674221680115733 0.0014308763465820525
000170 0b df 89 65 b9 28 64 3f 5d 5e 42 3d 09 c4 59 3f
       0.0024608250644709887 0.0015726175525169396
000180 d5 b4 90 8d 71 05 62 3f 55 f6 12 f3 b3 3e 52 3f
       0.002199861319715705 0.0011135823554434727
000190 0b 69 d2 dc 33 5b 53 bf e6 70 64 aa f7 18 5c bf
       -0.0011814123602449957 -0.0017149370774581173
0001a0 44 09 06 ba 4d e2 63 bf 9c ab a7 17 20 38 4a bf
       -0.0024272459124300722 -0.0008001476956541634
0001b0 3c f9 e0 f6 4c c3 5a bf c2 99 6f 1c 67 6f 4f bf
       -0.0016334773640803288 -0.0009593251678524028
0001c0 8f 74 d4 26 21 38 69 bf 91 59 0e c9 f2 5b 35 bf
       -0.003078522443174032 -0.0003259151208622408
0001d0 0f 65 59 a5 e3 cf 59 bf 14 c7 dd 46 65 95 42 3f
       -0.0015754435638853403 0.0005671257510881677
0001e0 cb cd a8 19 54 b4 62 3f 81 de 12 52 0a 5c 60 3f
       0.002283252962365733 0.001997013242170998
0001f0 52 a0 6a 24 c0 61 5a 3f d4 59 9a bc e1 86 53 3f
       0.001610219611089665 0.0011918262920623717
000200 28 5c 06 03 87 47 4a 3f 01 c5 20 dd ac 33 f8 3e
       0.0008019837605840506 2.3080688898062706e-05
000210 0c dc 1f 5e 57 39 58 3f 0f 0e d7 c0 df 64 56 3f
       0.00147851497649554 0.0013668236818923406
000220 86 fe e3 15 9e 91 43 3f 0b fe 86 33 6c 1f 4d bf
       0.0005971929456620318 -0.0008887556387477414
000230 1e f5 e1 3d cc e0 73 bf 4e d1 01 37 ef 03 63 bf
       -0.004853055781606911 -0.0023212120213946036
000240 38 b7 65 a6 c7 85 73 bf 82 71 3e aa e7 e9 5f bf
       -0.004766254313251221 -0.0019478571275391714
000250 e0 44 1d fe b9 84 68 bf 2e 90 fa df b1 7f 6e bf
       -0.0029929764431605305 -0.0037229990119431932
000260 ab b8 08 2f fe 2f 70 bf 4c 5e f4 10 bc e6 56 bf
       -0.003952019601042671 -0.001397784861017731
000270 24 08 d1 c7 d7 b5 61 bf be 0a 08 69 04 03 65 bf
       -0.0021619047606984566 -0.002564915288759322
000280 3c e2 31 1d a5 d9 65 bf cd 7c e1 c9 03 6e 35 bf
       -0.002667257774700253 -0.0003269919633392515
000290 7e 60 11 30 5e 3a 55 bf 21 63 01 3a 37 91 63 bf
       -0.0012956542780298281 -0.0023885801929676297
0002a0 50 75 48 a1 a5 28 66 bf 3e cf c3 af 10 e9 3b bf
       -0.0027049288712663114 -0.0004258790720676925
0002b0 26 9a 06 00 81 98 46 bf fe 7b e0 2c e8 3b 59 bf
       -0.0006895666011146925 -0.001540161832515485
0002c0 d9 ef 60 ab a6 1d 5b bf 24 53 6a 2a b4 b8 3c bf
       -0.0016550185805632638 -0.0004382552964810485
0002d0 e4 44 25 9f 33 36 6e 3f aa 5b 2b 82 cd 7f 6b 3f
       0.003687954734382092 0.0033568395459541893
0002e0 aa 5e 0b 5e 3b f9 58 3f 9a d0 94 e7 b7 a7 6c 3f
       0.0015242652663597736 0.0034979431044580124
0002f0 c8 0f 2b 01 f5 54 66 3f b0 ec 75 51 73 64 2f 3f
       0.0027260575528504673 0.00023950488751354115
000300 63 7c 8e ca af e1 52 3f e3 23 ad 93 ed 37 71 3f
       0.0011524407111449745 0.004203727755176498
000310 39 ed 53 75 ff 19 5f 3f b5 22 f4 30 98 56 46 bf
       0.0018982882223202559 -0.0006817095872132169
000320 06 15 2f ea 94 7a 5f bf 19 b3 80 c3 51 5e 17 bf
       -0.0019213155980975518 -8.914350553430559e-05
000330 ae e5 34 57 5b 41 55 3f 6e 72 3f c8 d1 02 56 3f
       0.001297320556501762 0.0013434456495736951
000340 87 a7 ad 7d f4 2b 67 3f 3a 7b d7 b9 bf a6 47 3f
       0.0028285765851494035 0.0007217823182904322
000350 e8 9e ae c8 08 1e 61 3f 62 c9 2f 1a 51 8e 3c 3f
       0.00208951678856183 0.00043572883640687597
000360 6d aa 67 36 29 70 62 3f ac 48 cf de c8 e5 15 3f
       0.0022507481510179368 8.353270068475982e-05
000370 a4 2a f7 49 80 7d 50 bf a3 6c 8f 2f df 8c 51 bf
       -0.0010064843007621472 -0.0010711841152815447
000380 a8 3a 7e a7 93 97 64 bf 99 60 86 22 b6 ec 3f bf
       -0.002513683688398178 -0.00048713156368186125
000390 6c 91 17 4c 61 a8 23 3f 0f 9d be 68 a1 23 5e bf
       0.00014997661314376397 -0.0018395496617616446
0003a0 cd d9 d8 8a 9e 80 5e bf e5 82 79 3e 2b 2b 4e 3f
       -0.0018617199197144996 0.0009206734802767706
0003b0 29 15 d9 96 70 ad 4e bf dc d6 a8 21 6a 14 56 bf
       -0.0009362029792973392 -0.0013476406517275918
0003c0 a2 ed 17 85 ac 6a 96 bf 40 a7 e0 cf a9 b6 97 bf
       -0.021891303656941148 -0.02315774279865157
0003d0 ee d9 0c 8d 27 9d 9f bf 68 54 a0 6e b5 c7 90 bf
       -0.03087293432619192 -0.016386828305332918
0003e0 ee 52 af ef 61 74 95 bf 7d 3e 24 81 2c 80 98 bf
       -0.02095177674694331 -0.02392644441812174
0003f0 b7 86 56 36 28 5b a0 bf 76 62 41 0b 84 19 8e bf
       -0.03194547332101421 -0.014697105020034611
000400 ad 61 9a ee d9 70 99 bf 1b fb 57 d8 bd b8 97 bf
       -0.024844556034254662 -0.02316567070919993
000410 bf 3b 3a 5f 00 cf 64 3f 74 29 e0 56 ff 0c 41 3f
       0.0025401122346191125 0.0005203482412537278
000420 bb 18 ee c6 24 0f 48 bf 4c 90 cb eb be 54 38 bf
       -0.0007342271400012848 -0.00037126217993788536
000430 be 09 c1 4c 18 6e 5f bf be 33 f5 72 a2 68 4d bf
       -0.0019183385184225877 -0.0008974831779738829
000440 ba a2 c8 48 e9 c4 63 bf 98 8d 3e a5 31 2d 39 bf
       -0.0024132305463989397 -0.00038416349456779067
000450 b3 00 15 c0 48 a4 6b bf 99 26 6a b5 24 61 4e bf
       -0.0033742352394768526 -0.0009271077386340975
000460 85 64 2b 0b bc 62 a2 3f 7f e4 00 d2 37 f4 9a 3f
       0.03590953480097262 0.0263222429204899
000470 a7 ed d6 1e 06 36 9d 3f 8f 96 35 23 6e 21 9e 3f
       0.028526397354409785 0.029424401186949608
000480 60 11 03 55 48 8c a1 3f 97 ab 92 c1 6e 8a 98 3f
       0.034273395898284376 0.02396557861781509
000490 d1 77 75 d9 dd 90 9b 3f 33 eb 3e bb b1 32 9e 3f
       0.026919809720645397 0.02949025826795122
0004a0 37 85 6c ce 4b 38 a0 3f f8 fb 44 ea 09 ae 98 3f
       0.031679505298834724 0.02410140507094735
0004b0 e9 ba 93 dd 61 28 70 3f 23 31 dc b0 47 ed 69 3f
       0.003944761550185951 0.0031649017536265075
0004c0 e1 84 ec 1c c9 b4 75 3f 73 35 57 6c e8 25 54 3f
       0.005299363706201294 0.0012297410734050912
0004d0 e6 16 29 10 91 9f 55 3f 19 7a 5e dc dc 6c 73 3f
       0.0013197819358920448 0.004742491471829279
0004e0 af 0d 71 94 72 b0 70 3f 38 f9 e6 74 b6 ae 4a 3f
       0.004074523522891323 0.0008142844106300623
0004f0 1a 8c 65 a5 07 51 57 3f a1 2e 8f 51 90 46 64 3f
       0.0014231276196248256 0.002475053665397756

discriminator.1.bias f8 [16]
000000 f2 01 65 1b 66 1b 83 3f 25 71 37 73 0e 39 80 bf
       0.00932960291959348 -0.007921326533442194
000010 c2 fb 39 62 0c 15 63 bf 78 97 c8 31 0b 39 8d bf
       -0.0023293725842558908 -0.014268958527349204
000020 4f f8 93 e9 c8 81 8c bf 17 24 a2 72 13 00 98 bf
       -0.01391941988776693 -0.023437789794602617
000030 a5 8b c0 30 1f 13 a7 3f 34 45 a1 97 d3 29 b2 3f
       0.045067763043582766 0.0709507222357118
000040 e4 1a 6f 44 f7 17 a4 3f 3d b6 4b d9 03 08 a1 3f
       0.03924534521461512 0.03326427485977177
000050 ab 5c 27 48 13 2b a0 3f 9c 6b 87 14 c3 fd ad 3f
       0.031578638608772046 0.05857667565916033
000060 e5 8c 92 69 af b4 9d bf 46 91 3e 2b 00 53 a3 3f
       -0.029009571856147515 0.03774261978040498
000070 97 21 93 ff df 93 a9 bf e9 a3 e0 bd 99 61 9a 3f
       -0.0499563216668008 0.02576294156475348
