checkpoints/GDN_5G/model.ckpt (torch, 32125 bytes, 42 tensors)

feature_gat.attn_l f8 [1, 2, 1]
00000000: 3b50 0759 334f ba3f f022 d7a2 fe41 a23f
0.10277100490139983 0.0356597493915326

feature_gat.attn_r f8 [1, 2, 1]
00000000: ba50 2752 ccfb f53f 82c9 0955 b10f ea3f
1.3739741524814648 0.8144156132605505

feature_gat.bias f8 [2]
00000000: a36f a8ed 328e d4bf 0c36 bf17 b0ff cdbf
-0.32117913445267215 -0.23436547431485655

feature_gat.fc.weight f8 [2, 1]
00000000: 9130 1fda 1849 e73f feed 3f0a c649 f73f
0.7276729831878744 1.4555111313228504

attention.0.weight f8 [16, 10]
00000000: 4855 f819 9794 a0bf ef08 a409 4228 c5bf
00000010: 1929 0de6 cdf9 cbbf bc8a d1b2 e0dc bd3f
00000020: 5ca5 ac54 0d07 cf3f 5167 e3fc 9169 b1bf
00000030: 86ae fb40 fedf 8c3f e0fc d1a1 9f4c cebf
00000040: 7d6c 652d 48f8 b23f f040 5fc3 d1f4 cabf
00000050: b569 6b26 3655 c4bf 4b59 fe1f cd62 b83f
00000060: 687f edb8 004a d13f b463 aa76 5128 d63f
00000070: 1a1e ccee 357d d7bf 9410 a9bc 0480 d03f
00000080: ddfc 9381 3229 b2bf 0f79 6529 6c35 d23f
00000090: d7ef 9b33 13b8 cb3f b2ae 089e 1e20 b93f
000000a0: f738 2de5 871c dbbf 6efe 3ca5 99fa b7bf
000000b0: 82e1 8e0a 325c ce3f 7583 5e2a e477 aa3f
000000c0: 9f79 c968 51f5 9fbf f306 9fd3 f287 95bf
000000d0: 247e 8000 07ac d53f ca2b 4de4 7105 d1bf
000000e0: 7525 86bd f0ec cf3f fbe6 d098 4f00 d23f
000000f0: 13c6 7a22 0752 d8bf a9d7 1aaf ef67 a23f
00000100: 8dd7 fe96 733a d7bf 2083 0988 f486 ce3f
00000110: 2e7b 9a39 c6d6 cfbf 6f0a 9519 4276 a63f
00000120: fde5 593d 0a10 dcbf 8b3d c808 9b0b bcbf
00000130: 0853 a181 f225 bd3f 9d35 bfb8 0a0f b13f
00000140: ed9b e30e 38c8 dc3f d188 1089 02a1 b93f
00000150: 596c 4963 70a8 c3bf 2cc2 875b d7e8 ddbf
00000160: 0eec 50fe cda1 c13f c692 8f94 5461 96bf
00000170: 9bf2 15b6 ce1f d3bf a3c9 05e8 7f14 c53f
00000180: 04c1 8b00 dcb4 d43f 40a7 c298 a160 c93f
00000190: 2e03 654c fd30 d5bf 2054 2393 d073 bbbf
000001a0: a1a5 b63c 2249 ca3f 5445 a9c2 556a d03f
000001b0: 6c2c ec73 4d60 d7bf 8782 34e2 4fd1 d3bf
000001c0: 9220 bd24 4fef b3bf 2f42 bea8 387f 72bf
000001d0: 8384 9ca4 6b09 c3bf b631 2e31 5ecc c33f
000001e0: 509b cdb5 8aa8 c43f 9976 8f46 fb16 bf3f
000001f0: 517f 609b de0f cf3f 4324 dbd9 b8cd b3bf
00000200: c283 cced 8c45 cabf da00 8fb6 8d31 b13f
00000210: 4e27 c42b 54d7 ccbf d318 075f e13d d6bf
00000220: 0c06 7851 cdf5 c9bf 9ae2 0f7f 2ff1 c1bf
00000230: 2bd2 640a 7dc7 c13f d3a6 303f 494b cdbf
00000240: fb61 f0c6 1166 e0bf 8b5f 7325 d660 db3f
00000250: c342 1654 f054 c5bf 8e08 6714 efd7 d03f
00000260: d723 9d4b 3461 cb3f f73e 575e 6543 c5bf
00000270: 785e 022a 3abe b73f 4547 0bad 8717 ca3f
00000280: c5b4 d54f cb8b bcbf 8e83 c56e 278a b5bf
00000290: 8ed1 6e2c a9f4 cbbf 3b83 b660 1e66 bdbf
000002a0: bbc5 a26b 1496 97bf 6fc6 22d3 8732 a7bf
000002b0: e438 d7f8 314e e33f 88ca 3e95 ca4b c3bf
000002c0: 09a1 4b3d bf3d d53f 5d12 38e5 8f2d 93bf
000002d0: ecd5 a281 d845 d1bf 7a2b d78e 661f cfbf
000002e0: 3473 7967 f57b e23f bee7 05e0 9542 c5bf
000002f0: 835e 9bf1 2a43 c83f 5b9c 9913 15be ca3f
00000300: 0363 7467 672f bcbf dcd8 1909 a026 b33f
00000310: 5f5d a153 e81a d03f 34a0 24b5 3126 ccbf
00000320: bfbd 5b2b 6422 97bf 5392 7a11 26c5 a73f
00000330: 0448 27af f555 ca3f 3247 6162 87ea ca3f
00000340: c553 f081 d9cd d0bf ec94 1120 2ab0 c6bf
00000350: 0cec cd32 4865 d6bf 3c24 4bb0 bf1d c33f
00000360: ff1c 92d5 0a6c d73f bb8d f181 5d54 d0bf
00000370: 1fde 7589 ade9 af3f 524b e995 cb26 d2bf
00000380: dad7 323b 9b3c d7bf 9dc5 299c 5c4d cc3f
00000390: 875f 2ea7 9152 ba3f 1c87 6c7c cd96 d83f
000003a0: 2e62 1295 0cbe c6bf ecfd 3ed2 bce7 903f
000003b0: f0bc 6995 0324 cb3f c64f 1890 6968 d03f
000003c0: 77cc d2b7 aa64 d03f d60a 91d9 f68f ce3f
000003d0: c99d ad23 c726 d13f 0f29 57f0 d052 abbf
000003e0: 2e47 e518 c3c6 c2bf 4157 1113 753e dbbf
000003f0: 425f 9a06 08eb cbbf c898 6586 a16c b33f
00000400: ab0f 2a9c 0ab4 d6bf 1c11 0649 dc80 b03f
00000410: acc8 15ad d04e c13f 89f1 0c94 9891 c3bf
00000420: 24fd dd4d 17ad c6bf 6a6b b284 2276 b8bf
00000430: d79d a5f9 e34c cc3f 6bff 1814 48e6 c73f
00000440: 14e3 523e e2b8 973f 5a7a d5f1 62ab d63f
00000450: bbe5 8ed5 d5c4 c83f eb67 c89b ff9c c4bf
00000460: fe54 5513 0480 dabf ccd5 fb6c 26f7 d3bf
00000470: 3eb6 85f9 f2aa d6bf d6a7 8413 1468 ae3f
00000480: 376a 00cd 46ae c03f beae fd84 e6ac c3bf
00000490: 15d6 de87 f5ba d5bf 4381 aab0 03aa d23f
000004a0: 37f0 e071 814b c13f aa17 793a e815 d73f
000004b0: a98f 072f b9ea c7bf a95c 637d e175 85bf
000004c0: c810 130a df99 d8bf 88a2 f0bf 1ef6 b4bf
000004d0: daba aa49 9560 d3bf 9b43 d896 2d76 b2bf
000004e0: 036c dcc3 3a8b 9bbf 1801 dd06 054b cc3f
000004f0: 4a60 d87e e525 d13f 6a23 451f f216 783f
-0.03238365356461742 -0.16529107542743968 -0.21856092198351787 0.11665157666861153 0.24240271219722842 -0.06801712440519948 0.014099108083846856 -0.2367133655679714
0.07410098179154719 -0.21059629478123254 -0.15885044933277262 0.0952575877293828 0.27014177378986526 0.3462108286708443 -0.3670172531132906 0.25781362937801444
-0.07094112075354837 0.28451065104117473 0.21655502338387464 0.09814635618448156 -0.42361638432056686 -0.09366760524880544 0.23718858256848924 0.05169594781114643
-0.03120925142354169 -0.021026415029843325 0.33862471627250756 -0.26595732970298214 0.24941834692098622 0.2812689773887624 -0.38000658385416947 0.03594922077665725
-0.36294259782459265 0.23849350588263807 -0.24874189198177404 0.04387098848612402 -0.4384790038235165 -0.10955208744439042 0.11386027970122481 0.06663577089712765
0.44972039655698276 0.10011306616118822 -0.1535778507994532 -0.4673365014887476 0.1377503864076463 -0.02185566097968452 -0.2988163736515987 0.16468809918621927
0.3235387807208243 0.19826145133020567 -0.3311150785485094 -0.10723594276653658 0.2053568645908799 0.25649017343410674 -0.3652528411918812 -0.3096503933939307
-0.07787031790678814 -0.004515858959977011 -0.14872499025026195 0.15467431451214758 0.1613934886656474 0.12144442055383776 0.24267180048718243 -0.07735781973600901
-0.20524751292489724 0.06716237742421374 -0.22532131325743382 -0.34752687721301107 -0.20281378248186888 -0.14017289833261232 0.138900404048074 -0.22886005006267016
-0.5124596486594436 0.4277854314545883 -0.16665462594803246 0.26317955963544015 0.21390393917161418 -0.1661192618034801 0.09274638677231362 0.20384307813088234
-0.11150809001056235 -0.08413931326277987 -0.21840395612310853 -0.11483945714145431 -0.0230334463782975 -0.04530739261953164 0.6032953128976968 -0.15075046813361248
0.3318937395656723 -0.01872849308530743 -0.26988804492734064 -0.24314577078470362 0.5776316662773753 -0.166094526659263 0.18954979703152128 0.20892585236581138
-0.11009832645175881 0.07480812284652266 0.2516423050596667 -0.21991559357525292 -0.022592129846939587 0.046426000245706554 0.2057482819787425 0.21028225234709336
-0.2625640648778325 -0.1772511154733033 -0.3499317642342141 0.14934536083299743 0.3659693799640564 -0.2551492470722356 0.06232969573005342 -0.28361787452484066
-0.363074119387759 0.22111089348940718 0.10282240230151106 0.3842042651250368 -0.17767483977219584 0.016509008724595306 0.21203656001623683 0.25637282439970155
0.2561442179823596 0.2387684404694343 0.2679918144626439 -0.05336621221393233 -0.14669073787313763 -0.4256870924194694 -0.21811008760846035 0.07587632685826684
-0.3547388577501304 0.06446625502400533 0.1352177472250039 -0.15288073758155132 -0.17715731908899912 -0.095552594563214 0.22109651269714334 0.186715135396294
0.023166213087026113 0.35421060196487064 0.19350693633695734 -0.16104121309837124 -0.41406347167988133 -0.31195984499876483 -0.35418390624440466 0.059387805349913655
0.13031849870533715 -0.15371400350283254 -0.33953607815360104 0.29162685635130375 0.13511674938661297 0.3607121058488426 -0.1868506888996511 -0.010478746069948324
-0.38439155563197547 -0.08188049493822736 -0.3027699679759458 -0.07211575443967748 -0.02689830608788314 0.2210394176017949 0.26793801676968043 0.005881257810252597

attention.0.bias f8 [16]
00000000: 7bba c1c9 b298 da3f b1ee a9ff 15cc d43f
00000010: 3d69 798d 2a05 d03f f2a8 96c4 83c9 74bf
00000020: 5736 e876 6382 d1bf daec d901 ec25 bf3f
00000030: 5074 7fb1 659f c8bf 3f2d d89e 0667 b83f
00000040: ae7f 8259 a3ca c5bf d6c2 69e6 50a7 c6bf
00000050: b097 af07 e685 c9bf 33aa 4346 5c5a d83f
00000060: 49c0 e952 779d dabf 0b9c 9a82 c275 cbbf
00000070: a23e 3bd5 0f17 923f a03f 1f5f 3eac c1bf
0.41556997015769753 0.3249564167706281 0.25031532111974625 -0.005074991911366166 -0.27358328449267816 0.12167239232251195 -0.1923644177140056 0.09532204988515945
-0.1702465235766772 -0.17698107958451342 -0.19939875960625164 0.3805151640105208 -0.4158609685609958 -0.21453124405999832 0.017666098966229733 -0.1380689587081152

attention.2.weight f8 [16, 16]
00000000: bebe dc0b 672c ca3f 1e23 d9c1 64c4 c8bf
00000010: 465c b6c3 7b84 b2bf 5789 ae48 6852 aabf
00000020: 82d9 9cd0 d953 be3f e4e2 0c91 7f4d cebf
00000030: c44c 90e4 5878 3dbf 8e85 5e30 6099 d13f
00000040: 5deb 4ec2 7693 d53f ef02 ea36 0381 ddbf
00000050: bd20 b398 29b9 b2bf fe91 40cc f5bd c2bf
00000060: 9222 ed88 8cdc c43f 0799 e51c 3ef2 d0bf
00000070: c5a2 f259 7842 b43f 2941 9aa8 5eca b1bf
00000080: 2fdc dda0 d215 98bf bb56 803c bd12 763f
00000090: 0a7a 301c 232d b43f 8f41 cc6d 3c75 d03f
000000a0: fe3c 16f6 e4a4 c3bf 5a73 89d2 0ef4 ae3f
000000b0: ebf2 dcb1 305b d4bf 9106 6a2d 1c17 e13f
000000c0: f197 83ae 80a2 db3f 9472 b4aa 57c6 903f
000000d0: acae 38f1 6a26 c93f 1304 b099 dbd3 bbbf
000000e0: c5d6 82b5 bb08 cabf 54f3 ae23 48ab d23f
000000f0: 6f95 f63c dde8 743f 9de8 5408 f57d d63f
00000100: 5e00 6e71 d919 ccbf bc1a ed2c 6a26 ccbf
00000110: a715 3435 0580 c03f f968 a217 6a56 d3bf
00000120: 3bcc 9fd2 84ea b2bf 401d 0eeb b517 b1bf
00000130: bec0 aece 7933 cc3f 0986 7341 3f9e be3f
00000140: 46be a876 4f21 b53f 4b15 a218 5310 bebf
00000150: 1c14 2dae d0e0 c83f e20c 06d8 0761 c1bf
00000160: bbdb 8032 b644 bfbf df5c 346e 7528 bf3f
00000170: 9b8b d9a0 a355 dcbf 7efc 9598 21a8 c33f
00000180: b54a 63f6 d34a d03f 99e6 bc76 bdd2 c4bf
00000190: 4cbf 7ab0 f40f cebf 4ec9 2577 8ecf b3bf
000001a0: 4e0a 85ed ea31 8abf 8be2 594e a8ce 9bbf
000001b0: 92bb 1aa3 9f02 ccbf 0624 8bf3 4999 a33f
000001c0: a095 ccd1 ecdf d1bf 33c7 223e 1e6f c0bf
000001d0: 0acf 6088 65f2 b0bf 72e1 188b fc55 ca3f
000001e0: b101 727c c5fa c93f 6a08 9758 e58e c23f
000001f0: 06d1 0ce1 9e50 c43f 41e4 ea11 1548 c23f
00000200: b605 5a00 0b2b 78bf da89 4d51 7044 a43f
00000210: dbc8 c9ab 14b4 c73f 34bb ba51 75b8 ca3f
00000220: 7d55 c95f 2b3e b33f 4089 6a8c 3d04 d53f
00000230: 7d21 4e5d a3b8 c53f e81b 3a16 da80 cd3f
00000240: ec8a 50dc 9c9b d5bf 69e0 0f5d 5819 cd3f
00000250: ce34 5c22 de3f c13f 59f7 b0f8 5533 b4bf
00000260: bfb7 ed61 9d37 c33f 539c 0915 ef9c d4bf
00000270: 3483 1fa9 78df d53f fac8 502d 210b c4bf
00000280: 3ebd 81ea bed0 933f 4af6 eeb2 9f72 a03f
00000290: e638 71b5 c133 aa3f bc71 1ed4 2d96 c23f
000002a0: 0290 4522 2800 c2bf 57c0 b377 8e6c bfbf
000002b0: 547f b046 1ad8 b5bf ef48 ac8b 6e18 c0bf
000002c0: 321a ad61 ed35 aabf 4421 39a4 bfaa bd3f
000002d0: 35fe 3c0b 07b8 c2bf 1394 acdb 37b3 873f
000002e0: fd37 7729 15ef cd3f 8f0a 61c9 17ac b0bf
000002f0: bcc4 3f62 aac7 d5bf 4928 241a 7d26 cbbf
00000300: fb17 022e cc32 d1bf 332c f755 381a c13f
00000310: f66f 78b0 e033 bfbf 23d6 b0df 6105 aebf
00000320: 7488 4ac5 efc6 b33f 1a58 946c a299 b3bf
00000330: 0539 c094 3b19 d23f 1251 dec8 72c2 c2bf
00000340: 0dc3 7127 c20d bdbf e93a 5517 f9e3 91bf
00000350: 91e4 d962 a62a b9bf 4153 dcdf d331 bfbf
00000360: 53a2 16a4 22d6 623f 0049 5f12 3d24 cdbf
00000370: fb69 7afe da9a d0bf 0361 008b fc74 c5bf
00000380: ae0a ed2a 5f8a c93f 65b1 a1e2 a3d8 903f
00000390: 7a8e a10e 1fba 9c3f 9c04 5b43 ccf4 bebf
000003a0: 13c6 4088 59ae d8bf 5d90 8de2 5ca1 d93f
000003b0: 941e e9a2 034c bebf 4cbf 7526 baa6 d93f
000003c0: 424a 9d8f bbfb 883f 8f4d b816 9f51 cfbf
000003d0: 3990 9b7e 853b d6bf e6f5 497e 06db 8c3f
000003e0: 2278 8552 a0dc 933f 0d8b 1f9b 0894 d6bf
000003f0: dbde 4372 5c0a aabf 312b cd1d a506 b63f
00000400: c1cb 0507 aa4d d33f 7cc7 96c7 5e49 c13f
00000410: 5eb4 a590 b8e6 74bf aeaa f79d bcfc 60bf
00000420: 734a a3f0 ef71 d2bf 2b55 fc35 8adf c83f
00000430: bc64 1120 ea89 88bf 4d23 2b24 cd2f c33f
00000440: 3bac 7d35 143f b2bf 68c2 5f15 cb2d 9fbf
00000450: bea7 64a7 9e30 d0bf 05b3 1d73 2411 8e3f
00000460: be35 c482 e034 a03f 9a71 a5b8 dbe4 9f3f
00000470: d955 be08 cc9e d63f 1b37 803f fcc4 c9bf
00000480: 08f3 54c2 5d1f c6bf 4db9 c197 cf78 b1bf
00000490: 979a 8740 f3fc c3bf a1fc 6339 1f69 ccbf
000004a0: b12d 4c8a 631f d63f 103e ad94 f88f a6bf
000004b0: e3a6 6ac8 a36f 9cbf 0ab8 9a1c 565d e1bf
000004c0: d15b cbb5 a60f dcbf 8219 68f6 2291 d63f
000004d0: 8c7c 41ef eb64 adbf e06d ccd8 02f4 babf
000004e0: 68a0 4766 cfba 973f e332 5402 3b95 cebf
000004f0: bb05 e763 984d d7bf bcfb e571 0a02 cabf
00000500: b6a5 2a9a f38d c63f ca7e d1bf d13b 9cbf
00000510: f22b 4fb3 85eb b5bf 00ef 82cc 6cb3 d1bf
00000520: 8e80 41c8 e883 c53f 5424 7606 828e b93f
00000530: 5fee ae9e 88f5 cf3f d3d6 befb a79f b9bf
00000540: 9d61 8788 a7a0 ba3f 7879 5289 dbe4 8bbf
00000550: 04b7 eb36 bab6 cdbf 8895 7bd2 f6aa d3bf
00000560: 0592 5c16 8563 c83f e4b3 04cd 009f b3bf
00000570: e239 6f61 36bd babf e58b a942 e564 b5bf
00000580: 3403 82f9 e381 c5bf 26ab 47a5 7efd cbbf
00000590: cdcf 8166 999e a33f 82a9 fefe 1953 cabf
000005a0: 60ea c382 92ed d1bf 5fa3 26bf ce51 a83f
000005b0: 81c9 7036 12df ac3f b760 8e1c fc14 d4bf
000005c0: 692c bfd8 3440 b43f ca64 6932 7c20 c53f
000005d0: 2cec 76bb 4575 b7bf 9da1 e173 d2c5 b83f
000005e0: 0ea3 823d 6caf cb3f 83d9 cf8b 4102 b23f
000005f0: 8a7d db55 988a cbbf 7d05 8981 9fa0 d2bf
00000600: 80f8 e9d9 5354 c33f fe95 d4a5 962b c0bf
00000610: 90c8 15cf 0fea ccbf 7c5e 0396 6d13 bc3f
00000620: 0e30 af43 a5ea b73f 2060 7413 f0e2 bebf
00000630: ffc3 7f6a 3279 953f 0e9d a954 1414 ccbf
00000640: 89ce 2f8d e680 af3f fa3c 2c66 a5cc da3f
00000650: ba27 3c55 c9c8 c23f b43b c42f f9d5 cdbf
00000660: 2d53 4ba8 9c71 d53f 811b 2758 5f49 cf3f
00000670: 91ab f072 ba02 c33f 340b 1c4a 2b7d bc3f
00000680: fc87 3545 b32c d93f 8fb2 aab4 00ff c03f
00000690: 7478 4693 179d b6bf 9263 2fae 576d c13f
000006a0: 8d68 fe36 7877 c5bf 89ef ea7c e7a5 843f
000006b0: ccf9 146e cfac c8bf 59c1 9131 826d b2bf
000006c0: a612 7a15 52a5 c1bf cc52 457d 2a37 d1bf
000006d0: 3440 f8bf ab46 c23f aa19 e9f6 9bda 7b3f
000006e0: 9fb0 249a 2365 b4bf 4731 3179 f305 a33f
000006f0: 58d1 d0e3 d61d d03f 884b 3102 e780 cbbf
00000700: 37d9 3da0 310c aa3f 0e39 33e3 7370 bc3f
00000710: 0df8 c0f4 a103 c5bf 6c3a 869f cdff d23f
00000720: 4c89 0364 2019 c3bf f6bc ecee be18 783f
00000730: e226 b0ce ce00 a8bf 2444 18d0 efc2 c03f
00000740: fd58 2566 9d0f b03f 5b78 e50e df15 d63f
00000750: 994f 8712 b4f8 97bf b3a0 b957 6a45 ba3f
00000760: 90bf b2dc 6af2 aabf 7fac 5f63 6ede d6bf
00000770: 29ca efbe cb79 a9bf 881b d3d6 41cc adbf
00000780: 9a1d f214 de7f a23f 4c12 b83b 724a c5bf
00000790: 530e b80d 3a98 b13f 7b7a 8dfa c46d af3f
000007a0: 5ed1 3762 91d1 a8bf 265e a532 1787 ddbf
000007b0: a9f9 6a45 3250 a9bf 4311 1f58 8432 d13f
000007c0: 7094 a62d aec7 d73f b316 e95e d554 a8bf
000007d0: bd13 6d3b eba4 d4bf f652 6a27 0b02 d43f
000007e0: de10 11b0 a63c d9bf f707 0890 4e68 cd3f
000007f0: a67f 79fd 143a a13f c674 5041 a4c6 c33f
0.20448005751813086 -0.19349345650905375 -0.07233403709538874 -0.051409968254363995 0.11846696227153156 -0.23674006063972464 -0.0004496781371596365 0.27498631213719527
0.3371254823247705 -0.46099930155473506 -0.07313785532017199 -0.1464221236539202 0.1629806202493183 -0.2647853166767082 0.07913925357810132 -0.0694941674830757
-0.023520747250099724 0.005388964847971851 0.07881373823372698 0.25715552065323605 -0.1534696771236454 0.060455764007861304 -0.31806580895845 0.5340710532183995
0.4317933754194874 0.016381616395948997 0.19648491648091715 -0.10870144369256733 -0.20339151728483365 0.29170421108920164 0.005104889117693786 0.35143781484260633
-0.21953886068877443 -0.21992232507382947 0.12890687082123728 -0.3021493178181483 -0.07389097349350575 -0.06676804531717995 0.2203209170525095 0.11960215900355577
0.0825395264334868 -0.1174365935458656 0.19436081413928796 -0.1357736401369954 -0.12214220746032727 0.12171110096493319 -0.4427270003126808 0.15356845808489433
0.25456713734926534 -0.1626812772536155 -0.2348619329181879 -0.07738581093670868 -0.012790522931600237 -0.027155523092434335 -0.2188300653847049 0.03827887628501263
-0.27929230201911004 -0.12839105638482237 -0.0661986787752619 0.20574909965376836 0.20296543671066794 0.1449858362739776 0.15871034611485174 0.1428247773635878
-0.005900423978915928 0.03958464615313391 0.18518312824341518 0.2087542199201039 0.07516738022362364 0.32838381493106183 0.16969720893781562 0.23049474797537006
-0.33762284770106876 0.22733597320598456 0.13476158788436127 -0.07890832253994286 0.15013472825688542 -0.32207848600814265 0.34176460758139915 -0.15658964836763528
0.01935098940196877 0.032124510376416796 0.05117612209197535 0.1452080999123505 -0.1406297843305993 -0.12275019094863758 -0.08532871461693264 -0.12574559993715392
-0.051192682431566175 0.11588666686396204 -0.14624107407324663 0.011572300330565033 0.2338587238759259 -0.0651259295127977 -0.340311618753798 -0.21211208130290718
-0.2687254380510919 0.1336126727822787 -0.1218853407703476 -0.05863481383896054 0.0772542816799005 -0.07656302595964384 0.28279008413746026 -0.14655909355190794
-0.11349118674275989 -0.01747121052658943 -0.09830703652723317 -0.12185405936572825 0.0022993733006908905 -0.22766841313438846 -0.2594516263140176 -0.16763264453107504
0.19953527065270776 0.016451416690345683 0.02805374647904422 -0.1209228195612177 -0.38564146333655563 0.40047380565943574 -0.1183473847132695 0.40080121761183274
0.012198891945137128 -0.24467838868495703 -0.34738290180235115 0.014089632729560497 0.01939630988760411 -0.35278525494338525 -0.0508602990611828 0.08603889443945147
0.3016152447300407 0.13505158181720478 -0.005102845151083361 -0.0020736392905197 -0.2882041788081217 0.19432189594287172 -0.011981801131854979 0.14989628091850662
-0.07127500825815584 -0.030448125056809522 -0.25296751353254965 0.014681133997976223 0.03165341945905763 0.031146462578691116 0.35344220022065326 -0.2013240156233501
-0.1728322218786149 -0.0682496781825865 -0.15615692759384522 -0.22195806791566944 0.34566582208273205 -0.044067161702170066 -0.02776962195154099 -0.5426436003378978
-0.43845527413708135 0.3526084333720051 -0.05741059585192784 -0.10528581421788585 0.02317356168524079 -0.23892915357318775 -0.36411103969666286 -0.20318728028720823
0.1762070181623991 -0.027571942646658333 -0.08562503459613405 -0.27657623264143183 0.168088052540956 0.0998307481551291 0.24968059299668519 -0.10009241005067375
0.1040138920137736 -0.013620104912033013 -0.23213889772107887 -0.307309823560296 0.19053710548281813 -0.07664494519549653 -0.10444965246936236 -0.08357079389092766
-0.16802644427300495 -0.21867354460058513 0.03831939102465718 -0.20566105795780848 -0.28012526292847006 0.04749914248834019 0.05638939775998875 -0.3137808112019331
0.07910471240681861 0.1650538679266787 -0.09163318468829179 0.09676852540144983 0.2162909794181122 0.07034692443253303 -0.21516708557372183 -0.29105365419317036
0.1510109724076223 -0.12633021447361154 -0.2258929978521036 0.10967144882612873 0.09342415716599836 -0.12065029597249621 0.02097014212626291 -0.2193627751723643
0.06153030847044955 0.41874060609639197 0.14675251638283077 -0.2330924494967498 0.3350593226908128 0.24442664913496162 0.1485207616072697 0.11128492888751113
0.39335328825666216 0.13278206655140365 -0.08833453507983952 0.1361493683350799 -0.1677084225200968 0.010082062244116024 -0.19277375102133332 -0.07198346815289848
-0.1378576855533044 -0.26899206384159124 0.14278170465013462 0.0068002788889941854 -0.07966825974716805 0.037154778045620555 0.2518212532770767 -0.21487128836687597
0.05087428170274893 0.11109089180829221 -0.16417335940235525 0.29686298922107457 -0.14920430072295188 0.005882974465563287 -0.046881163340072765 0.1309489980781403
0.06273826354786034 0.3450849194977132 -0.023409665709393932 0.10262169496275213 -0.05263074821539171 -0.35732612328019536 -0.049757353837680825 -0.05819898364420967
0.0361318016594467 -0.1663344184490988 0.06872904620109326 0.06138434942726164 -0.04847387622786202 -0.4613702768888025 -0.049439974759923296 0.2687083111343506
0.37156252344204344 -0.047522228084330286 -0.32256584933594096 0.3126247296252552 -0.39432685083398933 0.22974569351941884 0.033646255437587855 0.15449956120656888

attention.2.bias f8 [16]
00000000: b683 8261 8aae b1bf f20b 1246 050d c53f
00000010: ef80 c240 f936 c0bf aa0e 6fec 7a66 c2bf
00000020: 94b8 ece7 7e55 bb3f 687f 5ee0 1840 b63f
00000030: 977c 9fd9 65b5 c83f 9ffa 6cf6 c406 ab3f
00000040: 2db8 c433 5492 d13f 0387 96c5 e462 c13f
00000050: 40da edb2 54c2 bebf aff6 9374 2f33 cdbf
00000060: 847e 9a6f 10b4 b83f baf2 396d bf56 b7bf
00000070: 0551 9678 de5f a43f cc5a 0a57 f330 c2bf
-0.06906952744112868 0.16445985719118955 -0.1266776624879706 -0.14375244660015102 0.10677331125472939 0.08691554525148393 0.19303582311747355 0.052786021310102564
0.274556208186257 0.1358304943833489 -0.12015275352846633 -0.22812455360683745 0.09649756169027951 -0.0911674157777708 0.03979392263423346 -0.14211885213872788

attention.4.weight f8 [5, 16]
00000000: cfaa 075a de04 cc3f 7c32 e328 b72c d23f
00000010: 24a5 92fe 988f a2bf d4ab 40bf 0178 c43f
00000020: 14ed 5162 836d dbbf 831c 13da b0cb b6bf
00000030: d77a ad4e c6d7 babf cddf 8ce1 a112 bbbf
00000040: 974e 5b5c e9c9 b3bf 5325 ffe1 9a81 c3bf
00000050: 58ce 0eea 8697 b73f 0405 3bb2 7938 acbf
00000060: 1b98 81dc 7ee1 d23f 9f9f 8728 ecab c23f
00000070: 4450 9120 a584 cebf 9f0d 3be3 2308 d03f
00000080: 9bb9 e2ba 450c a93f 038b 7fe6 39eb dfbf
00000090: aafe 7fa1 8ca4 7abf 3e23 1aab 7697 c2bf
000000a0: e00a 1d5a 2ae6 9b3f 2dee f40a ebb2 c43f
000000b0: 488e c5b6 35cb d43f 7111 5125 4eb6 cfbf
000000c0: eeae 2231 6587 c8bf 1a79 e0db b3dd db3f
000000d0: 7325 3cea bb65 d23f 9f1c ee3a a9fc c43f
000000e0: b3eb bce3 e796 b33f cac1 65f3 0f3d bdbf
000000f0: 48d8 f907 4e47 a7bf eb15 4693 6c62 dabf
00000100: 6491 e959 f254 b4bf 7976 c507 7298 c13f
00000110: b6f3 2606 d2eb a53f fc89 2fef 8028 d2bf
00000120: 2976 c6a5 51e1 c0bf 679c d621 74aa c43f
00000130: bbc9 80d9 017e 9bbf da69 c4c9 fa87 a5bf
00000140: 485a 36a1 f366 b8bf 2e21 829d 8c39 a5bf
00000150: 9532 6d2f 720d ccbf 7283 1e02 ddb4 d5bf
00000160: 1865 f272 ee37 c5bf 5366 0b9e c539 c1bf
00000170: c535 2467 e0ab d03f 1b08 ea6d 2447 a03f
00000180: 364a e890 a76f d3bf d740 4af3 3842 b93f
00000190: f5e5 3e1f e611 c8bf 40eb b008 7efd c33f
000001a0: 197b 406d e16c d03f adf9 1c57 4875 cfbf
000001b0: 5acc cb4e 3f44 c9bf a18a 0fed 8b3c d1bf
000001c0: 401c 06b2 667e b9bf e1d3 9004 ab11 973f
000001d0: baad 9e74 a50e d4bf 4671 66b1 2c20 cebf
000001e0: 6f43 e23e 7663 c73f d328 04ac ef2e 913f
000001f0: 2292 1614 0fc8 a1bf 36a1 bed1 5d7c d2bf
00000200: d76f f885 3783 b73f 6244 6ae0 5deb c4bf
00000210: f779 da39 ac4e 77bf 252b 17b4 00a2 c2bf
00000220: dd4d 7dc0 d850 c03f b8ff 13aa 9406 c53f
00000230: ea95 3969 129f c03f 7401 ee42 3cfc b63f
00000240: 1b0d eb24 cd96 563f 3209 e713 f9f5 c6bf
00000250: 9d98 db8b 884a 8c3f b25c 2e2f 01c3 ac3f
00000260: cc4d 219d d209 d1bf be2c 1dc4 65df c73f
00000270: af1a 0d58 cb05 c83f 92f8 d5fd 5164 d2bf
0.21889857669824273 0.2839792155544172 -0.036251813007149886 0.15991231764323166 -0.42855915643277 -0.08904557537162998 -0.10485495968667223 -0.10575305706595302
-0.07729967598725761 -0.15239273104661297 0.09215586866667402 -0.0551183729235252 0.295013156259644 0.14587165812485822 -0.23842300501076086 0.2504968375253273
0.048921755850972214 -0.49873206624594973 -0.006504582728666422 -0.14524730066866626 0.02724519896515687 0.16171014819143306 0.3249029431228547 -0.24775101492026466
-0.1916319360656113 0.43540665123318123 0.28745935320383537 0.1639606034989116 0.0765213900566966 -0.11421298687287798 -0.045465887521388526 -0.4122573316784314
-0.07942118353964173 0.1374647653528205 0.042814791918750414 -0.2837221465871662 -0.1318761882256905 0.1614518323160354 -0.026847866916975365 -0.04205306733111387
-0.0953209179482225 -0.04145469114979715 -0.21916034045934354 -0.3391640206046339 -0.1657693921340886 -0.13457555977838584 0.2604905135384253 0.031792772691020064
-0.3036898532019764 0.0986667245836118 -0.18804623151463287 0.15617347168321238 0.25664554280403845 -0.2457666802747104 -0.19739524219002896 -0.269320470337485
-0.09958497854505399 0.022528335717840412 -0.31339393986373987 -0.23535689031712986 0.18272283621311255 0.01678060996440751 -0.03472945327965628 -0.28884072764278146
0.09184596081507777 -0.16343282182473035 -0.005690262563489138 -0.14556893151742503 0.12746724509143706 0.16426332764240015 0.12985448968826968 0.0897863067057239
0.001378727279800546 -0.1793814990215395 0.013814036148186931 0.0561752672285193 -0.2662245306466644 0.18650505138280055 0.18767682837843355 -0.2873730639329405

attention.4.bias f8 [5]
00000000: 0038 3a63 aa8a b1bf acea 6fb9 0eb3 b5bf
00000010: 0f9c ad82 8c48 983f 4a31 38cb a1cd c83f
00000020: 10b9 fbde 5494 bdbf
-0.06852211878342018 -0.08476345088267107 0.02371425197216231 0.19377539084269763 -0.11554460948875467

fcn.0.weight f8 [16, 2]
00000000: c0e0 6352 2838 f13f 5a07 5b60 b66e e03f
00000010: 4502 1510 a7e5 bdbf 408a f365 f89d ecbf
00000020: bdb0 c4de ed71 cdbf f853 ab96 de27 f43f
00000030: fbed 631b 347c bcbf 4fe0 c144 ace0 c1bf
00000040: fb70 3266 0d3f d03f 71f1 8302 2e80 913f
00000050: 5811 61cb 0e7f e1bf 1349 d003 0827 efbf
00000060: da44 b96b 6e55 c5bf c251 d6f0 3e53 ddbf
00000070: 6ed9 4536 1d87 bd3f 34b1 f246 0843 cd3f
00000080: f26e 4dcd 2987 edbf 82e7 231b badd eabf
00000090: 9638 abd2 f417 d6bf a6a5 86f3 e1e2 f7bf
000000a0: 0ee9 fb62 820e e8bf c404 3c9f ad1e e8bf
000000b0: 5161 eaae 86ba db3f e797 57bd 89ed f53f
000000c0: f32c 4d52 3463 dbbf 9fac 610e 8a21 f4bf
000000d0: 2382 ddb4 097e f0bf 358f 6420 f42b f3bf
000000e0: bba7 9468 0716 b43f e398 c540 2966 c03f
000000f0: e76e 950b 494f d63f 9b31 5084 3554 f23f
1.076210328899876 0.5135146982140484 -0.11678547041538774 -0.8942834845768814 -0.23003934266433204 1.2597337613599375 -0.11127019566259115 -0.13966897351542903
0.2538484094636854 0.017090529349830633 -0.546759984230941 -0.9735145639881772 -0.1666696573252356 -0.4582059242177615 0.11534292769451834 0.22860816444643606
-0.9227494249166439 -0.8395662813265832 -0.34521217892768996 -1.4928912651761066 -0.7517711575776802 -0.7537448988006408 0.4332596500548976 1.3704926868608653
-0.42792995488407753 -1.2581883012560764 -1.030770975594472 -1.1982308640808246 0.07846113494147648 0.1281177107113712 0.3485891926882076 1.145558850144062

fcn.0.bias f8 [16]
00000000: 1b0b a632 79ea ddbf b8d3 e0fa 200d e63f
00000010: e1a3 32b7 b175 b63f 0d9b 7bd4 2c61 c4bf
00000020: e826 7cff b5ca e13f 2f1c 91f8 8299 db3f
00000030: 7bd2 090e 925f e4bf 9bd8 5651 e6c3 e0bf
00000040: 5434 cb02 9e90 e23f 4732 e0b2 4c3d e33f
00000050: fb3c efc7 fc56 e83f e5a3 4a53 4c05 d0bf
00000060: a289 57d0 5fe5 e63f 5ea3 5358 4119 e43f
00000070: 3f1d 3d5b 9de4 c23f 428a 1947 f277 d9bf
-0.4674361223807623 0.6891026401486817 0.08773337099650248 -0.15921554923189554 0.5559949865284723 0.43124460481743915 -0.6366663240610956 -0.5239135349900325
0.580153470474793 0.6012328618686035 0.7606185822459389 -0.2503233731645749 0.7154997891596404 0.628082916749104 0.14760176615730278 -0.3979459471067096

fcn.2.weight f8 [5, 16]
00000000: 027d 27e2 afff d93f 5247 7b8b 5710 b7bf
00000010: 5eab 6c1d abbd b7bf e592 202a 071e b43f
00000020: 1d97 e5c1 0779 c13f ec8a 0032 c3f9 b4bf
00000030: 2c89 ce47 afa0 b43f 0d45 5ac3 8c23 d83f
00000040: 477d 2649 c1df b0bf 5455 0515 81bd d5bf
00000050: e9d9 9f9f bdc6 d7bf 2a06 56c1 7fdb e63f
00000060: 1063 61df 54a7 9c3f 4cce cc51 d575 d5bf
00000070: ff13 3cba 524b a93f a81d a2f8 38d6 d23f
00000080: 9bae 3c80 5a4a b7bf 75e8 7d01 cd2d 8c3f
00000090: b208 c734 f1ae a3bf 32c4 14d6 9ac8 bf3f
000000a0: ded1 115f 7c0f c63f 6f72 a34c 98ff c7bf
000000b0: 1468 b2ef b9ec c53f c014 21cf 646c cc3f
000000c0: 6ce9 0bf6 03b3 b03f 125c 7c45 b50e d0bf
000000d0: 4b27 43f9 58ec a8bf 53fa 03e3 7fb7 de3f
000000e0: 4d53 2fa3 4a56 acbf ae5e 8fd5 be24 8e3f
000000f0: 37c5 7699 8c02 d03f f376 0949 121a d23f
00000100: b595 a194 fdcc d03f 201a 6fe7 2266 bcbf
00000110: 69cd dc06 cdcd d23f 19a7 5017 5cea c73f
00000120: 2f41 dbe9 5636 bdbf f8ec 8cec 1fe1 d4bf
00000130: 32f8 6409 c5cb b0bf 70a3 427c 87f4 abbf
00000140: f4da e597 98bb c3bf c4a0 02d8 56c6 cebf
00000150: 97e3 7e8f 6a63 c4bf ce63 71ad fb11 ce3f
00000160: 2dee 972b a34c d7bf 7475 c2f2 5817 c8bf
00000170: ac74 ab87 f581 bebf deb2 8fc3 0cf8 dc3f
00000180: 88f5 4e23 4072 c43f ddff 4a36 c516 c73f
00000190: 4921 5430 9288 81bf 3f34 bdba 7a3b 90bf
000001a0: cfb4 c0aa 23b4 b63f 11e0 e9c1 09f8 d8bf
000001b0: e6b6 1668 038c c33f f474 df44 0104 91bf
000001c0: 440d a4d6 20c5 cf3f 2413 d5ed a218 d5bf
000001d0: cee0 43ce 0c6b c7bf 88e2 f0d8 daf3 c83f
000001e0: 1aa5 4674 85c5 bbbf 3eae 11ed daac b0bf
000001f0: fe5f 80f2 b7fe a43f 343b 7989 1843 c53f
00000200: 1f07 d220 6fe6 b73f 3cdd c282 c288 d2bf
00000210: 3347 d06a a87b d83f e0b8 8771 6b19 acbf
00000220: 97b4 daf6 2757 d4bf 9d94 9fab 8d93 6ebf
00000230: 16a3 c8dd 16cc 783f d723 4b67 7333 d53f
00000240: 101a 53af 42e1 b3bf 2923 eb4e ba4d d2bf
00000250: d3bd 5699 e189 d1bf be18 95a4 5050 ec3f
00000260: 72cb b7ac 24d6 98bf e609 d3f0 54f8 c2bf
00000270: d2de 8cec 1bfe 86bf 2534 4fc3 d287 c43f
0.4062308987176523 -0.09009310870467616 -0.092737860377992 0.07858319071290117 0.1365060517084026 -0.08193607302431943 0.08057685378165463 0.37716979100612563
-0.06591423068902201 -0.33969142010513065 -0.3715051707107749 0.7142943168730131 0.027982069143351274 -0.3353169726208065 0.04940279506084976 0.2943251064357022
-0.09097829466616718 0.013759233100916849 -0.03844407815223984 0.12415473677244007 0.1723475898940156 -0.18748763792145293 0.1712868137736342 0.22205791581851564
0.06523155934329389 -0.2508977106639928 -0.04867818873169812 0.4799499241779916 -0.055345852298762745 0.014718523876509817 0.2501555918380122 0.28284127361790395
0.2625116301990958 -0.11093347692722277 0.29381108923117566 0.18683959139280473 -0.11411040505777657 -0.3262405214370143 -0.06560927848201528 -0.054599985044950894
-0.15416247765434543 -0.2404278330552697 -0.15928394323944126 0.2349238011254599 -0.36405257470298374 -0.1882125077581055 -0.11917051851510746 0.4526397619036241
0.15973664974255208 0.18038239623092425 -0.008561269855377989 -0.015851895949982483 0.0886862079502919 -0.39013904511330205 0.15271036703545987 -0.01661684019915284
0.24820337753781463 -0.3296286890584261 -0.18295440742054442 0.1949418601305022 -0.10848268593567348 -0.06513756072825402 0.04100584826682051 0.16611010277343896
0.09335989524154485 -0.2895971562351922 0.38254747801794337 -0.054881436928427396 -0.31781958681933403 -0.003732468318946204 0.006054009744311603 0.3312653073049296
-0.07765595226656097 -0.2859941263855484 -0.2740406033944655 0.8848040785312816 -0.024254391710154484 -0.14820348509790832 -0.011226862102929589 0.16039499794570236

fcn.2.bias f8 [5]
00000000: 467d ce46 c4c3 99bf 4e76 a455 4816 c2bf
00000010: 27f4 52a6 1970 d0bf 4bb2 1972 982f b0bf
00000020: b3aa 83ea 5bfc d0bf
-0.025160853215877375 -0.14130500966796194 -0.2568420528658088 -0.06322624955800753 -0.2654027738741817

exp_avg f8 [1, 2, 1]
00000000: 8e32 547a 2751 0f3f 9af6 36a1 e273 4d3f
5.973245360211154e-05 0.000898824366622103

exp_avg_sq f8 [1, 2, 1]
00000000: e590 b73b 0836 733e b0ca e448 89c1 cb3e
7.156678710030887e-08 3.3087731658107896e-06

exp_avg f8 [1, 2, 1]
00000000: 6b71 2b0a 09c1 fcbb d209 2888 e381 343c
-9.742249116689438e-20 1.1117071949785607e-18

exp_avg_sq f8 [1, 2, 1]
00000000: 58fa 05f7 23fa 5238 6c2d 79c4 c532 b538
2.2307487106160217e-37 1.5947851128166907e-35

exp_avg f8 [2]
00000000: 6e56 496c 503a 743f 5478 ae6a ec3c 863f
0.004938425209351045 0.010858389859830599

exp_avg_sq f8 [2]
00000000: 29e3 b88c 2ff5 3d3f 99f2 0d20 ee64 573f
0.0004571190918088325 0.0014278722230464445

exp_avg f8 [2, 1]
00000000: 77ce 9351 1ff3 553f 4af6 fd68 ab5e 693f
0.0013397031637482329 0.00309689978160924

exp_avg_sq f8 [2, 1]
00000000: 58c5 ddb6 9e30 213f 0156 b553 99af 3a3f
0.0001311486952846701 0.00040719502768146737

exp_avg f8 [16, 10]
00000000: 67e1 7b31 0e21 13bf fc04 d966 3fcc d23e
00000010: 307d 3904 ef96 02bf 8483 c7df 1299 0fbf
00000020: a421 f7c5 8077 fdbe a48f 3400 a94e 10bf
00000030: e5c1 9cf7 d30b 0bbf 7795 da5f 83a7 10bf
00000040: 5b0d 4cef 90f3 02bf 68b0 392c 9b29 1fbf
00000050: 0052 2898 2b23 ab3e 500f c19b 97b1 dc3e
00000060: b055 683b 04d3 f7be 43c9 1af5 ebe3 fb3e
00000070: 4484 c768 e6f4 fabe 4a34 963f d566 073f
00000080: 9853 55de d6ba d5be 77c7 6083 b0d8 073f
00000090: a0b0 629c f090 d83e e087 262b 3b43 1f3f
000000a0: ac90 bbd8 d274 e9be 7027 c9d4 c48c fcbe
000000b0: 3807 45e8 639d efbe 17d6 04a1 beba f9be
000000c0: f0e0 06da d7da d8be 947b b285 6ec9 cf3e
000000d0: 7f75 c091 39e1 05bf 08cb fb45 bfc8 e93e
000000e0: 9a00 58d2 aa6f f4be 4635 c3a8 19de 093f
000000f0: 3849 c1a2 dcba f4be 2ab7 c383 d434 f8be
00000100: f67f 18e2 e098 013f 9f2b 0735 0b0d 18bf
00000110: b488 7f72 d1a1 043f aaca b13b f0d1 02bf
00000120: 1021 cd4c 4220 f6be 7985 bbd7 53cd f53e
00000130: cc23 e189 3c8b 04bf 0c0f 39f5 d94b 153f
00000140: 409a 8b83 ecd6 153f fbb6 4b75 66ae 0e3f
00000150: 4021 757c 57e3 143f 3ca1 4012 f913 143f
00000160: c6ca d13a 7d1c 0b3f c598 83da 9840 033f
00000170: 1076 9ac4 7372 223f ab82 0d09 21fa 063f
00000180: d339 6824 a4b9 103f 6389 de59 ecc7 063f
00000190: 885c 9311 dcec edbe ee7e db45 4edc 163f
000001a0: aa5e 0235 4da4 11bf 85c4 bdc8 c0f8 1d3f
000001b0: 9600 79f1 ab95 18bf 35ad fbda a508 1a3f
000001c0: b579 fa3c dd06 083f 108f 94e1 7e72 133f
000001d0: 9b91 8572 19ff 063f 5775 0919 ec3b 283f
000001e0: 6d7e ce80 bdf8 033f 16a5 ed54 2748 033f
000001f0: 9eb9 310f 8afb 08bf 356d a633 6e3b 223f
00000200: 57e9 4a34 5103 10bf 92c2 3761 145a 193f
00000210: 52f7 4b94 5d5c 033f 6c76 5dc6 dff1 043f
00000220: c56b bf03 2b1e 0e3f 799c bcd2 bc0c 113f
00000230: c129 a5a5 b20a 1cbf a45e c31e d769 21bf
00000240: 981c 776b 9515 efbe 9b96 9313 6900 30bf
00000250: 6e21 a174 3fdf 023f 3c90 0628 2645 22bf
00000260: 8a92 bae9 7d20 2abf 5779 966c 44fd 13bf
00000270: b31d 38db 19ac 21bf f8d6 f102 fffe 16bf
00000280: 0918 62d6 29ee 11bf 9b6a 7685 d9ca 26bf
00000290: 9b07 63bb b472 f33e 51a6 507b b110 30bf
000002a0: 0ecc 57cb f73a 153f 2835 833b 7b51 27bf
000002b0: 3be7 c77b bc20 2abf fb20 3ed5 5262 22bf
000002c0: 5845 9549 e7c6 20bf ae18 5131 2349 32bf
000002d0: b45a 7e83 1366 193f 08bf f282 7615 133f
000002e0: 5c99 b18f 02bf 163f ed1a 6f16 9741 183f
000002f0: 66a4 7677 1d8f 0a3f b630 20d8 4401 143f
00000300: c737 e85e fd68 253f 76ee d745 54f2 1a3f
00000310: 868c bc23 530d 133f f88d a6ca a1e6 283f
00000320: 462e 0c17 b47f f73e 6844 5a59 8946 0f3f
00000330: e9f2 8cea 7d29 103f d2c6 3e6c 040e c53e
00000340: 76c9 fdae 9b8d 033f fb2f c6b5 5ece d53e
00000350: d6d4 ce63 6d99 193f ad37 0bb4 ddc8 083f
00000360: bbc2 ce15 c98f f73e 24a2 644b ce38 1a3f
00000370: 5aad f970 c9fa f7be 9fce 001c a3fe ffbe
00000380: b837 d7b2 92b9 e73e 57a2 55d3 29ed 12bf
00000390: 4ca5 2432 7e1e f73e 269e 47ee 5f97 03bf
000003a0: abdf ba45 eb78 04bf 2e45 2d8f ef14 e1be
000003b0: 8f2a b00e 786e 02bf b8f5 94be 2872 d43e
000003c0: e053 c6ec a697 f03e 3e3d fcc8 c699 1c3f
000003d0: bb2c a5cc 3e68 0abf 7fea 77ba 21bc 253f
000003e0: 96c4 0dd4 37ff 15bf 01a1 3814 c045 173f
000003f0: 941f 2b6c 3401 193f 5040 5602 8cd0 fc3e
00000400: dfee 4eb1 176f 143f 64cc 7caf 1f9e fe3e
00000410: 82a8 dc69 bab5 f1be 44f9 4b58 7d15 febe
00000420: 4e7c 4e55 d65b 203f c4bb cba0 011e 28bf
00000430: 0cc2 34f8 0373 213f ec9b 90e0 5e5d 25bf
00000440: 9488 a07f 21a7 f43e b9a6 1ab7 399f 15bf
00000450: 2dbb ed95 8947 0dbf d04a ee7c 1d64 29bf
00000460: 6484 811d 90d0 0ebf 1356 e0e2 7a94 133f
00000470: 8b53 1a26 7d54 f53e f5cb 88c3 7a1a 0ebf
00000480: 80c5 e3fd 2cbd 883e 82ae 5d26 ef03 0abf
00000490: 6e91 2ac4 c096 093f a058 53d7 e4e5 c7be
000004a0: ce48 fe01 0bc4 eebe 04ea 4eec 179c f53e
000004b0: 50e9 936f 2e2b edbe d1de b771 dae6 12bf
000004c0: 6aea 50a7 b180 1d3f d1b8 c956 6fa4 2abf
000004d0: de71 549a c568 213f d946 4692 7ec4 22bf
000004e0: 0c6a 16f0 d0ca fdbe 045c 90de ed50 0bbf
000004f0: 9c51 d357 2b8f 13bf f47f bab9 10d8 1abf
-7.297181252486283e-05 4.481754883268711e-06 -3.5456818775920335e-05 -6.0268295758231775e-05 -2.810173861947516e-05 -6.220728396449812e-05 -5.158653853099322e-05 -6.353129716759285e-05
-3.614698463219142e-05 -0.00011887559508644426 8.087570651538222e-07 6.841115858750014e-06 -2.27206071149088e-05 2.6598281073383618e-05 -2.570785595590689e-05 4.463518412043588e-05
-5.18079784702233e-06 4.5483481173737754e-05 5.857031686467559e-06 0.00011925743709764692 -1.2138529903401043e-05 -2.72272857720144e-05 -1.5075114114030197e-05 -2.4537535922427864e-05
-5.925859483495369e-06 3.7892869336331938e-06 -4.1732377411766816e-05 1.2294849681881225e-05 -1.9489479333501503e-05 4.9338491494669556e-05 -1.9769600996541128e-05 -2.308499118524387e-05
3.356395997067267e-05 -9.174710181196346e-05 3.9352611849856166e-05 -3.589643844117048e-05 -2.1101009042541008e-05 2.0792065227653062e-05 -3.9184365264128754e-05 8.123891648731065e-05
8.331125799152742e-05 5.851984193393046e-05 7.968160126837088e-05 7.659156523287953e-05 5.171067400846145e-05 3.672090980604137e-05 0.0001407400434815663 4.38252765266924e-05
6.380142540527511e-05 4.345121418160532e-05 -1.4269463053313719e-05 8.720615138768279e-05 -6.729813799421594e-05 0.00011433293019337723 -9.378301580742691e-05 9.931099225084647e-05
4.5827509550056175e-05 7.418536587927246e-05 4.3862308589467945e-05 0.00018489129117231037 3.809288327904785e-05 3.677721053103372e-05 -4.765048097331584e-05 0.0001391002677565229
-6.108458644408142e-05 9.670972240606094e-05 3.6927800953974674e-05 3.994907528580009e-05 5.744522829306086e-05 6.503965840619516e-05 -0.00010697093367643182 -0.0001328539941656176
-1.4822154624462202e-05 -0.00024416509002232197 3.599560166428732e-05 -0.0001393899037910334 -0.00019933259033168656 -7.625322463986527e-05 -0.00013482871655433117 -8.772307841006441e-05
-6.839876513894961e-05 -0.0001738920716263984 1.8547125102192854e-05 -0.0002451356224947065 8.098733345444938e-05 -0.00017790440847990333 -0.00019933987449843337 -0.00014025937218443266
-0.00012799809773382065 -0.0002790175361194841 9.688848592613147e-05 7.279907071011335e-05 8.676961071927197e-05 9.253010431030011e-05 5.0657355070989754e-05 7.631285373594057e-05
0.00016334622291974533 0.00010279311523924716 7.267780250379456e-05 0.00018997883792080928 2.2410241800092824e-05 5.965334564195999e-05 6.165343314718973e-05 2.5099223836748852e-06
3.7294686875538366e-05 5.198987164677783e-06 9.76536766320203e-05 4.727293572202806e-05 2.2470151964606592e-05 0.00010002860185365968 -2.2868763208822508e-05 -3.0512501098380243e-05
1.131291136404951e-05 -7.219856055019326e-05 2.2048104377924303e-05 -3.736745364673844e-05 -3.904788965541859e-05 -8.145227615637988e-06 -3.5155333385790686e-05 4.874690583021026e-06
1.582373697458009e-05 0.00010910297191578808 -5.0367752538160605e-05 0.00016582404826677788 -8.391168831935395e-05 8.877739770041597e-05 9.538538419484453e-05 2.7479778642425505e-05
7.794935329646532e-05 2.9199286444025674e-05 -1.6889453596715283e-05 -2.8690284596949155e-05 0.00012480727550909443 -0.00018399972795843215 0.0001331274362228605 -0.0001629999462988413
1.969609727593047e-05 -8.248128667767253e-05 -5.5846105843629326e-05 -0.00019371852837631607 -5.877437405455639e-05 7.469177282389714e-05 2.0341906184901135e-05 -5.741774697689404e-05
1.8431967325304493e-07 -4.9620376372097784e-05 4.880691314682299e-05 -2.848866354025653e-06 -1.4670273287529722e-05 2.0608654057710868e-05 -1.3908709194589017e-05 -7.210453298244912e-05
0.00011254391013519054 -0.00020326480025140714 0.00013282215255906634 -0.0001431850915989883 -2.8412104261835546e-05 -5.2101382444096094e-05 -7.461263699621304e-05 -0.00010240175327647078

exp_avg_sq f8 [16, 10]
00000000: 4f73 a73c 71e6 a03e c88b d0f5 1f1b a13e
00000010: f8a9 745a cc45 9c3e 89e3 ac5d 225f 973e
00000020: 4da8 9e61 4959 a23e 6141 1cc5 b384 9f3e
00000030: a1ef 12a6 41e0 9e3e 15c8 1097 1c47 9b3e
00000040: ebf4 45aa acc4 9a3e bc93 3d49 65fd 9d3e
00000050: 3e5a e247 77bb 973e f18c b253 6557 9a3e
00000060: 1a63 d800 626c 923e 7c4d c01f 7344 943e
00000070: eed2 5c29 dbc7 9b3e 3f51 950c 907e 983e
00000080: 9c1b 86e9 4492 9b3e 15d2 cfbb b09d 953e
00000090: 23c7 d0d8 11b7 953e 0e29 e529 7598 953e
000000a0: fe28 ee42 89f4 8e3e b0ea f4c3 e67e 8e3e
000000b0: d30f fc4e 53d3 8e3e d296 b6a1 fffe 883e
000000c0: 3225 eb54 100f 913e cadb 084d bedc 8d3e
000000d0: 2755 44a6 716a 8b3e 6904 1432 ae88 883e
000000e0: e615 0c19 219a 853e 4a94 dc49 ff08 8a3e
000000f0: 0a04 ee96 4935 b13e 45f7 480e 628f ae3e
00000100: 3217 04de 95c8 b23e 683e 6bb3 c2c9 a73e
00000110: 2e65 81b7 a0f2 ae3e b78c 7caa 7081 aa3e
00000120: 7a6f 7b22 361e a63e 1908 2ced ff57 ab3e
00000130: b51a 2a6d ade9 a23e 6502 263f 8a28 aa3e
00000140: 232e 4a05 24ab a83e bf45 252e e41c a53e
00000150: 9860 2892 81cb ac3e 3ebd 985b 3801 a03e
00000160: d1e3 7ff1 8256 a23e 36ab 5ba8 9538 9d3e
00000170: 47ad 2468 34ad 963e e1c9 e745 328a 9c3e
00000180: 2868 49a6 a282 953e 13ad c7c4 462c a23e
00000190: ea63 fbe6 d33e ad3e 325a 0e67 56e3 b13e
000001a0: cd6f 8b77 bcfd a63e 7f51 579e e87f ac3e
000001b0: 95c1 800d e142 b03e 3d1f aa6a 3f9a af3e
000001c0: d51e 0f87 037b b13e 47cf 1090 e072 ab3e
000001d0: b0d2 14a5 95af ae3e db58 f57d 23c7 ab3e
000001e0: ea41 2044 f9de a83e ae8a 4822 65d0 a53e
000001f0: 5984 01ac 9c3f a73e 8eda 8bac 899c 9b3e
00000200: 3468 80a4 b64e a33e 742e 63e2 2afc 9c3e
00000210: 2de3 a9a6 a185 9a3e e558 e6f1 ae0e a03e
00000220: a205 4fb9 d006 983e 539b 844c 063a a03e
00000230: 8b19 b12e e131 c73e fbdb b291 3aa5 c33e
00000240: f586 ed3c c886 c93e 6c4c 7aa0 be09 bb3e
00000250: dee0 1b8a 2732 c23e 334c e82e 0c85 bc3e
00000260: 63d7 0e7e 1e26 b63e 404e d72b 5111 bc3e
00000270: e89f 031a 51f0 b23e 6ff6 6ebb 92b1 be3e
00000280: 5e34 be87 a622 b93e dada ebde b790 bc3e
00000290: f542 4e51 0973 b13e 0fcb 50e6 8b72 b43e
000002a0: 5649 423d 5f3b ba3e cbd2 daea 805d b93e
000002b0: e74f ee68 5226 bb3e ae25 39bb 37e0 b63e
000002c0: e3bd 855f d5f5 b83e edd8 c610 ca82 b63e
000002d0: 043a 37a0 0231 a53e 483e 87c7 9f0a a53e
000002e0: 271f 86c1 4673 a13e 6314 fc4c 821b a03e
000002f0: 0db8 2895 bd77 a43e d14a 1d94 df7c a33e
00000300: a0dc 08fb a399 a33e e672 d137 b24e a43e
00000310: 8f7e e051 02e2 a33e 3c8f 3c34 1f9d a53e
00000320: 7b11 dea3 856f 953e 7e90 a204 4809 963e
00000330: b27e 055a 7ce6 943e 78e5 580e 4905 953e
00000340: 8ed2 3339 03f6 943e 33a4 7603 734d 983e
00000350: 3db0 d0bb 19ba 943e 0ace df7e 3991 9c3e
00000360: b86f 1070 d43e 983e 49fd 3f3d b6a7 983e
00000370: 16e0 b108 5958 943e f300 85c7 2555 913e
00000380: 4909 fdcd db6a 963e 29a2 a323 1510 893e
00000390: a3b8 341c 09f4 903e 780d a13b 7835 8b3e
000003a0: 2136 00e2 5a40 853e e615 c8f5 c90d 8b3e
000003b0: c781 17e7 a2dd 813e e4d7 ea76 4fc0 8b3e
000003c0: 97ca d65d 6030 ae3e b576 5b00 1989 ad3e
000003d0: 168e f3bf db26 ad3e f683 4a9e e76f a83e
000003e0: 995a 3c5e 5171 b03e 2e74 7e4b d33d ae3e
000003f0: 2b4a 299d cdd9 a73e 1536 dec8 c48b a63e
00000400: 3f10 6b2a 8028 a53e 9660 9e22 1536 a83e
00000410: 1f72 2c7e fc3c b93e 7101 fa10 ca31 bb3e
00000420: 1479 1aa8 3d96 ae3e 8a43 9eac 88bf b23e
00000430: be73 a898 c14e b93e a125 7ca4 af68 b43e
00000440: 29cc 78a2 c288 b83e 40b3 cf8e 80b8 b23e
00000450: a90f 21de 0840 b53e a4ee 68de c00b b43e
00000460: 7855 63b5 501b b63e 9a5d 25a6 7125 b53e
00000470: 90fa 830f d19b b83e 3189 10ca cf57 b03e
00000480: 80f4 2e46 7d4b b33e 437a f008 7a8d b23e
00000490: 6c84 17b4 ee06 ad3e 72b5 1df3 53b1 b33e
000004a0: 8feb d8b4 e21f ae3e 78f3 82d8 e696 b23e
000004b0: 63f5 988a cb8c b43e df7e 3507 72ef b33e
000004c0: d246 9917 9650 b03e d0d6 784b 376e ac3e
000004d0: 7b62 6d3c bb48 b23e dea6 05fb 5c9a ad3e
000004e0: efc6 e65a 9c05 ad3e 796a 0c1d c4a7 ab3e
000004f0: abde a94c 2efa aa3e 7fa1 9f34 a55d ad3e
5.036641764173013e-07 5.097972281025294e-07 4.2129530660137117e-07 3.4826424915066215e-07 5.46836136585248e-07 4.696602832069386e-07 4.600882786522655e-07 4.0647059679481946e-07
3.9887815208429736e-07 4.4688324262457213e-07 3.5363866136267806e-07 3.92517296619011e-07 2.7452961223884935e-07 3.020075209924598e-07 4.1396450832795176e-07 3.649947869128942e-07
4.1084533954803496e-07 3.221031724114803e-07 3.235804449413303e-07 3.2179858946004964e-07 2.3063435735895554e-07 2.2721073554019802e-07 2.2966779721783246e-07 1.862353692209057e-07
2.5419656861073064e-07 2.2249131472067583e-07 2.0426360259536672e-07 1.8279185901723607e-07 1.609479452145775e-07 1.9397694910844874e-07 1.0256859146187094e-06 9.107616532677963e-07
1.1195860381575746e-06 7.089414343023055e-07 9.223152650602808e-07 7.899291931439516e-07 6.591681697936909e-07 8.149072193432946e-07 5.636454381709477e-07 7.795798622618016e-07
7.351791376382382e-07 6.29212163519802e-07 8.581562592228734e-07 4.769792020849153e-07 5.465130668006601e-07 4.3542733184239177e-07 3.3790738753160543e-07 4.252766014060542e-07
3.205283632172722e-07 5.415962590049344e-07 8.715814611939147e-07 1.066210099964109e-06 6.851898738074785e-07 8.493555553831685e-07 9.69245823167433e-07 9.418287921372922e-07
1.0419203386613568e-06 8.18036170474668e-07 9.145104035492221e-07 8.278454934156569e-07 7.41213291856734e-07 6.501091474635354e-07 6.928588263227299e-07 4.1144305078182664e-07
5.754075767000977e-07 4.3191059474472444e-07 3.952085651303096e-07 4.785465284481097e-07 3.5802457292948704e-07 4.835921112764564e-07 2.7650406671270105e-06 2.341917150507336e-06
3.0429950820678224e-06 1.6115942588531901e-06 2.169122198188944e-06 1.6999076099019302e-06 1.3201774822063827e-06 1.6729619994785514e-06 1.1288367219256611e-06 1.8294838193122863e-06
1.4981838196454567e-06 1.7026248959031e-06 1.0400629595100568e-06 1.218762826893277e-06 1.563544391767847e-06 1.5118866189381881e-06 1.618247924749407e-06 1.3635069365961925e-06
1.4877490440398897e-06 1.3417539462663354e-06 6.315543150061291e-07 6.270855826221117e-07 5.20059418683006e-07 4.800396258003411e-07 6.099860832603426e-07 5.807812970360666e-07
5.841302393509844e-07 6.052078870378343e-07 5.925550430364466e-07 6.441401656270795e-07 3.1941582167456615e-07 3.283657902342239e-07 3.1143926017792764e-07 3.1323203439659456e-07
3.123430413886577e-07 3.62136009591512e-07 3.0885569996214207e-07 4.256856972466473e-07 3.612850463811809e-07 3.673899844347149e-07 3.031657420170091e-07 2.582759815080011e-07
3.3404553611087e-07 1.867325794609767e-07 2.526233197794368e-07 2.0272184803232197e-07 1.583351698645545e-07 2.0156698611621244e-07 1.3311033657173965e-07 2.0676264563473123e-07
8.997014295158379e-07 8.802276176518832e-07 8.687910621165905e-07 7.282831658469676e-07 9.800581830026453e-07 9.012670920575521e-07 7.108090421348975e-07 6.719223095572828e-07
6.305636660254817e-07 7.215517758728063e-07 1.5043155989275773e-06 1.6209178887172886e-06 9.115600081049458e-07 1.117478563437466e-06 1.5084529844174316e-06 1.216467028388554e-06
1.4623534613344633e-06 1.1158413670789318e-06 1.2666067665959176e-06 1.1948294457294088e-06 1.3176620164331002e-06 1.2604156372687196e-06 1.4667903638906737e-06 9.741195656850485e-07
1.1500644851857738e-06 1.1058237168248495e-06 8.650743909510516e-07 1.17377562644112e-06 8.977816407582117e-07 1.108018155489985e-06 1.224874305441028e-06 1.188238482573095e-06
9.724372759433808e-07 8.472958574259831e-07 1.0898177024901796e-06 8.822375914655777e-07 8.649205279124903e-07 8.241932452941463e-07 8.039852670967809e-07 8.751691009641824e-07

exp_avg f8 [16]
00000000: 3fd6 4de2 0aef 13bf e29b 83b7 77d0 133f
00000010: 0294 3e2c 4192 fc3e 6e1f b9eb e8f7 133f
00000020: c84e 85e2 5aff 0a3f eedb 1c17 f290 1f3f
00000030: 603b 3cb9 6d45 f23e 0456 16ce cd4c 0ebf
00000040: c38d 316e 371a 2abf e234 e598 7ca1 243f
00000050: de7c 810c 0f38 1b3f 1c63 b8f9 3d9a e73e
00000060: b0b4 9c78 ee8c e73e 26b8 03fa 3588 14bf
00000070: 4635 d4fd a131 0e3f 38b8 277d f6b8 fdbe
-7.604125910439743e-05 7.558565801311882e-05 2.7247721632445855e-05 7.617339263632308e-05 5.1493607602507536e-05 0.00012041547395545669 1.742477941407293e-05 -5.779269282439259e-05
-0.0001991455711475143 0.00015740056955807548 0.00010383216715713651 1.1254552922544641e-05 1.1229760065479356e-05 -7.832364508761398e-05 5.759025200733707e-05 -2.8345595476091302e-05

exp_avg_sq f8 [16]
00000000: b238 fcae 1e05 b53e 8a11 5973 ebe0 af3e
00000010: 981d 716d ac62 a33e dc51 70bb ca2f c33e
00000020: ac24 e299 9d4e b93e 9209 ac22 4091 c43e
00000030: f562 f83f c371 b83e 7453 6e23 1218 d73e
00000040: 7b8b eaa1 e1b2 d03e d2c4 50e1 c0b5 bb3e
00000050: 11bf dbff 3813 b03e fabc 508b 38e8 a43e
00000060: c333 d3f8 fb85 c23e 038c de4b 8be3 cd3e
00000070: 249a 18f6 7bb5 ca3e ae38 9c4c 6027 c63e
1.2528896000149818e-06 9.500560966343199e-07 5.777312378573957e-07 2.2872313496602393e-06 1.5084202469615067e-06 2.451823339356601e-06 1.4569989160771256e-06 5.506045048249474e-06
3.981293530105614e-06 1.651643178901108e-06 9.581499393305542e-07 6.230805157432392e-07 2.208158497474305e-06 3.5630278878025756e-06 3.183951705637625e-06 2.640940327653424e-06
