checkpoints/CAE_M_5G/model.ckpt (torch, 187413 bytes, 36 tensors)

encoder.0.weight f8 [8, 1, 3, 3]
0	0xbff91f9d685c52a8	-1.5702184750163415
1	0xbff183df947d0cf2	-1.094695644410248
2	0xbfe76bc3495f3600	-0.7319046433491962
3	0x3ff3a91bd61de309	1.2287863124785778
4	0xc0054bf870decb0c	-2.6620949571600985
5	0xc0003b3bf100bc03	-2.0289229229306343
6	0xbfa645592b4d215e	-0.04349783567028241
7	0xbfdbd452f2c4c020	-0.4348342295443235
8	0xbfe58817d0d76291	-0.672862918751962
9	0xc000067a920bbd3b	-2.0031634721596254
10	0x3fe5b56f867900fc	0.6783979059619294
11	0xbfd160fa9bc01fef	-0.2715441246987202
12	0x3fd8ad7185b6d414	0.38558614786171685
13	0xc002d89400b20422	-2.355751042778608
14	0xc0041c208fb6264b	-2.513733980890526
15	0xbfe3a0860ec6c4a9	-0.6133451737024603
16	0xbff940fe385b6095	-1.5783674432223382
17	0xbfef4c04a6ceba99	-0.9780295618018783
18	0xbffe66b3f9a52341	-1.900073981452991
19	0x3ff07cde65492d90	1.030485530517442
20	0x3fa608f3ca5b63cf	0.043037050678044524
21	0xbff4cafde2c631f4	-1.299558530651777
22	0xbff9987e7df789ff	-1.5997300072273217
23	0xc00b807ab2dc8422	-3.437734029154414
24	0xbff270af9495b794	-1.1525111965270058
25	0xbff2bf6c85e45c1b	-1.1717343549878538
26	0xbfed95583f5f7943	-0.9244805562737287
27	0xbfe966e7bca5be33	-0.7938116726417718
28	0xbffc68b0b0d76fb5	-1.7755591304657916
29	0x3feb801009e5104a	0.8593826478249948
30	0xc00e30fd334e95f7	-3.77392044147086
31	0xbff418cc47051cc8	-1.2560541891305537
32	0xbfea839a4dad8623	-0.8285647885460928
33	0xbff3e920d77302d2	-1.2444160858141697
34	0xc01760c131bd11aa	-5.844486977734428
35	0x3fb58a8347b65907	0.0841447877959106
36	0x3fc3fc3ed1a44818	0.15613541828548771
37	0x3fd40f26a7902091	0.31342474330495756
38	0x3ff322e037e41f98	1.196014612507474
39	0xc0037b3ecf6d4c67	-2.4351783948164214
40	0x3fd38f351de32dbe	0.30561569136326827
41	0xc004ee5a8dc0a4e6	-2.6163836550154995
42	0x3fa0abd231a56824	0.03256089073211424
43	0x3fcc1dd5a2cacf6a	0.21966047715033749
44	0xbff6355be831049e	-1.3880271024684485
45	0xbffc48656e825479	-1.7676748577844406
46	0xbff50f4f4ee57c7e	-1.3162377435581045
47	0xbfd4d85c95c3fa77	-0.32570566773930615
48	0xbfd18b0c228fce70	-0.2741117799298314
49	0xc00ea967461378c7	-3.832716510266525
50	0xc012e3ba3d54ef46	-4.722390135106087
51	0xbfd22e41b952cfd5	-0.28407328699108564
52	0xbffb3a7f7078057a	-1.7017816918672382
53	0xbff490fb2dd51beb	-1.2853957929926263
54	0x3fa54457ce4fd564	0.041537040648033124
55	0x3ff15b2f00361e8f	1.0847616203554116
56	0x3fe03a290cf9381c	0.5070996526135363
57	0xc003d7a575073aab	-2.4802960532027405
58	0xbfc0e32fb4c49d32	-0.13193317724765447
59	0xc0031cc61d3ef09c	-2.389049747927926
60	0xbffbbdd65a8c0d1e	-1.7338470017428516
61	0xbfe9245242823369	-0.7856837557788882
62	0x3ff765c0de23851e	1.4623421361250801
63	0xbffa7b4810868ef7	-1.6550980229885093
64	0xbfd9b32fe0b10778	-0.4015617079022529
65	0xbfd7db2ed3847519	-0.3727528634643292
66	0xbfd8bd2a68c4b12a	-0.3865457556846815
67	0xc000ecd60b5d0a56	-2.1156426322716397
68	0xc01e1816d01ef96a	-7.523524524584312
69	0xbff9de8690597c40	-1.6168275488523847
70	0xbfdd24bf52a9dfa5	-0.4553678805600561
71	0xbfe69d4162b4730e	-0.7066962173299502

encoder.0.bias f8 [8]
0	0x3ff38a985acd20ca	1.221336703007227
1	0x3fe5ecb520e8c79c	0.685144962573975
2	0x3fd96033d8f70d06	0.39649673641197614
3	0x3fbebbfff24f91db	0.12005614915648925
4	0x3fee30eba8fbc66e	0.9434717464884679
5	0x3f9f038720db686f	0.030286895161090784
6	0x3fddcd3773947ceb	0.4656504276953927
7	0x3fd555af6fec30e1	0.33335481576865617

encoder.2.weight f8 [16, 8, 3, 3]
0	0x3fd9b4380c348a9e	0.40162469093244535
1	0xbfdee538f4d851fb	-0.48274063025135633
2	0xbfe222bffc91e328	-0.5667419369702644
3	0xbfd7056677618f13	-0.3597046056586219
4	0x4000e93f38d7e2ee	2.113890117729503
5	0xbfbf21aed3bd72cc	-0.12160771054682157
6	0xbfd4e6ba9b9660dd	-0.3265825766952853
7	0x3fe96c00fffe49dc	0.7944340705747055
8	0x3fdbbce48bdb670d	0.4334040990630548
9	0x3fa68cb9a8838fbd	0.044042398281618024
10	0xbfc0148877f25449	-0.1256266198803664
11	0xbfe2d131bfab1405	-0.5880364173432332
12	0xbfde44f3d34a8951	-0.47295852311994674
13	0x3ffc50e561c26697	1.769750005600519
14	0xbfa42141c09e5fc4	-0.039316229594248436
15	0x3fd3dc8df69a0f97	0.31033658106047696
16	0xbfcbbfe4acd8e5cc	-0.2167936176281685
17	0x3fd87beb7966a527	0.3825634656482912
18	0xbfe08687a930d9a1	-0.516422110033819
19	0xbfa91cce22123f49	-0.04904789129170568
20	0xbfbbf779a8c3b0dd	-0.10924492235398327
21	0xbfc64f21026c5b77	-0.1742898237068535
22	0x3fea4e771d1afc5a	0.8220782822098827
23	0x3fe17b61a1b013d9	0.5463112028088474
24	0x3fea8a5336cc9efd	0.829385382680783
25	0xbfe62eaeea719cf8	-0.6931986407261368
26	0x3fe89b3b4efd4fca	0.7689491789592406
27	0xbff91663a44bf7a9	-1.5679661195604047
28	0x3ffcc62f5390e6fc	1.7983849777505716
29	0xbfa84bcb5580e564	-0.04745326441520595
30	0xbfd64990bfaee0eb	-0.34824007720045697
31	0xbfdf486083411787	-0.488792541673654
32	0x3ff357aed5d3c0f7	1.2089069702743112
33	0xbfe55579b4f645b4	-0.6666840109266361
34	0x3fbf0fccc0a5c3ca	0.12133483603771747
35	0x3ff148bba3e5d495	1.080257072663959
36	0x3fb98a616ef3b440	0.0997677703741866
37	0x3fe13e965650daa6	0.5388900457245043
38	0xbff509d86950a5c7	-1.3149036516064017
39	0x3fe094331e878c9b	0.5180907818106734
40	0xbff39304ef4fe6f4	-1.2233933780793764
41	0x3fd86a03de7f5ac2	0.3814706490351619
42	0x3fd8ab71196cdf73	0.38546397669732996
43	0xbfe627dd47db514c	-0.6923662570430138
44	0xbfae5ccb5eecc5eb	-0.0593017152190319
45	0xbf73e2ca7bb495c0	-0.0048549565792987415
46	0xbfc1d50c0c30a647	-0.13931418032852802
47	0xbfd5ce8fe0a972ba	-0.340732545277017
48	0x3fd6754847f99005	0.3509083464507515
49	0x3ff6437a0f682609	1.3914738275365173
50	0x3fe0e58df8d04a77	0.5280217990533193
51	0xbfe87877de389bdd	-0.7647055950409328
52	0x3fe6a8c3681350ed	0.7081009896014884
53	0x3fe76f7c8d364c19	0.7323591955231478
54	0xbfe57d175ee16d1a	-0.671519933045974
55	0x3f4ee2344bd3fc42	0.0009424929955058686
56	0xbfb806314ce0d591	-0.09384449126158347
57	0xbfc379e3f5f51c7d	-0.15215730199472324
58	0xbff365b3002ce2f8	-1.2123289114808227
59	0x3fe60d29ac1c004d	0.6891067849646874
60	0x3fe489e83ef35bca	0.6418343762878689
61	0xbfe9017240a9399f	-0.7814265501890992
62	0xbfcbce21d74921b9	-0.2172281552505078
63	0xbfa0617e8abd302c	-0.03199382251349933
64	0xbfe02d4921cfc8b6	-0.5055280361541665
65	0xbfc832072a8889af	-0.18902673317741178
66	0x3fe31e74dc248c45	0.5974678325332056
67	0x3fe79c045dce7f29	0.7377950508270931
68	0x3fd7ba7b7f00c349	0.37075698282847164
69	0x3fd94411d53f4d41	0.39477964234284363
70	0xbfbefbad28fdbbc9	-0.1210277772022287
71	0x3fe97ffb573c5fb8	0.7968727783036149
72	0xbfe18adf6d515d85	-0.5482022414316111
73	0xbfd341ed7130a626	-0.3008988957759321
74	0xbfeb798673197c37	-0.8585846183813207
75	0xbfb618e69cd40d4d	-0.08631745652023888
76	0x3ff36be46bc99f96	1.213840886159209
77	0x3f5f4596e79b107e	0.0019086812666709026
78	0xbfc1df6a2d233e22	-0.13963057712543142
79	0xbfc9d1c21beb20ab	-0.20171381343084724
80	0x3fcb97eac2e8e5be	0.21557364003255758
81	0xbfe3b36c787970c2	-0.6156523087515995
82	0x3fd56f57fe1f877c	0.3349208814307685
83	0xbfd9ae52cff59fe0	-0.40126486118833604
84	0x3fe6384607860de9	0.6943693301149639
85	0x3ff46477675ea566	1.274527934825835
86	0x3fc51de969f58bfd	0.16497533487117258
87	0x3fb6af2d7fdbcef5	0.08861050006435874
88	0xbfe8d329a72096e9	-0.775776697559846
89	0xbfc116c1c88768d5	-0.1335069874901992
90	0xbfed73f12effabf5	-0.9204030912345603
91	0xbfd713352f37b3f4	-0.3605473481282495
92	0xbfc20fa226868b70	-0.1411020935166465
93	0x3ff4161ef5f42639	1.2554006202284553
94	0x3fe4e19f7567fa1a	0.6525418561066687
95	0x3fe470403485cefe	0.6387024904092582
96	0x3fd52b3bfb52398e	0.3307638124760154
97	0xbfe8367362f15ed4	-0.756646817443619
98	0xbfb85f3c8191f9fc	-0.09520319140754191
99	0xc0007de1411277fa	-2.0614647945176303
100	0x3ff7fda860d8bc88	1.4994281561919554
101	0x3fea3be6662d4b36	0.8198120113032477
102	0xbfe084c5ddd6a458	-0.5162076313764699
103	0xbfc9d541b2513429	-0.2018205757798637
104	0x3ff857f5ca13e320	1.5214746373805568
105	0xbff0bf6fb66620ac	-1.046737396713108
106	0xbfcb136aee21bd51	-0.2115300810578256
107	0x3febcb113c29c8cd	0.8685384917319198
108	0x3fb4ca3af4a123fa	0.08121078941725549
109	0xbfe6ee35ef6b906e	-0.7165784526992078
110	0xbff533e370bab806	-1.3251680758944544
111	0x3fd568dd90d85e2d	0.33452548165357393
112	0xbff20d7f6871f08a	-1.1282953338514141
113	0xbfccd7f38baabed2	-0.22534031219173883
114	0xbfe321db74e2e593	-0.5978829653678751
115	0xbff159c5a4b55495	-1.0844170030516456
116	0xbfca949c50112371	-0.20766023549574755
117	0xbfbe50db35896ab8	-0.11842126900720984
118	0x3feb6cb46832e236	0.8570196185237993
119	0xbfd3ccf24cd990da	-0.3093839407431581
120	0x3ff8ae4b652e9001	1.5425523712556244
121	0x4001581eaba4cded	2.1680272493047057
122	0x3ff15964c0d7b952	1.084324601451574
123	0xbfc9cfdbaa58c111	-0.20165582483014835
124	0x3fdc9fb40b8b843b	0.44724751594009476
125	0x3fe7b4451cc17d19	0.7407556115757955
126	0xbff72288bb6c6425	-1.4459311791636165
127	0xbff4d0bf029b5a70	-1.3009634115057018
128	0xbfb3d2ac71185aed	-0.07743337403404
129	0x3f93c3f24b8f48d9	0.019302163945959492
130	0xbfe93d116d29f783	-0.7887045986278597
131	0x3fd41e9502bb0b6b	0.3143665815988956
132	0xbfda95c2e9ecb113	-0.41539070934483496
133	0xbfec440685dc9d68	-0.8833038916099385
134	0xbfcf13523846047e	-0.24277713535051143
135	0xbfb1b6a0b12d205c	-0.06919292760460521
136	0xbfd80ea6d94c7618	-0.37589427204679415
137	0xbfd81cb096745977	-0.376751086166585
138	0x4008ce04faa3fd0d	3.1005954343123734
139	0x3ff71ff1d0c26c21	1.445298972574854
140	0x3fd74bd35396ef45	0.36400302088781117
141	0x3fe84f29ba652092	0.7596634521987815
142	0xbfc88be05441e4d2	-0.1917686854756427
143	0x3fd988fcf527d5aa	0.3989860910508819
144	0xbff90851fe94f5de	-1.564531321011024
145	0xbfee4a3f4734f2f1	-0.946563376499027
146	0xbfc391aa70dbe6ee	-0.15288286696141234
147	0x400c38f74455f19f	3.52781537425308
148	0x40130351d585d0ba	4.753241859714928
149	0xbfd59b094b8c9419	-0.33758766534657664
150	0x3faf2937a92badcf	0.060861338997564844
151	0x3ff6df93f4b2aaa9	1.4295844610702864
152	0x3ff056f004733af0	1.0212249921639192
153	0xbfe91546cb485008	-0.7838472338066831
154	0xbfd6110019dcf4ce	-0.3447876217431486
155	0x3fc0148506d594b9	0.12562620958047946
156	0x40091843dc5a2c45	3.1368481841105074
157	0x401046793ed97f88	4.068821889901194
158	0xbf86645b54e42dbe	-0.010933602836778241
159	0xbfd95ea55438e9af	-0.3964017221911957
160	0xbfe55a95d86bfb91	-0.6673077799786019
161	0x3ffe45c72f4c3e21	1.892035660512086
162	0xbfec7d30ec93ffd4	-0.8902821179071858
163	0xbfe79f207afdf941	-0.7381746675671722
164	0xbfd1492b24007c2e	-0.27009085193452875
165	0x4013168ed06ff7f1	4.772029167970673
166	0x4006c9b527542ec9	2.848490054375223
167	0x3ff21f3532be2799	1.1326190931453992
168	0xbfe87f7857d35b5d	-0.7655603137344361
169	0xbff37ca969f3f46a	-1.2179350031649627
170	0x4004317a6a6f9304	2.5241592707919853
171	0xbffe2c4fa47cb834	-1.8858181405335133
172	0xbff3835baf085136	-1.2195698582846268
173	0xbff63f618673f5e5	-1.3904738666600391
174	0xbff0f6f4d0572820	-1.0602920664118827
175	0x3fe6754366eda231	0.7018143663709165
176	0x3fdc9595b8a259c8	0.4466299346035183
177	0xbffb536275ca1903	-1.7078575707578814
178	0x3ff12cf2583dd564	1.0734733054099133
179	0x3fe88f52ab7d8f0e	0.7674954747603537
180	0x3fb50e4e0c7e3f73	0.08224952511795695
181	0xbfe367d626f37a87	-0.6064253578914113
182	0xbff4eb68124b8076	-1.3074722971578274
183	0x400f7744487879e9	3.9332357084051535
184	0x3fe5fb735a0d2ce3	0.68694465244462
185	0x3ffc4f6f708c9f65	1.7693933865029632
186	0xbff04b7497b5a4b3	-1.018421738257797
187	0xbfd6b7791e0a3799	-0.3549483102186684
188	0x3fd237cc5ddbdfb7	0.2846556583967827
189	0xbff1b13bf280f434	-1.1057700608064467
190	0xbfeb679af3338fb0	-0.8563971281077922
191	0xbfe275d4c9b2a7ff	-0.5768836917316092
192	0x401221f4c7ac12af	4.533160323979856
193	0x40107cbfa4f626ae	4.1218248152960495
194	0xbfd48f0072f36739	-0.32122813440001924
195	0xbfec384e41c6e2b9	-0.881873253317358
196	0x3ff173332fc61a75	1.0906249872365639
197	0x3ff2d91fe3234663	1.1780089256830244
198	0xbfff77ba38bc87a7	-1.9667303291575793
199	0xbfdbf640cb8b1acc	-0.436905096791105
200	0xbfed340fd5e86eb1	-0.912605207241958
201	0x4012068b1a6dd7d7	4.506390011743824
202	0x3fe9e95acda7f752	0.8097356812211081
203	0x3ff81275cec903f7	1.5045068814799814
204	0xbfe589eb4fa82e1f	-0.6730858379173162
205	0xbfefaa9c902abb43	-0.9895766082534937
206	0x3fcb91dea580084d	0.2153890903574073
207	0xbff6a7de6858aa37	-1.4159835887936774
208	0xbff74260cff0affb	-1.4537056086219298
209	0xbfbea33680c20de7	-0.11967793124681912
210	0x401662834394dccf	5.596203857384537
211	0x400b1c6eb856f3b2	3.3888830567870736
212	0x3fea8c180297ba1a	0.8296012926710461
213	0xbfe1e78f156564c1	-0.5595164697544065
214	0x3fe002851a52b4d1	0.5003076089975825
215	0x3ff79db70403ab1f	1.4760046154794464
216	0xbfd977b4c569e43a	-0.39793128279376655
217	0xbfddca485e4cd02f	-0.4654713555239622
218	0xbfe1699f7480df61	-0.544143416925163
219	0xbfd94e223d6bb6a0	-0.3953939056217255
220	0x3ffa7982c09eb52d	1.6546657108513714
221	0x3fa19551d154f80f	0.03434234314271133
222	0xbfd4a7dbf3eae0cb	-0.3227453119284404
223	0xbfe35331b7b4afd6	-0.6039055431369842
224	0x3fee744bcdd346ce	0.9516963024163603
225	0xbfe5197b6d4b8fe4	-0.6593606123610667
226	0xbf9f90c18f6d9cb0	-0.03082563817897882
227	0xbfc68c30c31db2a3	-0.17615327384136945
228	0x3fd9a9c2e9a85dca	0.40098641222126885
229	0x3ff8b8c84f6886ee	1.5451129056822839
230	0xbfbbb8bf124933e9	-0.10828775593218122
231	0x3fd0ffbc57e8b808	0.2656088694083114
232	0xbff7630d82a2585c	-1.461682806291285
233	0x3fdd1e0ce8b547bc	0.4549591324367801
234	0xbfeb935573bc7ff4	-0.8617350826716561
235	0xbfe00a9ca600d341	-0.5012953989267787
236	0xbfcacaff7d091598	-0.2093200073742707
237	0x3fed301f99e611b0	0.9121244436105851
238	0x3fe70f6510c7a92d	0.7206292464955247
239	0x3fd178bcf6016fa9	0.2729942705534492
240	0x3fe0b09857fc4e35	0.521557018133939
241	0xbff64746785524ba	-1.3924011898509847
242	0x3fb8960bfdee50a9	0.09603953313336668
243	0xc000352187369e95	-2.025942856172899
244	0x3ff325b0720aa59e	1.196701474642715
245	0x3fe4205d839ab8fd	0.6289508409879826
246	0xbfd6c21fe1c2908b	-0.3555984215438534
247	0xbfe7e073155ecab3	-0.7461486260784426
248	0x3ff7781f51849d09	1.466826742582102
249	0xbff392a7d94aaa8d	-1.223304604335371
250	0xbfbb42886f66111b	-0.10648396224684513
251	0x3fd792b16ba197bf	0.3683284331403875
252	0x3f99b41a1e7cc0cc	0.02510109721259894
253	0xbfdafcebd145ef7f	-0.42168708264193094
254	0xbff8cf77f87bb3fd	-1.550651522290763
255	0x3fdb73303b82ed40	0.42890554248488755

encoder.2.bias f8 [16]
0	0xbffb34099450ac2e	-1.7002044480857523
1	0xc003700e33af4835	-2.429714587961849
2	0xbfefc24f9218f01e	-0.9924695828881374
3	0xc001b3cc1a6be900	-2.212791639726788
4	0xbff7598bb1ba1577	-1.4593617384392397
5	0xc00271d4c44ae33e	-2.305581601653471
6	0x3fcb3479f6c55edd	0.21253895329822728
7	0xbff53b3379da2622	-1.326953388199748
8	0x3fdbb16e1ca95b61	0.43270447539310025
9	0xc000dc8570072450	-2.107676387041046
10	0x3fd7291cca363fc1	0.36188430545098177
11	0xbffa7a846d1cff8a	-1.6549114477383875
12	0xbff35d721fa14cfd	-1.2103139148283042
13	0xc001da8e0b18dda4	-2.2317162386859355
14	0xbffd7fb7dce6ae13	-1.8436812046956035
15	0xbff156466511cdcc	-1.0835632274655493

encoder.4.weight f8 [32, 16, 3, 3]
0	0x3fd51e98987a8622	0.32999243631829434
1	0x3fe77a99b248b8fc	0.7337158662901682
2	0xbfd4e86ed63b3a7d	-0.32668658181220406
3	0xbfc8b34aad845661	-0.19297154877192482
4	0xbfe0b3800e8d78d7	-0.5219116482001266
5	0xbff16c5c134c9eb9	-1.088954997432593
6	0xbfd9a0f9acdd5452	-0.4004501522188707
7	0x3fdef6d6d6c649df	0.4838158700378283
8	0xbff12d991547d7f6	-1.0736323195719684
9	0x3ff444022212242c	1.2666035967724936
10	0x3fe539bf22ab246f	0.6632991482848761
11	0x3fd4e3a9cb148ae7	0.3263954623418343
12	0xbfcfda520ab8365e	-0.2488501121846864
13	0xbfdbd8065b8d1deb	-0.43506010952520907
14	0xbff56156dc0b0d09	-1.3362644763408886
15	0xbfe5ba6e75dd5605	-0.6790077497523163
16	0xbfa86fbb52059a41	-0.047727445375859386
17	0xbff9cc51882d19d6	-1.6123824424154143
18	0x3fefad88e4075594	0.9899334386524736
19	0x3fea9e288378b95b	0.8318064277462257
20	0x3fcba6995e2a536c	0.21602170083920258
21	0xbfe08a6969c8409a	-0.5168959680613796
22	0xbfa0ac06da4cf3d8	-0.03256246008684344
23	0xbfb6d24ee1299fa5	-0.08914654729016876
24	0xbfef771888d09404	-0.9832880661166432
25	0xbfef7027c1a01294	-0.982440832304365
26	0xbff27865f93909f2	-1.1543941245332658
27	0x3ff5ce91eae1ea04	1.362932126531292
28	0x3fe0216802184ed7	0.5040779152791072
29	0x3fd2f618ea15ba9f	0.2962705884919305
30	0xbfc9b5d352073d99	-0.20086137299811638
31	0xbfe9b431121369ef	-0.8032460549396186
32	0xbff279fe45efcb16	-1.1547835094358496
33	0xbfe5c6218d00860f	-0.6804359201379969
34	0xbfbd48c8429800b4	-0.11439181924652325
35	0xbff7f0178c499a28	-1.4961162071209717
36	0x3feca825f284f7b6	0.8955259072024464
37	0x3fe418061149242a	0.6279325807200895
38	0x3fc0b2b432fd52fb	0.13045361032222744
39	0xbfed6cbf7d2e4ea5	-0.9195249028147897
40	0x3f789b199a212f8f	0.006007289894181768
41	0xbfe06a4505b9fbc0	-0.5129723655553491
42	0xbfa27c8c51ccece4	-0.03610647676983961
43	0xbfd3f5ed0fdf17e0	-0.31188513326594425
44	0xbfcff517ab09b26f	-0.24966712810000355
45	0x3fe9ee54b6f35b55	0.8103431294683597
46	0x3fdeae0fffb84b92	0.47937393162390507
47	0xbfb70b127382680b	-0.09001269645742142
48	0xbfd423cd21eacdd8	-0.31468513786532304
49	0xbfdee40f42af512f	-0.4826696540087764
50	0xbff09bc4b96120a6	-1.0380294076331125
51	0xbfe13e7912f9c933	-0.5388760920161871
52	0x3fd5446fae8dee43	0.33230201765374917
53	0xbff53758157e80d6	-1.3260117377868048
54	0xbfc16c5fd2d7cbf4	-0.13611982150140955
55	0x3fbcf01cf05151d2	0.11303883425836794
56	0x3fd1c1b63ba75988	0.27744823289449316
57	0xbfdb0c0b7e9a5e28	-0.4226101623876013
58	0xbfe220eeccfd13c9	-0.5665201190646424
59	0x3fe1b3a3fb0cfe8a	0.5531787780127655
60	0x3fa0a41e606f4cd6	0.03250212599928097
61	0x3fe6de4834f3bf26	0.7146340402814289
62	0x4003e22771c24ae9	2.4854267966669465
63	0x3fe1d863266b12b9	0.5576644659382374
64	0x3fe07c589e5362cd	0.515178975324568
65	0x3fd35b72f32c7f44	0.30245660541003283
66	0xbfe0e2cd97828597	-0.5276859244515205
67	0xbfe0d07927b76be6	-0.5254483962738703
68	0xbfe76bfad2bc157b	-0.7319311252510227
69	0xbfdb73aeea7e0944	-0.42893574618951313
70	0xbfcf5bc9c241cdf7	-0.24498865113456222
71	0xbff6cf01cf3ef5a9	-1.425538835100591
72	0x3fd49e0820cdfe9a	0.32214549258785896
73	0xbfbb0e173a233b72	-0.10568375748992567
74	0x3fea15d40b9e4113	0.8151645876805865
75	0x3ffdb7350eb7c04d	1.8572283339417652
76	0x4000b1c2bbdaabdc	2.0867972065075104
77	0x40086752d7327735	3.0504509746814628
78	0xbfe0937c25e29c76	-0.518003534311801
79	0xbfc02e5678368fab	-0.1264141165712521
80	0x3ff006433d4ffacf	1.0015289683357655
81	0x3fe68c7b703f1c3a	0.7046487037959033
82	0x3fd4109f857357d0	0.313514595339595
83	0xbfbefd8db7d53cfd	-0.12105642068967266
84	0xbfd5e0efd6f985cd	-0.3418540572511944
85	0xbfe39eb6cee8cba0	-0.6131242791365032
86	0xbff0ddb1386b9605	-1.0541240886608432
87	0xbfe382ba6e618174	-0.6097080379368394
88	0xbfcdb960254b3caf	-0.2322197134112449
89	0xbff6e3e60e657579	-1.4306393205982586
90	0x3fea491cef01b89a	0.821424929437643
91	0x3fdbd65840278d22	0.4349575640209925
92	0x3fe95a27e1ff2ae9	0.7922553457259173
93	0x3fea6d63fd1b3976	0.8258533423884689
94	0x3ff2bf10f3a22749	1.1716470257692484
95	0x3ffbe253330bbb30	1.7427551263787784
96	0xbfd440118c76a81b	-0.3164104339326756
97	0x3fa03885a2f995a9	0.03168122877540764
98	0x3ffd76d41583f85d	1.841510852856593
99	0x3feaa4840d1eb815	0.8325824981927804
100	0x3ff07cc90967de8b	1.0304651610767077
101	0xbfd1fa47d5240b54	-0.2809009152844528
102	0x3fbb6a5f8757fa6c	0.10709187559403127
103	0x3fc6c4f1ab9c8fab	0.17788525466414504
104	0xbfe03a3e5d61b211	-0.5071098159656363
105	0xbfe4877c9566d360	-0.6415388982773997
106	0x3fd228662c4c9983	0.28371576620192956
107	0xbfe48ea765977976	-0.6424138054097017
108	0x3fdcf7bdb6c23633	0.4526209149124469
109	0x3ff145e753bdad41	1.079566313851345
110	0xbfb5096b917b64ed	-0.0821749906712232
111	0xbfc7f3052c69e975	-0.1871038882125721
112	0xbfd1f5a9c136e4ee	-0.2806190859660792
113	0xbfee178961209f8a	-0.9403731247921183
114	0xbfecac10f02a073c	-0.8960041704851629
115	0x3fb079d97555f227	0.06435927500383141
116	0xbff528bdf3feb93e	-1.3224467783980596
117	0x3fe2d833b6b6210a	0.5888918465216488
118	0x3fe555eeaac05555	0.6667397818552369
119	0xbfdbc0a637600221	-0.4336333790561487
120	0xbf9ef6d78b2de9cc	-0.030238502378304763
121	0xbfe3d0ec96c8dcda	-0.6192534394275768
122	0xbfea86c37bb42db3	-0.8289506355371742
123	0xbfe558f1a80ee08f	-0.6671074182877578
124	0x3fca01466783c9d0	0.20316391043122772
125	0xbff12f0f4a09fa33	-1.0739891903064176
126	0x3fe6e6f81e06f8c6	0.7156944834203152
127	0x3fb2e55af87ccaac	0.07381218496883929
128	0x3fb33530ee309f7b	0.07503038230117724
129	0xbfc10449ab377b4d	-0.13294335231963786
130	0xbfe28f70bb3b0b34	-0.5800098091934616
131	0xbff26b205a9c57a5	-1.1511539020043327
132	0xbfdb798cc57dd248	-0.42929381643560705
133	0x3fe2e0fe290d8389	0.5899649431049606
134	0xbff86d01b2e0717a	-1.526612948167069
135	0x3feb186f0d4a989d	0.8467326411817059
136	0x3fe82f4541da5c81	0.7557703291121386
137	0xbfb6ae773c72599c	-0.08859963632344264
138	0xbfed3757f1f1072b	-0.9130058026714541
139	0xbfd11c18900e85ff	-0.2673398405841851
140	0xbfc7e9093e3e4cb3	-0.1867991975710531
141	0xbfc2de5c0303e85e	-0.14741087100248057
142	0xbfeb958d4443e909	-0.8620058377557892
143	0xbfe6ab204ab13418	-0.7083894213516286
144	0xbff09eb352452a13	-1.038745232932915
145	0x3fe474781f7f155f	0.639217435375638
146	0x3fcf35072a650558	0.24380578584718182
147	0xbff52effd4261659	-1.32397444601647
148	0xbfc90a9b63196660	-0.19563619936779997
149	0x3fd353c5e367630f	0.30198809821517697
150	0x3fc17f50ee51568a	0.13669788014037848
151	0xbfeaf7186d9b1a93	-0.8426630154361469
152	0xbfdfa9c9cb35eeec	-0.4947380527953402
153	0xbfe5a13d85c45cff	-0.675932656539686
154	0xbfdc7828d14da1b2	-0.44483395042200435
155	0x3fb24e002601207c	0.07150269439546436
156	0xbfe03923f276a5ca	-0.5069751487364382
157	0x3fd4b755f210a937	0.32368992461364904
158	0x3fe2272b74e292d9	0.5672814639006801
159	0xbfbf42350eb2e4af	-0.12210399254662961
160	0xbfdc578cd3b32d84	-0.4428436343557325
161	0xbfed5b9a29bc1857	-0.9174319090968862
162	0xbfe602f1db5f43b0	-0.6878594669925544
163	0x3fd2605a6d860071	0.2871309346737752
164	0x3fca724619cce4db	0.2066123605707507
165	0xbfe6797faa92596b	-0.7023313838460984
166	0xbfc40030afd40a7e	-0.15625580392232402
167	0x3fc50f12d6980b42	0.16452250936716878
168	0xbf439fb3dd8529cb	-0.0005988720177268423
169	0xbfebd78801de9578	-0.8700599705231715
170	0xbffaac36aacdd55d	-1.6670443222077076
171	0xbfe152bdc877d68e	-0.5413502612488672
172	0xbf7c804efd779a6d	-0.006958302073576489
173	0xbf7e0588a762daeb	-0.00732949619685173
174	0xbfe1f60b0196e5ca	-0.56128454504431
175	0x3fd74e96ed7d8f0e	0.3641717261545957
176	0x3fe31da75afbeaa9	0.5973698403389182
177	0x3fd2b7e946993a3e	0.2924750508726993
178	0xbfebad22e63e73cd	-0.8648848053886639
179	0xbfe92ef618b69455	-0.7869825823478417
180	0xbff14726ca048fea	-1.079870976574052
181	0xbfc6449032fb8015	-0.1739673851907361
182	0x3fd508d78b26aa6b	0.3286646708390097
183	0xbfda32ddabdff85a	-0.40935460838944027
184	0xbfecb2a9b7055bbb	-0.8968094420077856
185	0x3fc24d76e6f794ea	0.14298902776423655
186	0x3fe57cd297ded700	0.6714871374340134
187	0xbfd19c8b7cfaaf1f	-0.2751797409534777
188	0xbfc2a56227c57384	-0.14567210142095288
189	0xbff026bbca845d50	-1.0094564352819653
190	0xbfc9008a537d59dd	-0.19532898975985705
191	0x3fc3c6808795f337	0.15449530239484385
192	0xbfed29323ff346fa	-0.9112788437871295
193	0x3fd51112f8555a7d	0.32916712046918645
194	0x3fe35a73b890dc24	0.6047915081788955
195	0xbfe12b7d928aabb6	-0.5365589010374296
196	0xbfd4644c8f17d35e	-0.3186217687028171
197	0xbfeab6bdef5eee94	-0.8348073649608119
198	0xbfe83e70abe02b6d	-0.757622085280088
199	0xbff5a9649ff87d4c	-1.3538557289937954
200	0xbfed63516f2639cf	-0.9183737917790554
201	0x3f9e9e9ce6dfb016	0.029901935187737726
202	0xbffcacaa2c4c56a3	-1.7921544771574325
203	0xbffaa97d80756689	-1.6663794534601115
204	0x3fe037bc928e9292	0.5068037855567857
205	0xbf918dd7ca39e9ed	-0.017142650335225374
206	0x3ff32848f62f83e9	1.197335206663633
207	0xbfea896e54d23b14	-0.8292762428917251
208	0x3fcb02045c982588	0.2109990551109997
209	0x3fcc047e7ee4b669	0.21888714977233129
210	0xbfec7bda50c751b8	-0.8901187493998384
211	0xbfbdd7a1155e34c7	-0.11657149097136986
212	0x3fc5d86adbe94847	0.1706670354638524
213	0x3fcfb4fedb236374	0.2477110452662391
214	0xbfe29c3a84b827ce	-0.581570872514243
215	0xbfd69b96ddcc2852	-0.3532464185706249
216	0x3fe42a565395941d	0.6301681168084802
217	0xbffdc797bed8a541	-1.8612287001545413
218	0xc00dcc2d090cb4c6	-3.7246952731134995
219	0xbfaf1a418384c1c6	-0.06074719171954572
220	0xbfe16fa5733a84c3	-0.5448786974485745
221	0xbffdf2290c422d24	-1.8716211775634486
222	0x3fdcc80a9f8082bf	0.4497095639835997
223	0x3f8eb307de9ff49c	0.014989911538572813
224	0x3fa0fb3f00580f34	0.03316685561369895
225	0xbfd15fc62efb9c00	-0.2714705904786001
226	0x3fd96c438b5f9240	0.397232900721324
227	0x3fb30d931c66b2a3	0.07442588275325561
228	0xbfeea0ae4149a309	-0.9571143412732407
229	0x3fd6c8a8d2d3c07a	0.3559972819193785
230	0x3fd6064bb85e6cc5	0.34413426403780206
231	0xbfc4d44af88150ed	-0.16272866376915066
232	0xbfe2e2c603f2f46c	-0.5901823117379883
233	0xbfe79f38b2c8bbc1	-0.7381862155797237
234	0xbfc4c003b5f6e2fb	-0.16210981736164584
235	0xbfefbed7dae7a82f	-0.9920462871061825
236	0xc00cae769347c3a8	-3.585187101962635
237	0xbfe147c15b4eed45	-0.5400091918340101
238	0xbfc16cc2b6508461	-0.1361316099364869
239	0xc0068667019bf0b0	-2.815626156398217
240	0xbfd6cb0e926784dd	-0.35614361092855323
241	0x3fbd70108fb736a1	0.11499122151073006
242	0x3fe5baa54f6bbd4a	0.6790339041889777
243	0xbff662867391d138	-1.3990540041387032
244	0xbfd0a0f7c06fe2cd	-0.2598246936100111
245	0xbf990e31b6160732	-0.024468209017420146
246	0xbfc7dc7b63210222	-0.186416076090624
247	0xbfe0dbdd8bc53171	-0.5268390397919075
248	0x3fc5af7d8a8b0a54	0.1694180418472394
249	0x3fe57774faf71cd3	0.6708321477571196
250	0xbfe58978bfaf2c67	-0.6730312103112625
251	0xbfc644846a7d1499	-0.1739659805263372
252	0xbfef8283bcb6ee40	-0.9846819578010084
253	0x3fd3f5bf3c59e9db	0.3118742074363163
254	0x3fb6b4ef23c5f11c	0.0886983358704509
255	0xbff27108ceb61b00	-1.152596290079316

encoder.4.bias f8 [32]
0	0x3fe581001f5005cf	0.6719971286367413
1	0xbfdeb04a0681976b	-0.47950983653424
2	0xbfce9939215dc9e6	-0.23905099992005246
3	0xbfe1f642c12de80e	-0.5613111279519687
4	0x3fc6771c0e3fe57d	0.1755099362924674
5	0xbfe6c73142e46b46	-0.711815481804799
6	0xbfc9fa923db438be	-0.2029593278206842
7	0xbfe2e25fec939ffc	-0.5901336308133973
8	0x3fd5301fe57b6c45	0.33106229219783173
9	0xbfca934f2af144fc	-0.2076205215148902
10	0x3f8ce92edf36ca67	0.014116636454535937
11	0xbfdb69bb59eec841	-0.42832835943693587
12	0x3fe1b968bcbaf809	0.5538829504146189
13	0xbfc6ab5ef7ab240d	-0.17710482686223408
14	0xbfc8fb90477819b3	-0.19517711152748304
15	0xbfaaffcab9be4065	-0.05273278729794199
16	0x3fd83adca55d492e	0.37859264515749913
17	0x3fb18e8987bb888d	0.06858119548590676
18	0xbfddc555eaef49e2	-0.46516941016048297
19	0x3fdf9705fbbed442	0.4935927351428441
20	0x3fbba494c99b89d9	0.10798005983409754
21	0xbfe2f881e9b8349a	-0.5928353848299992
22	0x3feb08b38bea4911	0.8448121769636449
23	0x3f94b972010e6143	0.020238667787994002
24	0xbfc75b3ae964831b	-0.1824716224300794
25	0xbfb97ad39ccaab9a	-0.0995304353515806
26	0x3fdc253d477cac67	0.43977291089203735
27	0xbf9c14b6534dda00	-0.027422760805587032
28	0x3fcdb22abf8d2531	0.23199972489445878
29	0xbfe65c0adfcf82fd	-0.6987356540012964
30	0xbfd013a7137e0c28	-0.25119950202514696
31	0xbfd26a9f8d136925	-0.28775776650367596

decoder.0.weight f8 [32, 4, 3, 3]
0	0x3fd4fa230c1ab471	0.3277671449857911
1	0x3fdd87009e206bf1	0.46136489336066605
2	0xbfb1858e00838cdc	-0.06844413292451484
3	0x3fbf7888b8dd45cd	0.1229329539612742
4	0x3fc39ae6fa593b68	0.15316474174548067
5	0xbfe990a514148b3c	-0.7989068405334829
6	0xbfe228e7466f1790	-0.5674930930770063
7	0xbfe812e239fd55eb	-0.7523051388367866
8	0xc00051acc80e3ff9	-2.0398803357456896
9	0x3fe03a11fa5757a0	0.5070886506534755
10	0x3fe578f103c8d9fe	0.6710133623044496
11	0x3fda47dc4acc311d	0.4106360178418685
12	0xbfdc580ff1623958	-0.44287489483476383
13	0x3fb91d427dd85d08	0.0981027180899795
14	0x3fb64c9ae32daa64	0.08710639997813413
15	0x3fd8415d651b987e	0.37898955224807895
16	0x3fd63a2d73563917	0.3473008753143331
17	0xbffea9324ace5b66	-1.9163077280151923
18	0x3fdba5f87f661019	0.43200504723813676
19	0xbf90afb3c7e0e7e8	-0.016295250963800273
20	0x3fd5b77c6fcedaa0	0.33932410162689486
21	0xbfc32bf4ef781eb3	-0.14977895443756992
22	0xbfef96af6aa1fc2e	-0.9871441919966679
23	0xbfe97673d26c8abc	-0.7957095250934212
24	0xbffb209e83ea2d6d	-1.6954636719627516
25	0xbffab1068ecc384c	-1.6682191446339116
26	0xc00642614f4c6388	-2.7824121661364565
27	0x3fe65e32d6dbbd73	0.6989988514377913
28	0x3fb922bad584ee89	0.09818618500588107
29	0xbf80eac6d55fbff5	-0.008260301005037699
30	0xbfd20d748efa3c23	-0.2820712467445807
31	0xbfd6cc390575c844	-0.35621476681911113
32	0xbfee5cd4fe564e60	-0.9488320319673669
33	0xc0095ecddcf57ce9	-3.171291090242097
34	0xbfd7880327d3b83b	-0.3676765335975493
35	0xc00573368c135b73	-2.681256384220825
36	0xbff2efeed4210693	-1.1835773741044349
37	0x3f776951f13d11f3	0.005715675437219836
38	0x3fade28335f72b45	0.0583687785507068
39	0xbfe9b3834264d81a	-0.8031631752735422
40	0x3fe9d1c7e29efcd5	0.8068580080215734
41	0x3fe3292b3cb1d1b9	0.5987754998628169
42	0xbfd9e2fc11d7bbe3	-0.40447904341175284
43	0xbff4aa9f7412c13c	-1.2916559728729018
44	0xbff0d79b9f88649c	-1.0526386481999799
45	0xbfdf76177c90449b	-0.4915827480736625
46	0xbfd0703d2e811e30	-0.2568505243438919
47	0x3fbf5fc94da89c2d	0.12255533357584687
48	0xbfd7fcacf7f30844	-0.3747970982914277
49	0xbfdb5e348071eda8	-0.42762482207737174
50	0x3ff27f08b0929b8d	1.1560141465540454
51	0x3fe3e5ec9551f974	0.6218169132624056
52	0xbfdbebd12d557197	-0.4362681334221405
53	0x3fbf9169ec047330	0.12331258785384303
54	0xc00c458332fe5396	-3.533941648851804
55	0x3fa370e8df9fa9cc	0.03797080735951716
56	0x3fbd5df8ffc95ef7	0.11471515888967675
57	0xbfee1d2aa919900d	-0.9410603811961679
58	0xbfa570a40bc6c407	-0.04187500613932831
59	0x3fdfcaf5c550eb84	0.49676269787931226
60	0xbfd864427a11c1c2	-0.3811193649371739
61	0xbfe7f7438b17ca65	-0.7489335743578748
62	0xbff5635ab2cc97a9	-1.3367564186423613
63	0x3fab3e3f95b4fed6	0.05320929243543808
64	0x3fc0997af153a6e6	0.12968384536298244
65	0x3fc00e0d73a254a9	0.12542884966084003
66	0xbff21e8605acd36b	-1.132452032249797
67	0x3fdf10b86bed58f8	0.48539553203353547
68	0x3fe1109be913302d	0.5332774688954537
69	0xbfec6e78e5a8911c	-0.8884853826062087
70	0xbff5f250c627c13d	-1.3716590633813006
71	0xbff8d8a0f6f19450	-1.5528878828274806
72	0xbffd363a66aa3fa9	-1.8257392893174063
73	0x3f9e920131751e49	0.029853838580747447
74	0xbfc942d83df989db	-0.19735243822203938
75	0xbfcf63dc733ea4c6	-0.24523501994307234
76	0x3fdf0a4ce8bbb3d5	0.48500368812420663
77	0x3fce65479aa98897	0.2374658112704011
78	0xbfbea6ba533f1968	-0.11973156483063507
79	0xbfe2697311a972ce	-0.5753722519835607
80	0xbf8f117c30912317	-0.015170068962235867
81	0xbfed91672bb5e66e	-0.9239993909570339
82	0xbfe1ac2d65c53d7b	-0.5522677409843902
83	0x3fc2eee260d3c066	0.1479151699818459
84	0xbfbee30db34c9f95	-0.12065206172394334
85	0xbfd69ad32f12899c	-0.3531997642222906
86	0x3fd37455a94a1b55	0.3039755013673376
87	0x3fdcb9c77d297deb	0.44883906576975957
88	0xbfe4750d491cac7c	-0.6392885616272816
89	0xbfc8ac8ac46cc882	-0.19276556578694587
90	0xc00df56fa258a4f5	-3.7448418315221894
91	0xbfbb78f39dd4bda9	-0.10731432536407816
92	0x3fd37210c4413d96	0.30383700528633406
93	0xbffd1288b71321cf	-1.817024912963564
94	0x3fd6191ffb957e0f	0.3452835041880186
95	0x3fc98fa37de64476	0.1996960034125867
96	0xc00614396641cb4f	-2.7598751057461537
97	0xbfe1d70e11323503	-0.557501824937987
98	0xbfca48ba2fe55d0d	-0.2053444608561467
99	0xbf98b9bc76a3fa0f	-0.024146027318233062
100	0x3fc15411c9209a58	0.13537809677764545
101	0xbfba2564f5b2c505	-0.10213309286588775
102	0xbfd5af74ec5d1fce	-0.3388340290298374
103	0x3fcfa2852ca464cb	0.24714722327988733
104	0x3fcaa71b5e3eaa76	0.20822469808384242
105	0xc004d4efe3e44ff4	-2.6039731792498007
106	0xbfde323f50e5d8dc	-0.47181685352496827
107	0xbfce54d631c4c220	-0.2369640105257682
108	0x3fe7704513bfc556	0.7324548135494904
109	0xbff89f9367adf271	-1.538958935735675
110	0x3fe01a33eacd7770	0.5031985841739992
111	0xbfdcf6a7703fc28e	-0.45255456888029577
112	0xbff91ee6fbf83507	-1.5700445025025276
113	0x3fbdeae7ab6db962	0.11686561522740171
114	0xbfc241b19c4ecae7	-0.1426298154088592
115	0xbfd82c958bb1dea9	-0.37772120134421044
116	0x3ff6feec87df68d4	1.437237292053898
117	0xbff8e0bfcf88e48f	-1.554870424921578
118	0xbfe9d27795ad8f89	-0.8069417880437736
119	0xbffd9fc2e3f4e785	-1.8515042213971082
120	0x3fdbead491cfc278	0.43620790709886803
121	0x3fd699908c75e38c	0.3531228419956782
122	0xc004d602b8d04c08	-2.604497379166336
123	0xbfa25f1b5cc23f0c	-0.035881857941715806
124	0x3fc631cbb199da92	0.17339464351581008
125	0x3fdc90c7eea0214b	0.4463367300345637
126	0xbfd3ee8acc019927	-0.31143445894703564
127	0xbff5ab54451398ca	-1.3543284128477802
128	0xbfdb611c26ff02b2	-0.4278021221944456
129	0xbfe676ba93eadf87	-0.7019932641041898
130	0xbfe1bb16854926c2	-0.5540878871190318
131	0xbfc9930ea25bcf9b	-0.19980032851856042
132	0xbff3ec9a52b4608b	-1.2452643614433636
133	0xbff8add3a507db07	-1.5424381681929746
134	0x3fd50452ec92a216	0.3283889112740622
135	0xbfb5a5497901fdf3	-0.08455332950870069
136	0x3fa8c4add7816611	0.04837554221803598
137	0x3fe24da2179f1fe1	0.5719767056807507
138	0xbfc1bb11a0f2c28f	-0.1385213886146812
139	0xbfcce9f7863f5e6e	-0.22589010291152384
140	0xbfdd492861c3c520	-0.457590194199911
141	0xbffbb79811272e7d	-1.732322756771196
142	0xbfb2342fc7723e6f	-0.07110880488675674
143	0xbfd3794fe96cb980	-0.30427930636769673
144	0x3fad612f4d424d3d	0.05738208597281378
145	0x3fdc68be509d0dbf	0.4438930308571933
146	0xbfb3dbb3f079d9be	-0.0775711500262792
147	0x3fd9acf359faa969	0.401181066389333
148	0x3fd7598686eded64	0.3648392026586491
149	0x3fce8b5f9be54d52	0.23862834083647982
150	0xbfd49098e0d1b6b6	-0.3213255115032142
151	0xbfe3a1361c8cd2a3	-0.6134291226977279
152	0xbff95a83a13b455c	-1.584598188219693
153	0x3fbd0b9cee046b48	0.11345845042198477
154	0x3fb7bc024069cb9f	0.0927125365504211
155	0xbf676c3e30a637a1	-0.002859231438555335
156	0xbfdd77ba1619684d	-0.4604325500309912
157	0xbfe4b9af4ef04321	-0.6476666013496449
158	0x3fd9decfaa77533b	0.40422431609231396
159	0x3ff03f9348732dac	1.0155213193964796
160	0x3fe3bdf1ebea0a18	0.616936646242098
161	0xbff1fd52a6b1e59c	-1.1243464004058756
162	0x3fd2cf3b5ac6b075	0.2938984285817761
163	0x3fd93d8c8402793f	0.39438164607590304
164	0x3fc717a150a1ce91	0.1804086345397207
165	0xbfb0114aa172ec52	-0.06276384774803148
166	0xbfd01ccf9f2eb2ba	-0.25175848527105027
167	0x3fb3c125ff4e99d6	0.07716596110422044
168	0xbfc917c672845bed	-0.19603806106235258
169	0xbffb137b4d4346ef	-1.6922562616422814
170	0xbffc6eb5e895d9ab	-1.7770289502492271
171	0x3fe422e648e7e440	0.6292601989690709
172	0x3fe97e4a5f1c19de	0.7966663224804582
173	0x3fdc303190241bae	0.4404415042521873
174	0x3fba75b9dc43536a	0.10335885646357004
175	0x3fe0754ec8b42282	0.5143197937005228
176	0x3fd7eb88cbe73c30	0.3737508765452189
177	0xbfe1709154c1d57c	-0.5449911742604594
178	0xbfee7c3774c8e840	-0.952663162322331
179	0xbfd402e5245550c4	-0.3126767020051029
180	0xbfc4ddf134a58479	-0.1630231387198682
181	0xbfbfb6f4e3b0c2c9	-0.12388544615601939
182	0x3fc3744475b96cfa	0.15198570011384743
183	0x3fad56c0348f8450	0.05730248109444658
184	0x3fbc4a550a36461d	0.11050921916309915
185	0x3fcfd8494bd4ed27	0.24878803446504458
186	0xbfe1d8a493c57441	-0.55769566403945
187	0x3ffe27bcefaa9253	1.8847016679730089
188	0x3fd6fd880c9ade8b	0.35922433119728997
189	0xbfb62579757143d4	-0.0865093147015295
190	0x3fee79386b2b12ed	0.9522974103097944
191	0x3ff1b50a89b0f141	1.1066995028077857
192	0xbff0ca6553576f95	-1.0494130378274111
193	0x3fc76462e274f93a	0.18275104577510054
194	0x3fe1e846dbc4a86b	0.5596041004512363
195	0x3fe5028021914bcc	0.656555238305708
196	0xbfa286b7743dbea3	-0.03618405622444001
197	0x3fec9b8f7575473d	0.8939893049339173
198	0xbfc906c83977a298	-0.19551947408696857
199	0x3fd0b06d21f33ed9	0.260768206743689
200	0xbfbc3d964236ff51	-0.11031474224637107
201	0xbfd72e4d4c96ec89	-0.3622010467476647
202	0x3fd387124cfd3532	0.3051191093298541
203	0x3fbb5992f3b1c04a	0.10683554124420983
204	0xbff0d5c7ed392d79	-1.0521926180398096
205	0x3fd30da3faae836d	0.2977075527251632
206	0x3fe00fdd8eb6f055	0.501936701526129
207	0x3fd7289f60064afa	0.36185440423393767
208	0x3fcb810ffa40c1f9	0.21487617225058367
209	0xbfb833353c6b3181	-0.09453137135569102
210	0xbfc68026486dab73	-0.17578581368010368
211	0x3fa24e69910bf5d9	0.03575448890294881
212	0xbf9cb5e32b5aec39	-0.028037595292271986
213	0xbfef2d57427efee9	-0.9742847727538592
214	0x3fe097adb6fc431b	0.5185154508527349
215	0xbfdab03c2f1567ca	-0.4170065364647796
216	0x3fc5f01e2b9d4dc9	0.1713903153382559
217	0x3fbe299bf672dbd6	0.11782240645230443
218	0xbfbbc10086c1280c	-0.1084137276640435
219	0x3fda3389cf6667cd	0.4093956494704088
220	0x3fe451037ddb85a7	0.6348893602518516
221	0x3fb573637e847475	0.0837919410591484
222	0x3fa9e8efc9d879d1	0.050605290784222164
223	0xbfb003ba144a1b6a	-0.0625568675551286
224	0x3fba981f71fc09f7	0.10388371022057884
225	0x3fdc6b4eb49b18cc	0.44404952657022245
226	0x3fea4bf298182e12	0.8217709513277802
227	0xbfcb0d7f3e99e232	-0.21134939724631036
228	0xbfc6fb8021938034	-0.17955018653356236
229	0x3fd216e00ecdc99a	0.2826461929863854
230	0x3fe4a66c4243e071	0.645315293716534
231	0xbff1b16c06e1a41e	-1.1058159130864236
232	0xbfeac931884a3fd9	-0.8370597516932278
233	0xbfd50a48fbb148f0	-0.3287527521071203
234	0x3fcf406559172fa6	0.24415270662427452
235	0x3fc96be8e11c5046	0.1986056422398425
236	0x3fbf6ad0bca0f7df	0.12272362332529906
237	0x3fd6e790b5424f25	0.35788362217975794
238	0x3fdf2930eb00ceea	0.48688910436179234
239	0x3fc9fd4ddc76b25f	0.20304272904231177
240	0x3fd217eafb90c948	0.2827098328299553
241	0xbfdab9680dce6cf7	-0.41756631229664215
242	0xbfc35276338ef03f	-0.1509540321111462
243	0x3fb517888adf9a60	0.08239034071412155
244	0x3fc97ee77b7b3819	0.19918530969010886
245	0xbfb95889a88c1aa1	-0.09900722851680623
246	0x3fe4812435c2ea87	0.6407643365885897
247	0x3ff19d90c4ec98b7	1.1009681408263938
248	0x3fd7e0e131a42497	0.3731005654122525
249	0x3f8a0a984fac457b	0.012715520793366455
250	0xbfdb08c0a6950911	-0.42240921275892257
251	0xbfd5c8125ebdd7a5	-0.34033641101938833
252	0x3fbede06ba4ed403	0.12057535217793718
253	0xbfc1648db9a4cbca	-0.13588115276942708
254	0x3fd4ff73e069100f	0.3280915919788194
255	0x3fd7526f2c31459c	0.3644063884322237

decoder.0.bias f8 [4]
0	0xbfafac839b69cccb	-0.06186305305609493
1	0x3fc74479c392afab	0.18177721070730732
2	0x3fd1c67d2c2b2226	0.27773980439499935
3	0x3fa24a5dde9fc48f	0.03572362272814999

decoder.2.weight f8 [4, 4, 3, 3]
0	0x3feb55b9b52bb306	0.8542145288934939
1	0xbfc0a840fd00ac89	-0.13013470033306287
2	0x3fef3bdccea45f90	0.9760574375131785
3	0x3ffa302d178db32b	1.6367617530879197
4	0xbfff14323378e8ed	-1.9424306879650957
5	0x3fb8269ffa1f9134	0.0943393693592654
6	0x3ff52990d4009692	1.3226478844966647
7	0x3ff205fc647ab814	1.1264614033675615
8	0x3fc238e915ec1328	0.14236177034776998
9	0xbfd2f77edaec4c3b	-0.29635592822268436
10	0x3fe7680d55bf4b28	0.7314516710997383
11	0x3fee1275695e1eee	0.9397532518350695
12	0xbfe72a7be63fe2ca	-0.7239360329686744
13	0x3fcc0cdfaf19ad7b	0.2191428761465025
14	0xbff236aad17b17c5	-1.1383464987606982
15	0x3ffafcce8df7c303	1.68672042328052
16	0x3fd052fe50c9cfd3	0.25506551637158487
17	0x3fd268fe0d0275c3	0.2876582266852347
18	0x3ff11335864fee24	1.0671897169658076
19	0xbff552addf0518a9	-1.3326853477206362
20	0xbfe156e8df6d64f0	-0.5418590892615196
21	0x3fed5a81eea48708	0.9172982846250486
22	0xbff7b7a351193bce	-1.4823334854042858
23	0x3fcbabf8d7469ab5	0.21618567000878888
24	0xc0010e59247c5656	-2.132005963367912
25	0x3ff36b90a6231bc4	1.2137609948856474
26	0x3fb8d730f58895a9	0.0970335578391174
27	0xbff0c691337fd3be	-1.0484783183758135
28	0x3fc3452d057c956e	0.15054857986357767
29	0x3fada8625feb4d22	0.05792529507530221
30	0x3fe1ff1ef0486c77	0.5623926823640336
31	0x400323ff650715ea	2.3925769703662256
32	0x3fdb2d084296b4dd	0.4246235513954398
33	0x3fbd7b4067bc3c07	0.11516191990470769
34	0xbfe1f57a1c447709	-0.5612154533480133
35	0xbfd03402f63e5196	-0.25317453429422565
36	0x3ff159a2196815ba	1.0843831055111495
37	0x3fe6e6577d879386	0.7156178905248545
38	0x3ff4501b744ce76f	1.2695574324593186
39	0xc0042744f9086287	-2.519174523895632
40	0x3fa6cc5e86ed13e8	0.04452796361014305
41	0x3fda6dd77b86d1d8	0.41295420706890473
42	0x3fda12c25ed37c04	0.4073949743305436
43	0xbfd2d21acd796104	-0.29407377305825855
44	0x3fda16a098e45391	0.4076310628018343
45	0x3fd2919aa57b9bd1	0.29013696823534213
46	0xbfe319f351553291	-0.596917780736094
47	0xbff4dbdd83ccd0c0	-1.3036780498924117
48	0x3ff72cfdf3bff50a	1.448484375140938
49	0x3fe773b4d276bf2c	0.7328743086454543
50	0xbfc0dc0d011c9f1c	-0.1317154174259877
51	0xbfce27c3dcb10ec1	-0.23558853412588657
52	0xbfb5e512dacf5801	-0.08552663652457683
53	0xbff5dc99c745cdaf	-1.3663575920189535
54	0xbfbb417fbd23098b	-0.10646818511580684
55	0x3fe7f331069183a8	0.7484364631928786
56	0x3fa3926757514c8b	0.038226346405871935
57	0xbfe0deebad1c88c5	-0.5272119885524026
58	0xbfe26663c637c2ea	-0.5749987479631191
59	0x3fc34374d8651208	0.150496106778647
60	0x3fdf3174e91d5d8b	0.4873935963164164
61	0xbfe755faaa9e201e	-0.7292455036522403
62	0x3fe0afa46c03c651	0.5214407071745858
63	0xbfe5458e78459976	-0.6647407864627854
64	0xbff0f4881500c9f5	-1.0597000904496074
65	0xbfe98c62e188b6a2	-0.7983869938813835
66	0x3fe636ce7917e38d	0.6941902508834673
67	0x3fb88900aeabaf30	0.09584049477024048
68	0x3f933537fbb5dfa9	0.01875770067041996
69	0x3fb78a3d68e66ae5	0.09195312319790679
70	0x3ff3bbe5c76d782c	1.2333734312192162
71	0xbfc0217ef78c4965	-0.12602221572212638
72	0x3fea931d097d30e5	0.8304581818897786
73	0x3fe9473728ee0813	0.7899432944689145
74	0x3fb331e87b91992f	0.07498028771224051
75	0xbfa3c57666734966	-0.03861589432348715
76	0xbfe8e1435ddb39a6	-0.7774979432231717
77	0x3fdbb0f1125ed37c	0.4326746634863452
78	0x3ffe72792c24837d	1.9029475902864015
79	0x3ffb0d05992f4267	1.6906791671537122
80	0x3fe9d90f87658cf6	0.8077466625658463
81	0x3fe2bfd25da048b0	0.5859157398829407
82	0xbfd1f8515f9aaa9a	-0.28078111969322495
83	0x3fd7aa702e917587	0.3697777228133749
84	0xbfa9a409fbe29b04	-0.05007964324732053
85	0x400ae6b863212dd2	3.362656378221552
86	0x400843e163be0986	3.0331447403306724
87	0xbff74657dd7c5a33	-1.454673638514248
88	0x3fe2d50331097984	0.5885024984125242
89	0x3fcc8cef3fcd457e	0.22305098166775034
90	0xbfd90313fc1a88e6	-0.3908128702115746
91	0xbff59d9db33a495b	-1.35098047266782
92	0xbff20dacc1a11d31	-1.1283385814329672
93	0x3f7a9773a6c34712	0.006492091906879842
94	0xbff5d2425d776e78	-1.363832821944838
95	0xbfdbdb7286b64b63	-0.43526900439717603
96	0x3fcaad88c4e1753d	0.20842084515872186
97	0xbfe7dcd94a64a28d	-0.7457090809812869
98	0xbfdc81725425cd38	-0.4454007932428854
99	0x3ff032a332827f47	1.012362668327073
100	0x3fe83e49fc907b90	0.7576036389253762
101	0x3fe331474b80216a	0.5997654413813909
102	0x3ff167ad177c9ed1	1.0878115575268803
103	0x3ff42abcd7e85507	1.2604340013397761
104	0xbff2bef4532efefb	-1.17161972516618
105	0xbfc0b7e34f88757a	-0.130611814341062
106	0x3fe197b85ea22cc7	0.5497705314932312
107	0x3ff6176430474555	1.380710781657702
108	0x3ff36345dfd2d581	1.211736559210607
109	0x3fe1405478a105b3	0.5391027790102981
110	0x3ff0853ccc0f0e99	1.0325286837623138
111	0x3ff5406354a6e67a	1.3282197291104283
112	0xbff10912faf6edc2	-1.064715366678556
113	0xbfb86751a9d3c15e	-0.09532652279063344
114	0xbfd006c97e67cfa0	-0.25041425079620616
115	0x3ff2e1592794cd42	1.1800166650908328
116	0x3ff000f07f8982f4	1.0002293569488616
117	0xbfdb2f94190c7f06	-0.42477896162198225
118	0x3fc2a29ca4eab000	0.14558752110076512
119	0x3fdb4c9137a3c392	0.4265482943874811
120	0xbfed396e02b36d7d	-0.9132604649307009
121	0x40069c9d4a8f4218	2.8264718842476775
122	0x3ff7d6336fe64ab4	1.4897951479985467
123	0xbfe24025bf0f9f1e	-0.5703304988537388
124	0xbff15593b926d4c6	-1.0833928329932845
125	0xbffc9b0314ddb5c5	-1.7878447356300609
126	0x3fbdb04a6a4ac7e9	0.11597123236677444
127	0xbff87b47cf9de7c5	-1.5300977811843819
128	0xbfe67d11050e4089	-0.7027669047111128
129	0x3ff54a1875e57d8e	1.3305897336320842
130	0xbfe6f099f119844a	-0.7168702801683449
131	0x3ff07318753c7898	1.0280994967975285
132	0xbff123460d3d6355	-1.0711117283992355
133	0x3ff05c6f67b1adec	1.0225671816395971
134	0x3fd48221f4564fcc	0.3204426656823187
135	0xbfe2a96a2ce59609	-0.5831805111781146
136	0x3fc32c2b654238b8	0.149785446589197
137	0x3fe39420e8473fbd	0.6118320976911417
138	0xbff37c1de45e61c9	-1.2178019447948023
139	0x3ffb4ff9c315f144	1.707025301030698
140	0x3fee3ab745b98f2c	0.9446674691975878
141	0x3fd3c3e6f3f58666	0.3088319189465437
142	0xbfe2d385f0386851	-0.5883207027247953
143	0x3fc7fabb22cbd84b	0.18733920287167147

decoder.2.bias f8 [4]
0	0xc0000c4fd7c8aa10	-2.0060116632569205
1	0xc004683effe9976e	-2.5509014123116946
2	0x3fe27d4c2581c60c	0.5777950985486213
3	0xc0049f5eee330666	-2.577817784244689

decoder.4.weight f8 [4, 1, 3, 3]
0	0xbfd09a7a20aec358	-0.2594285315672571
1	0xc002a776cee811cf	-2.331769577462388
2	0xc00539347b8a4120	-2.652932133824052
3	0xbfe008c3ed333966	-0.5010699875654552
4	0x4004685980b422f3	2.5509519629452995
5	0xbfe37e03d0ac3d05	-0.6091326785698646
6	0xbfef89c3efa66b4d	-0.9855670624413989
7	0xbfdd781737ce50ff	-0.4604547543506356
8	0xc001dcf3c7195d1f	-2.2328868441214946
9	0xbfdfd80c0f98adc1	-0.4975614692982298
10	0x3fcdb4c97f5f6e1e	0.23207968444226962
11	0x3ff00dd125023aef	1.0033732839253238
12	0xbfe30c83c21caa52	-0.5952776709794512
13	0xc007c00873e78d4c	-2.9687661223448796
14	0x3fd069d79268b9ad	0.25646008775484114
15	0xbf9d1172871c9903	-0.02838686895042831
16	0xbfe79a330c31802e	-0.7375731695319752
17	0x3fe16e634a79b29c	0.5447250799748704
18	0x3fef69e862d0d231	0.9816781930918009
19	0xbfeebe1521d118a8	-0.9607034359439881
20	0x3ff18cb6600c3037	1.0968536140308183
21	0xbfe46cbe5bf4e59d	-0.6382743640926268
22	0x40047548d3109965	2.5572678079071687
23	0x3fb95810707475e3	0.0990000032947687
24	0x3fe9eb66f5df1ed3	0.8099856187991129
25	0x4002498bea6d5d23	2.2859113993287266
26	0x3fc5834994961b7e	0.16806907420342648
27	0xbfecac26b6c01f5c	-0.896014553961304
28	0x3fe31497fd53f8a7	0.596263880521083
29	0x3fc5d96c8d2a8639	0.17069775479198926
30	0x3fd9070cd1c03930	0.3910553024624219
31	0xc008007471000f48	-3.000222094358751
32	0xbfe69f14e4004533	-0.7069191411157248
33	0xbfd31c817b28293c	-0.2986148550704859
34	0xbfe8a235791db53c	-0.7698008885906016
35	0x3fd94724600d8a73	0.394967168618826

decoder.4.bias f8 [1]
0	0x4002167416218ca9	2.260963604830597

exp_avg f8 [8, 1, 3, 3]
0	0x3ed1edad8d85ecf8	4.27447067640894e-06
1	0xbf106768948a83cc	-6.257606322403116e-05
2	0xbef3f61603e42188	-1.9036553788460915e-05
3	0xbf093aeb429b9d3d	-4.8122696467529297e-05
4	0xbf2494a4e64a2f16	-0.00015701783117482636
5	0xbef8b8bae270e909	-2.3576356536583252e-05
6	0xbf14cf9ae7dd9394	-7.938750237952561e-05
7	0xbf1787196b953ee7	-8.975117352360736e-05
8	0x3edb5668da1ccd90	6.517776826520271e-06
9	0xbef34586656514a5	-1.837881276258294e-05
10	0xbf0abe3f2580e7e9	-5.1008512571518016e-05
11	0xbef2945fa0ad4eee	-1.7718872224860753e-05
12	0x3ee5fae4db3cead8	1.0480906759026949e-05
13	0xbf14e09067b0e328	-7.96402108996895e-05
14	0xbef93b5fba87aadc	-2.4063043072712324e-05
15	0xbeea9e85df886855	-1.269303810240791e-05
16	0xbf0c29c752356e2a	-5.371703653153329e-05
17	0x3ed44566a625d720	4.8330062746204845e-06
18	0xbf055354346a979e	-4.0675170159417575e-05
19	0xbeda7cd6910329cc	-6.315147644107192e-06
20	0x3ee1157fba91fedd	8.146276586850694e-06
21	0xbef743f1514d02a7	-2.2187615360327397e-05
22	0xbedb059346085baa	-6.442494026723703e-06
23	0xbef3e9aa03e45fae	-1.8990278698088614e-05
24	0xbee76c5286eccc12	-1.116902077811201e-05
25	0xbee4e4c33ae20ee8	-9.962846743378576e-06
26	0x3ec51582964e73cc	2.513411504213923e-06
27	0xbee44bb5e96a71aa	-9.677765132658944e-06
28	0xbef2e31a89152cdc	-1.8012164735109522e-05
29	0xbed7387af96ebff8	-5.536228761579547e-06
30	0xbedb13146fe6717f	-6.455071114433072e-06
31	0xbed0582078a83b24	-3.896771782154252e-06
32	0x3eda46da80662255	6.26487054090264e-06
33	0x3eb1babed98ceb44	1.0567590377891096e-06
34	0x3e8b9692cf730100	2.0554794108972719e-07
35	0xbed0b2dc8643a2b0	-3.9812749472531716e-06
36	0xbf13d3c10328ca31	-7.563462785568281e-05
37	0xbf0cf277af3d0734	-5.5212285501328456e-05
38	0xbec7f7f6aa58ed23	-2.8572806794171045e-06
39	0xbf10cf46c5493066	-6.412381601100941e-05
40	0xbf0ddd217ee7f8ad	-5.696066351744528e-05
41	0xbf162ff80c040726	-8.4638132651829e-05
42	0x3ec217e721ad05d0	2.156897847355807e-06
43	0xbf0052ff1d9fe706	-3.113595057864346e-05
44	0xbf0a2facf8d2a453	-4.9946275887898524e-05
45	0x3ef69eb990de151e	2.1572131167176265e-05
46	0x3eb065cb14dd06b5	9.77374912961379e-07
47	0xbe7ab2b999618ad1	-9.945833876057729e-08
48	0x3f10174e1f9421e2	6.138243033516165e-05
49	0x3edcd5a0abb2ecaa	6.874676439834441e-06
50	0x3eb2c86303904e23	1.119539787324059e-06
51	0x3efef7c0b5a00634	2.953318048782277e-05
52	0xbee7b912dd949c02	-1.13119812562134e-05
53	0x3eb06bf8c6f14da8	9.788134567493188e-07
54	0xbf116a438afa7a2c	-6.643330811548974e-05
55	0xbf0458cace6269a6	-3.880852618572414e-05
56	0x3eb8a3a88ef2a394	1.4686161724874882e-06
57	0xbf0af8a0cc2b9cc3	-5.1443488265517856e-05
58	0xbf01eff0f0cdf143	-3.4212627816084775e-05
59	0xbf10e59f47974d4a	-6.44567934593904e-05
60	0xbee30ab9dd7d3ceb	-9.0798848046123e-06
61	0xbefa6b023620fd70	-2.519417046919825e-05
62	0x3e9d0ee4d9307840	4.3300061597525185e-07
63	0xbee152cf16229fc7	-8.260475344037858e-06
64	0x3ef326d36ff4f049	1.826444986118028e-05
65	0x3ed37b546f727c20	4.644812853587247e-06
66	0xbed7225a246198bd	-5.515620221973973e-06
67	0x3ef3f416bb834f05	1.902911364555419e-05
68	0x3ed960e62906fa32	6.050708762860142e-06
69	0xbee3fcdec89de013	-9.53091354792549e-06
70	0xbeb345eaddd65eb0	-1.1487671750294564e-06
71	0xbed15710c5555c98	-4.134201920655927e-06
