checkpoints/LSTM_AD_5G/model.ckpt (torch, 148433 bytes, 22 tensors)

lstm.weight_ih_l0 f8 [256, 2]
000000 00 00 00 40 09 7d b0 3f 00 00 00 80 8a 3f ac bf
       0.06440789997577667 -0.055172279477119446
000010 00 00 00 00 74 d0 98 bf 00 00 00 00 24 0a ae 3f
       -0.024232685565948486 0.05867111682891846
000020 00 00 00 40 40 20 be bf 00 00 00 40 e2 30 b3 3f
       -0.11767961084842682 0.07496465742588043
000030 00 00 00 00 35 55 9a bf 00 00 00 40 a1 47 b0 3f
       -0.0257156640291214 0.06359298527240753
000040 00 00 00 00 4f cb 91 3f 00 00 00 00 80 58 8f bf
       0.01737712323665619 -0.015305519104003906
000050 00 00 00 00 48 c0 a1 3f 00 00 00 00 04 42 79 3f
       0.034670114517211914 0.006166473031044006
000060 00 00 00 00 e6 5f a7 3f 00 00 00 80 dc f0 a8 bf
       0.04565352201461792 -0.04871262609958649
000070 00 00 00 00 26 aa 82 bf 00 00 00 00 08 0c 87 bf
       -0.009113594889640808 -0.011253416538238525
000080 00 00 00 00 86 8d 92 3f 00 00 00 00 e0 5c 40 bf
       0.0181179940700531 -0.0004993528127670288
000090 00 00 00 80 2c f9 bb 3f 00 00 00 00 8a ea a3 3f
       0.109270840883255 0.038898766040802
0000a0 00 00 00 00 81 d5 a7 bf 00 00 00 c0 a6 53 b3 bf
       -0.04655078053474426 -0.0754951685667038
0000b0 00 00 00 00 6e 74 95 bf 00 00 00 00 16 9b ab bf
       -0.020951956510543823 -0.05391758680343628
0000c0 00 00 00 80 3a 82 a4 bf 00 00 00 00 f0 83 78 3f
       -0.04005606472492218 0.00598520040512085
0000d0 00 00 00 80 7a 13 b3 3f 00 00 00 00 a7 64 b1 3f
       0.07451596856117249 0.06794208288192749
0000e0 00 00 00 c0 18 48 bf bf 00 00 00 80 63 d6 b3 3f
       -0.12219385802745819 0.07749006152153015
0000f0 00 00 00 00 19 e1 a1 3f 00 00 00 00 91 5a be 3f
       0.03492048382759094 0.11856943368911743
000100 00 00 00 c0 35 1f b5 3f 00 00 00 40 0a 28 bd bf
       0.08250747621059418 -0.11389221251010895
000110 00 00 00 c0 05 6d be bf 00 00 00 80 87 de ae bf
       -0.11885105073451996 -0.06029151380062103
000120 00 00 00 c0 7d 19 bc 3f 00 00 00 00 22 52 95 bf
       0.109763965010643 -0.02082112431526184
000130 00 00 00 00 b0 63 ab 3f 00 00 00 00 d5 bd ad bf
       0.053494930267333984 -0.05808892846107483
000140 00 00 00 40 23 66 bf 3f 00 00 00 80 0b 14 ab bf
       0.12265224754810333 -0.05288730561733246
000150 00 00 00 40 62 ff b7 3f 00 00 00 00 70 40 58 3f
       0.09374059736728668 0.001480206847190857
000160 00 00 00 40 b0 db b0 bf 00 00 00 40 cf 72 b0 3f
       -0.06585218012332916 0.0642518550157547
000170 00 00 00 80 7a fc b0 bf 00 00 00 80 9c d2 a2 3f
       -0.06635251641273499 0.036763086915016174
000180 00 00 00 80 ff 7a a2 bf 00 00 00 00 00 11 8c bf
       -0.036094650626182556 -0.013704299926757812
000190 00 00 00 00 b1 c3 be bf 00 00 00 80 97 83 ae bf
       -0.12017351388931274 -0.059597715735435486
0001a0 00 00 00 00 42 5d b1 3f 00 00 00 00 28 1d 9f bf
       0.06782925128936768 -0.03038465976715088
0001b0 00 00 00 40 a3 df bf 3f 00 00 00 c0 9c a6 b9 3f
       0.12450619041919708 0.10019855201244354
0001c0 00 00 00 00 44 f9 77 bf 00 00 00 80 05 5c b5 bf
       -0.005852952599525452 -0.08343538641929626
0001d0 00 00 00 40 9e 7c b3 3f 00 00 00 00 e4 dc a3 3f
       0.0761202722787857 0.038794636726379395
0001e0 00 00 00 80 78 af b4 bf 00 00 00 c0 11 c9 b4 3f
       -0.08080247044563293 0.08119307458400726
0001f0 00 00 00 c0 60 6d b3 3f 00 00 00 80 71 61 bc 3f
       0.07588772475719452 0.1108618676662445
000200 00 00 00 c0 1a f0 b1 bf 00 00 00 00 cf 11 95 bf
       -0.07006995379924774 -0.02057574689388275
000210 00 00 00 00 38 d6 63 bf 00 00 00 00 03 b2 92 3f
       -0.0024214833974838257 0.01825718581676483
000220 00 00 00 00 0f 49 b8 bf 00 00 00 00 3a b5 b6 bf
       -0.09486478567123413 -0.08870279788970947
000230 00 00 00 40 7c 68 b1 3f 00 00 00 00 d5 03 9e bf
       0.06800056993961334 -0.029311493039131165
000240 00 00 00 00 26 43 af 3f 00 00 00 00 68 30 7d 3f
       0.06105917692184448 0.00712624192237854
000250 00 00 00 00 9a 03 a5 3f 00 00 00 00 50 25 9c 3f
       0.041043102741241455 0.027486085891723633
000260 00 00 00 80 36 45 a7 3f 00 00 00 80 b9 b9 af 3f
       0.04544992744922638 0.06196384131908417
000270 00 00 00 c0 b5 a2 bd bf 00 00 00 80 74 1b b0 3f
       -0.11576400697231293 0.06291893124580383
000280 00 00 00 40 fc 7f b6 bf 00 00 00 00 f0 24 b8 bf
       -0.08789040148258209 -0.0943136215209961
000290 00 00 00 00 10 23 7f 3f 00 00 00 00 e7 cf 95 bf
       0.007601797580718994 -0.021300897002220154
0002a0 00 00 00 c0 5b cb b2 3f 00 00 00 80 47 88 b2 bf
       0.07341550290584564 -0.07239195704460144
0002b0 00 00 00 40 8a 72 bc bf 00 00 00 c0 e1 49 b7 3f
       -0.1111227422952652 0.09097109735012054
0002c0 00 00 00 00 e6 fa 92 bf 00 00 00 40 a6 ff b1 3f
       -0.018535226583480835 0.07030715048313141
0002d0 00 00 00 00 34 93 a4 3f 00 00 00 80 fa fe b7 bf
       0.04018557071685791 -0.09373441338539124
0002e0 00 00 00 00 09 b7 99 3f 00 00 00 00 c3 be 9e 3f
       0.02511228621006012 0.03002457320690155
0002f0 00 00 00 40 06 6d b5 bf 00 00 00 00 c1 5d ae bf
       -0.08369483053684235 -0.059309035539627075
000300 00 00 00 80 8b d2 a5 3f 00 00 00 00 7d ed 96 3f
       0.042621955275535583 0.022390320897102356
000310 00 00 00 00 4e 39 ab bf 00 00 00 80 b2 5f a3 bf
       -0.05317157506942749 -0.037839487195014954
000320 00 00 00 40 e9 4e bd 3f 00 00 00 00 c7 ae 97 bf
       0.11448533833026886 -0.023127660155296326
000330 00 00 00 c0 94 0a b2 3f 00 00 00 00 53 b6 ab 3f
       0.07047395408153534 0.05412539839744568
000340 00 00 00 00 5e af b4 bf 00 00 00 00 b8 36 bb bf
       -0.08080089092254639 -0.10630369186401367
000350 00 00 00 80 68 b7 be 3f 00 00 00 00 28 bc 7a 3f
       0.11998608708381653 0.0065270960330963135
000360 00 00 00 c0 45 ef b5 3f 00 00 00 00 8f 86 9a 3f
       0.08568225800991058 0.02590392529964447
000370 00 00 00 80 77 95 a4 3f 00 00 00 c0 15 e7 b7 3f
       0.04020284116268158 0.09336982667446136
000380 00 00 00 40 c6 57 be 3f 00 00 00 40 0e 3c b5 bf
       0.11852683126926422 -0.08294762670993805
000390 00 00 00 00 f3 00 90 3f 00 00 00 00 57 e1 b7 3f
       0.015628620982170105 0.09328216314315796
0003a0 00 00 00 80 92 2e b7 3f 00 00 00 80 2f e1 b3 3f
       0.0905543863773346 0.07765480875968933
0003b0 00 00 00 80 b4 28 b7 bf 00 00 00 00 18 0b b7 bf
       -0.09046486020088196 -0.09001302719116211
0003c0 00 00 00 00 4a 5a b3 bf 00 00 00 00 97 14 90 3f
       -0.07559645175933838 0.01570354402065277
0003d0 00 00 00 c0 ad e4 bf 3f 00 00 00 c0 af 36 b4 bf
       0.12458311021327972 -0.07895945012569427
0003e0 00 00 00 40 5c 0d b1 3f 00 00 00 c0 2c b6 b1 bf
       0.06661011278629303 -0.0691860169172287
0003f0 00 00 00 40 3f 16 be bf 00 00 00 00 80 34 9b bf
       -0.11752696335315704 -0.026567459106445312
000400 00 00 00 00 fe 6f b2 3f 00 00 00 40 3f b5 bd 3f
       0.07202136516571045 0.11604686081409454
000410 00 00 00 c0 8c df b3 bf 00 00 00 00 06 c7 9b 3f
       -0.07762984931468964 0.027126401662826538
000420 00 00 00 00 8d 9c bb 3f 00 00 00 40 75 34 b5 3f
       0.10785752534866333 0.08283169567584991
000430 00 00 00 80 71 f1 b3 3f 00 00 00 80 80 bd b6 3f
       0.0779028832912445 0.08882907032966614
000440 00 00 00 00 93 3d b4 3f 00 00 00 80 ed 87 a0 3f
       0.07906454801559448 0.03228704631328583
000450 00 00 00 c0 da e1 b5 bf 00 00 00 40 4d df ba bf
       -0.08547751605510712 -0.1049698144197464
000460 00 00 00 80 7c 53 ad bf 00 00 00 00 66 cf 8d bf
       -0.05727757513523102 -0.014555737376213074
000470 00 00 00 00 4e 9d b3 bf 00 00 00 80 25 6a a7 3f
       -0.07661902904510498 0.04573170840740204
000480 00 00 00 00 a6 ce a3 3f 00 00 00 00 d5 fb 9c bf
       0.03868597745895386 -0.028304412961006165
000490 00 00 00 00 0a 99 a8 3f 00 00 00 00 0f af a4 3f
       0.04804259538650513 0.040398091077804565
0004a0 00 00 00 00 89 89 b3 3f 00 00 00 c0 d9 8c b5 3f
       0.07631736993789673 0.08418045938014984
0004b0 00 00 00 80 7c ac a5 bf 00 00 00 40 cb 43 bf 3f
       -0.04233159124851227 0.1221282035112381
0004c0 00 00 00 00 78 98 8d bf 00 00 00 00 1c 97 71 bf
       -0.01445096731185913 -0.004294499754905701
0004d0 00 00 00 00 44 34 be bf 00 00 00 00 81 98 b4 bf
       -0.11798501014709473 -0.08045202493667603
0004e0 00 00 00 80 cb b1 b2 bf 00 00 00 00 d0 5f ab bf
       -0.07302543520927429 -0.05346536636352539
0004f0 00 00 00 40 43 c0 b6 3f 00 00 00 00 fb e9 a4 bf
       0.08887119591236115 -0.04084762930870056
000500 00 00 00 40 ba e9 b7 bf 00 00 00 00 be 9f a8 3f
       -0.09341014921665192 0.04809373617172241
000510 00 00 00 80 a8 7d a4 3f 00 00 00 c0 e1 b9 b4 3f
       0.04002119600772858 0.08096133172512054
000520 00 00 00 c0 21 8f b0 bf 00 00 00 00 98 c0 9b 3f
       -0.06468401849269867 0.027101874351501465
000530 00 00 00 00 9b 4c a7 bf 00 00 00 00 24 c2 9c bf
       -0.04550632834434509 -0.02808433771133423
000540 00 00 00 00 5b 80 b9 bf 00 00 00 00 30 2b ad bf
       -0.09961479902267456 -0.05697011947631836
000550 00 00 00 00 ba 99 a3 bf 00 00 00 80 60 5e ab 3f
       -0.03828221559524536 0.05345441401004791
000560 00 00 00 00 5e 62 97 3f 00 00 00 00 3c 9e 9f 3f
       0.02283617854118347 0.03087705373764038
000570 00 00 00 40 7a f0 bf 3f 00 00 00 00 26 30 bf 3f
       0.12476314604282379 0.12182843685150146
000580 00 00 00 80 54 d3 b5 3f 00 00 00 00 cc 4d 70 3f
       0.08525589108467102 0.0039804428815841675
000590 00 00 00 c0 27 23 b6 bf 00 00 00 80 20 02 b9 3f
       -0.08647392690181732 0.0976887047290802
0005a0 00 00 00 00 0a 01 a0 bf 00 00 00 00 48 b2 84 bf
       -0.03125792741775513 -0.010105669498443604
0005b0 00 00 00 40 66 91 bb bf 00 00 00 00 9e 48 99 bf
       -0.10768736898899078 -0.024691075086593628
0005c0 00 00 00 80 bd a3 b4 bf 00 00 00 80 ad 67 bd 3f
       -0.08062347769737244 0.11486324667930603
0005d0 00 00 00 00 28 aa bb bf 00 00 00 c0 85 f1 b8 bf
       -0.10806512832641602 -0.09743534028530121
0005e0 00 00 00 00 b8 62 71 bf 00 00 00 80 8a 4d b1 bf
       -0.0042445361614227295 -0.06758943200111389
0005f0 00 00 00 00 63 e6 a6 3f 00 00 00 00 9f a2 a8 bf
       0.04472646117210388 -0.048115700483322144
000600 00 00 00 80 5c 0f ae bf 00 00 00 00 9c ff 7c 3f
       -0.05871094763278961 0.007079705595970154
000610 00 00 00 00 2c 2a b7 3f 00 00 00 80 72 82 b6 bf
       0.09048724174499512 -0.08792796730995178
000620 00 00 00 80 07 0e ae 3f 00 00 00 40 e1 8e b4 3f
       0.05870078504085541 0.08030517399311066
000630 00 00 00 40 64 4d bf 3f 00 00 00 80 d5 65 b6 bf
       0.12227465212345123 -0.08749136328697205
000640 00 00 00 00 14 00 9f 3f 00 00 00 80 62 a9 b7 bf
       0.030273735523223877 -0.09242835640907288
000650 00 00 00 00 ec 51 bb 3f 00 00 00 00 75 d3 a8 bf
       0.10671877861022949 -0.04848828911781311
000660 00 00 00 40 79 46 b3 3f 00 00 00 00 68 7c 6e 3f
       0.07529409229755402 0.0037214308977127075
000670 00 00 00 00 1e f0 83 bf 00 00 00 00 38 56 70 bf
       -0.009735330939292908 -0.003988474607467651
000680 00 00 00 00 61 c2 95 3f 00 00 00 80 5a 2b ae 3f
       0.021249309182167053 0.058924511075019836
000690 00 00 00 00 54 87 94 3f 00 00 00 00 05 86 a3 3f
       0.020047485828399658 0.03813186287879944
0006a0 00 00 00 00 e8 c8 bc bf 00 00 00 c0 2d 50 b7 3f
       -0.11244058609008789 0.09106718003749847
0006b0 00 00 00 40 4f e6 bb 3f 00 00 00 00 8e 73 ba 3f
       0.10898299515247345 0.1033257246017456
0006c0 00 00 00 40 b6 a7 b7 3f 00 00 00 c0 9a 17 b7 bf
       0.09240283071994781 -0.09020392596721649
0006d0 00 00 00 80 8c b9 a7 bf 00 00 00 00 18 37 bc 3f
       -0.04633750021457672 0.11021566390991211
0006e0 00 00 00 c0 81 5f b8 bf 00 00 00 c0 f4 07 bd 3f
       -0.0952073186635971 0.11340264976024628
0006f0 00 00 00 c0 f9 2a b9 bf 00 00 00 c0 83 8a b6 bf
       -0.09831200540065765 -0.08805106580257416
000700 00 00 00 00 c7 49 af 3f 00 00 00 c0 dc fd b6 bf
       0.0611097514629364 -0.08981113135814667
000710 00 00 00 00 2c 53 9d bf 00 00 00 00 9d 47 b7 3f
       -0.028637588024139404 0.09093648195266724
000720 00 00 00 c0 ca 58 b9 3f 00 00 00 80 a1 43 be 3f
       0.09901110827922821 0.11821946501731873
000730 00 00 00 00 33 f9 99 bf 00 00 00 00 52 df b8 bf
       -0.02536468207836151 -0.09715759754180908
000740 00 00 00 c0 ee 81 bf 3f 00 00 00 00 71 44 9b bf
       0.12307636439800262 -0.026628270745277405
000750 00 00 00 00 f4 54 aa bf 00 00 00 00 fb 33 9f 3f
       -0.0514293909072876 0.03047172725200653
000760 00 00 00 c0 dd 60 b6 bf 00 00 00 80 70 08 b5 3f
       -0.08741556107997894 0.08216002583503723
000770 00 00 00 c0 31 0e b4 3f 00 00 00 c0 32 64 b9 bf
       0.07834158837795258 -0.09918515384197235
000780 00 00 00 c0 ae 48 ba bf 00 00 00 00 b8 6c 86 bf
       -0.1026715487241745 -0.010949552059173584
000790 00 00 00 80 b2 e1 aa 3f 00 00 00 00 40 a8 6d bf
       0.052503183484077454 -0.0036202669143676758
0007a0 00 00 00 c0 fa 39 b0 bf 00 00 00 00 40 69 67 3f
       -0.06338469684123993 0.002857804298400879
0007b0 00 00 00 c0 ec 13 be bf 00 00 00 40 c9 9d b6 bf
       -0.11749152839183807 -0.08834512531757355
0007c0 00 00 00 c0 53 4d b5 bf 00 00 00 40 5c 5a ba 3f
       -0.08321116864681244 0.10294128954410553
0007d0 00 00 00 c0 4b 35 bc 3f 00 00 00 80 19 bd a5 bf
       0.11018823087215424 -0.042458340525627136
0007e0 00 00 00 00 a0 f6 76 3f 00 00 00 00 e7 8a ac 3f
       0.005606293678283691 0.05574724078178406
0007f0 00 00 00 00 5a ac 8e 3f 00 00 00 40 2a 06 b0 bf
       0.014977172017097473 -0.06259407103061676

lstm.weight_hh_l0 f8 [256, 64]
000000 00 00 00 40 39 ed b7 bf 00 00 00 00 52 66 b6 3f
       -0.09346349537372589 0.08749878406524658
000010 00 00 00 00 87 66 b2 3f 00 00 00 80 5f 72 bf bf
       0.07187694311141968 -0.12283894419670105
000020 00 00 00 40 47 1e b9 bf 00 00 00 c0 9c 19 b5 bf
       -0.09811826050281525 -0.08242206275463104
000030 00 00 00 c0 95 52 b1 bf 00 00 00 00 f2 f6 8f 3f
       -0.06766639649868011 0.01560772955417633
000040 00 00 00 00 b7 a4 bf bf 00 00 00 00 47 b9 b7 bf
       -0.1236070990562439 -0.09267085790634155
000050 00 00 00 00 54 3a ad 3f 00 00 00 00 f7 f5 a4 bf
       0.057085633277893066 -0.04093906283378601
000060 00 00 00 80 8f 77 a9 bf 00 00 00 80 16 79 ba bf
       -0.049740299582481384 -0.10341015458106995
000070 00 00 00 80 9f f0 a9 3f 00 00 00 00 e6 13 82 3f
       0.05066393315792084 0.00882701575756073
000080 00 00 00 00 e9 bc a8 bf 00 00 00 00 a6 98 b3 bf
       -0.04831627011299133 -0.07654798030853271
000090 00 00 00 00 d9 38 9b 3f 00 00 00 80 f3 69 a1 3f
       0.026584044098854065 0.034011468291282654
0000a0 00 00 00 00 38 68 ac 3f 00 00 00 80 ff 04 a3 3f
       0.05548262596130371 0.037147507071495056
0000b0 00 00 00 00 9b 86 93 bf 00 00 00 80 7f c5 b8 bf
       -0.019068166613578796 -0.09676358103752136
0000c0 00 00 00 80 18 5f b4 3f 00 00 00 00 40 8e 51 bf
       0.0795760452747345 -0.0010715126991271973
0000d0 00 00 00 80 4c 44 b5 bf 00 00 00 c0 b2 98 bb 3f
       -0.08307340741157532 0.1077987402677536
0000e0 00 00 00 80 6e d7 b1 3f 00 00 00 80 55 26 b9 bf
       0.06969347596168518 -0.0982411801815033
0000f0 00 00 00 00 73 f6 af bf 00 00 00 00 8c c7 a5 bf
       -0.062427133321762085 -0.04253804683685303
000100 00 00 00 c0 1a 79 b2 bf 00 00 00 00 1d e3 ad 3f
       -0.07216040790081024 0.05837336182594299
000110 00 00 00 40 20 d4 b6 bf 00 00 00 00 64 bd bd 3f
       -0.089174285531044 0.11617112159729004
000120 00 00 00 00 12 74 aa bf 00 00 00 40 89 e3 b2 3f
       -0.05166679620742798 0.07378442585468292
000130 00 00 00 00 a4 6f 71 3f 00 00 00 80 89 25 ac bf
       0.0042568594217300415 -0.05497388541698456
000140 00 00 00 00 7a 5e b5 3f 00 00 00 80 c5 6a b8 bf
       0.0834728479385376 -0.09537920355796814
000150 00 00 00 40 3d ee b0 bf 00 00 00 00 2c af 8e 3f
       -0.06613524258136749 0.014982551336288452
000160 00 00 00 80 81 62 b9 3f 00 00 00 00 d0 6b ab bf
       0.09915933012962341 -0.05355691909790039
000170 00 00 00 80 5c 7c b3 bf 00 00 00 00 e7 6d b4 bf
       -0.07611635327339172 -0.07980197668075562
000180 00 00 00 80 54 37 ac bf 00 00 00 80 9a 1b a6 bf
       -0.05510963499546051 -0.04317934811115265
000190 00 00 00 00 5d d0 9d bf 00 00 00 40 50 34 b2 bf
       -0.029115155339241028 -0.07111074030399323
0001a0 00 00 00 80 bd 00 a4 3f 00 00 00 00 00 a2 50 3f
       0.03906814754009247 0.0010151863098144531
0001b0 00 00 00 80 64 e8 b4 bf 00 00 00 40 29 46 b2 bf
       -0.08167102932929993 -0.07138307392597198
0001c0 00 00 00 00 b1 1a 9b 3f 00 00 00 00 a0 41 5d bf
       0.02646900713443756 -0.00178566575050354
0001d0 00 00 00 80 de a5 b6 3f 00 00 00 00 80 67 93 bf
       0.08846846222877502 -0.018949508666992188
0001e0 00 00 00 80 5a ec b9 bf 00 00 00 c0 e7 aa b7 bf
       -0.10126271843910217 -0.0924515575170517
0001f0 00 00 00 00 1d c9 a2 bf 00 00 00 00 5c 59 9c bf
       -0.03669062256813049 -0.02768462896347046
000200 00 00 00 00 24 37 8d 3f 00 00 00 00 e5 b4 9c bf
       0.014265328645706177 -0.02803380787372589
000210 00 00 00 00 4e 9d a7 3f 00 00 00 80 0d 49 a5 bf
       0.04612201452255249 -0.041572973132133484
000220 00 00 00 00 8d 7c b7 3f 00 00 00 00 66 66 9d 3f
       0.09174424409866333 0.028710931539535522
000230 00 00 00 00 07 ad a3 bf 00 00 00 80 b7 84 bc 3f
       -0.038429468870162964 0.11140009760856628
000240 00 00 00 80 bc 56 a0 3f 00 00 00 80 33 bf b5 bf
       0.03191174566745758 -0.08494874835014343
000250 00 00 00 80 34 cf b1 bf 00 00 00 c0 81 10 b4 3f
       -0.06956794857978821 0.0783768743276596
000260 00 00 00 80 ea 3a ad 3f 00 00 00 00 44 fc b8 3f
       0.057090118527412415 0.09759926795959473
000270 00 00 00 00 32 aa 83 bf 00 00 00 40 a7 61 b6 3f
       -0.009601965546607971 0.08742757141590118
000280 00 00 00 80 c5 d1 af 3f 00 00 00 80 de ca a3 3f
       0.06214730441570282 0.03865714371204376
000290 00 00 00 00 05 a0 9d bf 00 00 00 80 fe d8 be 3f
       -0.02893073856830597 0.12049856781959534
0002a0 00 00 00 00 0e e7 99 3f 00 00 00 00 4c 83 a0 bf
       0.02529546618461609 -0.032251715660095215
0002b0 00 00 00 00 20 1e 5d bf 00 00 00 00 22 75 bf 3f
       -0.0017772018909454346 0.12288105487823486
0002c0 00 00 00 00 2a 7e b5 3f 00 00 00 00 a0 f8 82 bf
       0.08395636081695557 -0.009263277053833008
0002d0 00 00 00 80 27 5f bf 3f 00 00 00 80 cb 1a ac 3f
       0.12254568934440613 0.054891929030418396
0002e0 00 00 00 80 8f 09 b1 bf 00 00 00 00 49 1f bd bf
       -0.06655213236808777 -0.1137586236000061
0002f0 00 00 00 00 b0 98 b2 3f 00 00 00 c0 b9 02 be 3f
       0.07264232635498047 0.11722908914089203
000300 00 00 00 00 dd a4 b2 bf 00 00 00 80 48 49 aa 3f
       -0.07282811403274536 0.05134035646915436
000310 00 00 00 00 e8 cb 75 3f 00 00 00 00 5f 5e 9b bf
       0.005321413278579712 -0.026727184653282166
000320 00 00 00 00 fb 66 a1 bf 00 00 00 00 0e ce a1 3f
       -0.03398880362510681 0.03477519750595093
000330 00 00 00 00 e9 37 9c 3f 00 00 00 c0 f2 9c b5 3f
       0.02755703032016754 0.08442609012126923
000340 00 00 00 80 c2 6d a7 3f 00 00 00 80 a8 1f ad 3f
       0.04575927555561066 0.05688215792179108
000350 00 00 00 40 a1 3a bc 3f 00 00 00 80 bc ed a3 3f
       0.11026962101459503 0.03892315924167633
000360 00 00 00 00 2a 00 93 3f 00 00 00 00 d5 4c a7 bf
       0.01855531334877014 -0.04550805687904358
000370 00 00 00 00 ed 77 b7 3f 00 00 00 00 39 e7 92 3f
       0.09167367219924927 0.018460169434547424
000380 00 00 00 00 4e a0 b4 3f 00 00 00 80 93 e6 be 3f
       0.08057105541229248 0.12070581316947937
000390 00 00 00 00 a9 a0 9c bf 00 00 00 80 fe 87 b6 3f
       -0.02795661985874176 0.08801260590553284
0003a0 00 00 00 00 8b fe 99 bf 00 00 00 40 b4 e0 bc 3f
       -0.025385066866874695 0.11280371248722076
0003b0 00 00 00 80 e2 2f b9 3f 00 00 00 00 9c f0 a6 bf
       0.09838691353797913 -0.04480445384979248
0003c0 00 00 00 00 c0 5c 72 3f 00 00 00 80 05 f3 ab bf
       0.00448298454284668 -0.05458848178386688
0003d0 00 00 00 80 76 e2 a9 bf 00 00 00 00 74 ea 99 bf
       -0.05055589973926544 -0.025308430194854736
0003e0 00 00 00 00 e0 ec 4b bf 00 00 00 80 59 4f a6 bf
       -0.0008522123098373413 -0.04357413947582245
0003f0 00 00 00 00 3c 35 be bf 00 00 00 00 bf 5a b3 bf
       -0.11799979209899902 -0.0756034255027771
000400 00 00 00 00 50 e0 85 bf 00 00 00 00 45 6e a4 bf
       -0.010681748390197754 -0.03990378975868225
000410 00 00 00 c0 a6 c4 b7 3f 00 00 00 80 ec 02 ba 3f
       0.0928444117307663 0.10160711407661438
000420 00 00 00 00 d1 62 b4 3f 00 00 00 80 41 53 ac 3f
       0.07963281869888306 0.055322691798210144
000430 00 00 00 80 51 5e b9 bf 00 00 00 00 83 3b be 3f
       -0.0990954339504242 0.11809557676315308
000440 00 00 00 80 df 32 bc bf 00 00 00 00 5a 0a a5 bf
       -0.1101512610912323 -0.04109460115432739
000450 00 00 00 00 a8 85 b6 bf 00 00 00 00 b0 03 a7 3f
       -0.08797693252563477 0.044950008392333984
000460 00 00 00 c0 b0 a0 ba bf 00 00 00 80 38 8d af bf
       -0.10401444137096405 -0.061624303460121155
000470 00 00 00 00 a7 53 b4 bf 00 00 00 80 81 ab b3 bf
       -0.07940143346786499 -0.07683572173118591
000480 00 00 00 00 5b e0 ad bf 00 00 00 00 e3 74 bf 3f
       -0.05835232138633728 0.12287729978561401
000490 00 00 00 00 dc e8 84 bf 00 00 00 00 4f 82 a3 3f
       -0.010209769010543823 0.03810355067253113
0004a0 00 00 00 40 11 c4 bf bf 00 00 00 40 a1 73 bc 3f
       -0.12408550083637238 0.11113937199115753
0004b0 00 00 00 00 70 df 9b bf 00 00 00 40 28 5e bd bf
       -0.027219533920288086 -0.11471797525882721
0004c0 00 00 00 00 98 0d b6 3f 00 00 00 00 22 4e a1 bf
       0.08614492416381836 -0.03379923105239868
0004d0 00 00 00 c0 6a 0f bd 3f 00 00 00 00 45 bc b5 bf
       0.11351649463176727 -0.0849040150642395
0004e0 00 00 00 40 b8 b5 bd bf 00 00 00 40 45 0a b8 bf
       -0.11605407297611237 -0.0939067155122757
0004f0 00 00 00 80 31 b9 ab 3f 00 00 00 00 a8 b5 8c bf
       0.05414728820323944 -0.014018356800079346
000500 00 00 00 00 3a a5 bd bf 00 00 00 00 be bb 97 3f
       -0.11580240726470947 0.023177117109298706
000510 00 00 00 00 62 51 80 bf 00 00 00 80 0a 1f a7 3f
       -0.007967725396156311 0.04515869915485382
000520 00 00 00 40 1b 47 b0 bf 00 00 00 c0 2c d8 b6 bf
       -0.06358499825000763 -0.0892360657453537
000530 00 00 00 40 88 cf b5 3f 00 00 00 00 fe cb ae bf
       0.08519794046878815 -0.060150086879730225
000540 00 00 00 c0 89 82 b6 3f 00 00 00 00 1f f2 b9 3f
       0.08792935311794281 0.10135072469711304
000550 00 00 00 40 ef 60 b6 bf 00 00 00 00 af 81 ad bf
       -0.08741660416126251 -0.0576300323009491
000560 00 00 00 00 44 d1 8e 3f 00 00 00 80 f5 2b be bf
       0.015047580003738403 -0.11785826086997986
000570 00 00 00 00 a7 a7 a3 3f 00 00 00 00 97 aa aa bf
       0.038388460874557495 -0.05208274722099304
000580 00 00 00 00 4d 60 ac bf 00 00 00 80 f6 bc b8 bf
       -0.05542221665382385 -0.09663334488868713
000590 00 00 00 00 bd f0 ad 3f 00 00 00 00 54 64 b4 bf
       0.058477312326431274 -0.07965588569641113
0005a0 00 00 00 80 e1 93 b9 bf 00 00 00 80 97 d4 a0 bf
       -0.09991273283958435 -0.032871946692466736
0005b0 00 00 00 80 80 d0 b1 bf 00 00 00 c0 3e 1c bf bf
       -0.06958773732185364 -0.12152473628520966
0005c0 00 00 00 00 fd ca a9 3f 00 00 00 00 8d 59 a8 bf
       0.05037680268287659 -0.047558218240737915
0005d0 00 00 00 c0 36 6a b6 3f 00 00 00 40 7d 86 b6 3f
       0.08755819499492645 0.08798964321613312
0005e0 00 00 00 00 9e 68 b4 bf 00 00 00 00 b6 a7 b2 bf
       -0.07972133159637451 -0.07287156581878662
0005f0 00 00 00 80 9d b7 a6 bf 00 00 00 40 81 be b2 3f
       -0.04436962306499481 0.07321937382221222
000600 00 00 00 00 e4 9f 71 bf 00 00 00 00 19 dd a6 bf
       -0.004302874207496643 -0.04465559124946594
000610 00 00 00 40 c9 d2 b3 3f 00 00 00 40 da 58 be 3f
       0.07743509113788605 0.11854328215122223
000620 00 00 00 80 53 a8 b7 3f 00 00 00 c0 77 78 b8 bf
       0.09241220355033875 -0.09558819234371185
000630 00 00 00 00 e5 95 9a bf 00 00 00 00 4d 8d 98 bf
       -0.025962427258491516 -0.02397651970386505
000640 00 00 00 40 13 4f bb 3f 00 00 00 80 f8 8c b0 bf
       0.10667534172534943 -0.06465104222297668
000650 00 00 00 40 15 57 b2 bf 00 00 00 00 70 05 60 3f
       -0.07164128124713898 0.0019557178020477295
000660 00 00 00 00 f7 bb 9d bf 00 00 00 80 a1 39 a8 3f
       -0.029037341475486755 0.04731468856334686
000670 00 00 00 00 06 1e 8f 3f 00 00 00 40 0f 1b b3 bf
       0.015193983912467957 -0.07463164627552032
000680 00 00 00 80 cd 44 b7 3f 00 00 00 40 58 eb b3 3f
       0.09089359641075134 0.07780982553958893
000690 00 00 00 00 bf 07 9c 3f 00 00 00 40 c7 f6 bc bf
       0.0273732990026474 -0.1131405383348465
0006a0 00 00 00 00 28 13 ae 3f 00 00 00 00 47 43 b5 3f
       0.05873990058898926 0.08305782079696655
0006b0 00 00 00 80 52 d1 a1 3f 00 00 00 00 20 bd a8 bf
       0.034800127148628235 -0.048317909240722656
0006c0 00 00 00 00 4a 2b 81 3f 00 00 00 80 11 96 a8 bf
       0.00838334858417511 -0.048019930720329285
0006d0 00 00 00 80 64 20 be 3f 00 00 00 80 53 e6 be 3f
       0.11768177151679993 0.12070199847221375
0006e0 00 00 00 00 32 d5 8d bf 00 00 00 80 8e 87 b5 bf
       -0.014566794037818909 -0.084099680185318
0006f0 00 00 00 00 f7 d2 b2 3f 00 00 00 00 0d 55 b0 3f
       0.07353156805038452 0.06379777193069458
000700 00 00 00 80 62 f6 b0 3f 00 00 00 00 18 14 b8 bf
       0.06625953316688538 -0.09405660629272461
000710 00 00 00 00 97 b3 a5 3f 00 00 00 80 e0 4f ab bf
       0.04238578677177429 -0.05334378778934479
000720 00 00 00 40 61 20 bc bf 00 00 00 c0 48 58 b6 bf
       -0.1098690778017044 -0.08728460967540741
000730 00 00 00 00 49 21 ab 3f 00 00 00 00 d2 f5 a7 3f
       0.05298832058906555 0.046797335147857666
000740 00 00 00 c0 d8 15 bc bf 00 00 00 00 7e 25 b2 3f
       -0.10970835387706757 0.0708845853805542
000750 00 00 00 c0 09 85 b8 3f 00 00 00 00 c7 4a b8 3f
       0.09578000009059906 0.0948910117149353
000760 00 00 00 80 8d 11 b2 3f 00 00 00 00 e3 17 94 bf
       0.07058033347129822 -0.01962237060070038
000770 00 00 00 c0 2d 71 b5 3f 00 00 00 c0 59 0d b9 3f
       0.08375822007656097 0.09785996377468109
000780 00 00 00 80 56 ae b0 3f 00 00 00 40 19 04 b7 bf
       0.06516018509864807 -0.08990629017353058
000790 00 00 00 00 22 56 a6 bf 00 00 00 80 da 59 b9 3f
       -0.04362589120864868 0.09902730584144592
0007a0 00 00 00 00 63 65 b8 3f 00 00 00 40 24 6b b4 3f
       0.09529703855514526 0.07975985109806061
0007b0 00 00 00 80 dc bf aa bf 00 00 00 00 a5 59 99 bf
       -0.05224503576755524 -0.02475602924823761
0007c0 00 00 00 40 1e d7 b7 bf 00 00 00 00 a1 3c b2 bf
       -0.09312619268894196 -0.07123762369155884
0007d0 00 00 00 c0 74 90 b8 3f 00 00 00 00 d2 43 ba bf
       0.09595422446727753 -0.10259735584259033
0007e0 00 00 00 00 cd a1 9f bf 00 00 00 00 a0 2b 9b 3f
       -0.030890658497810364 0.02653360366821289
0007f0 00 00 00 00 4d 33 b3 bf 00 00 00 00 3e d6 9d 3f
       -0.0750015377998352 0.02913758158683777

lstm.bias_ih_l0 f8 [256]
000000 00 00 00 00 ff 73 bf 3f 00 00 00 00 32 4c 88 3f
       0.12286370992660522 0.011864081025123596
000010 00 00 00 c0 15 47 b0 bf 00 00 00 40 a1 bd bf bf
       -0.06358467042446136 -0.12398727238178253
000020 00 00 00 00 a0 f5 67 3f 00 00 00 00 50 4f ac 3f
       0.0029247403144836426 0.055292606353759766
000030 00 00 00 00 b0 6c 90 bf 00 00 00 80 21 f5 b2 bf
       -0.016039609909057617 -0.07405290007591248
000040 00 00 00 c0 91 de b0 bf 00 00 00 00 90 64 be 3f
       -0.06589613854885101 0.11872196197509766
000050 00 00 00 80 a0 22 a5 3f 00 00 00 40 3c 44 be bf
       0.041279807686805725 -0.11822868883609772
000060 00 00 00 00 e0 73 a3 3f 00 00 00 c0 b7 a6 b8 3f
       0.037993431091308594 0.09629391133785248
000070 00 00 00 00 40 f7 43 3f 00 00 00 00 fa d9 87 bf
       0.0006093084812164307 -0.011646226048469543
000080 00 00 00 00 56 d2 a1 bf 00 00 00 00 54 ff 90 3f
       -0.03480786085128784 0.016598999500274658
000090 00 00 00 00 26 58 a6 bf 00 00 00 00 36 10 92 3f
       -0.04364126920700073 0.017639964818954468
0000a0 00 00 00 00 d8 9f 7a 3f 00 00 00 80 36 8e ac 3f
       0.0065000951290130615 0.05577249825000763
0000b0 00 00 00 80 82 d3 a0 bf 00 00 00 40 ed 8d bd 3f
       -0.032863691449165344 0.11544688045978546
0000c0 00 00 00 40 54 03 bf 3f 00 00 00 00 53 15 ae bf
       0.12114454805850983 -0.05875644087791443
0000d0 00 00 00 80 52 ba b3 bf 00 00 00 00 36 3c b0 3f
       -0.07706180214881897 0.06341874599456787
0000e0 00 00 00 00 62 e6 8a 3f 00 00 00 00 a0 e8 56 3f
       0.013134732842445374 0.001398235559463501
0000f0 00 00 00 40 71 94 ba bf 00 00 00 00 88 65 74 3f
       -0.10382755100727081 0.004979640245437622
000100 00 00 00 00 f8 09 8f bf 00 00 00 80 3d 93 a3 3f
       -0.01515573263168335 0.03823272883892059
000110 00 00 00 40 ce 5a ba 3f 00 00 00 40 64 68 b0 3f
       0.10294808447360992 0.06409288942813873
000120 00 00 00 00 8d 27 a6 bf 00 00 00 80 26 57 a5 bf
       -0.043270498514175415 -0.041680529713630676
000130 00 00 00 80 b9 7a ab bf 00 00 00 00 ff 3c 97 bf
       -0.05367068946361542 -0.02269361913204193
000140 00 00 00 00 98 b9 ab 3f 00 00 00 40 1b 1a bb bf
       0.05415034294128418 -0.10586710274219513
000150 00 00 00 80 29 09 aa bf 00 00 00 00 c0 94 63 bf
       -0.05085115134716034 -0.002390265464782715
000160 00 00 00 80 b8 72 a7 bf 00 00 00 00 31 5f ad bf
       -0.04579712450504303 -0.05736687779426575
000170 00 00 00 00 90 a8 8b bf 00 00 00 80 ee cd b2 bf
       -0.013505101203918457 -0.07345476746559143
000180 00 00 00 00 c0 44 92 3f 00 00 00 00 42 6c 96 3f
       0.01784038543701172 0.021897345781326294
000190 00 00 00 40 e1 44 bb 3f 00 00 00 00 18 14 9f 3f
       0.10651977360248566 0.030350089073181152
0001a0 00 00 00 00 3a 5c ae bf 00 00 00 80 5a bd bd 3f
       -0.059297382831573486 0.11617055535316467
0001b0 00 00 00 00 82 d3 9a bf 00 00 00 80 a5 4b ae 3f
       -0.026197463274002075 0.059170886874198914
0001c0 00 00 00 00 68 92 a2 bf 00 00 00 00 34 0b aa bf
       -0.03627324104309082 -0.05086672306060791
0001d0 00 00 00 00 b6 0b bd bf 00 00 00 00 a0 7e bd 3f
       -0.11345994472503662 0.11521339416503906
0001e0 00 00 00 40 20 b7 b9 bf 00 00 00 00 2b 22 a3 3f
       -0.1004505306482315 0.03737005591392517
0001f0 00 00 00 c0 8a 26 b5 bf 00 00 00 00 c0 9f a8 3f
       -0.08261935412883759 0.04809379577636719
000200 00 00 00 80 6b 10 b3 3f 00 00 00 00 2c bb 88 3f
       0.07446929812431335 0.012075752019882202
000210 00 00 00 00 6a 8e 8b bf 00 00 00 80 fd 13 be 3f
       -0.013455227017402649 0.11749252676963806
000220 00 00 00 80 45 09 a9 bf 00 00 00 80 66 86 af bf
       -0.048898860812187195 -0.06157226860523224
000230 00 00 00 00 10 53 7c bf 00 00 00 00 b8 1c 67 3f
       -0.006915152072906494 0.002821311354637146
000240 00 00 00 c0 d3 23 bc bf 00 00 00 00 7d bf 9c bf
       -0.10992167890071869 -0.028074219822883606
000250 00 00 00 00 f8 e7 61 3f 00 00 00 00 34 59 b5 3f
       0.002185806632041931 0.08339238166809082
000260 00 00 00 00 4d ed 9a bf 00 00 00 40 fe 3e b9 3f
       -0.02629585564136505 0.09861744940280914
000270 00 00 00 80 de 6f a6 3f 00 00 00 80 5a 63 bf 3f
       0.04382224380970001 0.12260976433753967
000280 00 00 00 00 85 3e ba bf 00 00 00 00 e5 d6 a3 3f
       -0.10251647233963013 0.03874889016151428
000290 00 00 00 00 d5 93 be bf 00 00 00 c0 71 0e bb bf
       -0.11944323778152466 -0.1056891530752182
0002a0 00 00 00 00 30 9c 71 3f 00 00 00 40 58 86 b5 bf
       0.004299342632293701 -0.08408118784427643
0002b0 00 00 00 00 b4 c2 75 bf 00 00 00 80 95 32 bd bf
       -0.005312636494636536 -0.11405310034751892
0002c0 00 00 00 00 c2 a8 a5 bf 00 00 00 80 1b 35 bd bf
       -0.04230314493179321 -0.11409160494804382
0002d0 00 00 00 00 81 0a bf bf 00 00 00 40 35 12 ba bf
       -0.12125402688980103 -0.10184033215045929
0002e0 00 00 00 00 5e 5e a4 3f 00 00 00 80 99 a4 b7 bf
       0.03978246450424194 -0.09235534071922302
0002f0 00 00 00 00 55 5d 92 bf 00 00 00 00 33 65 a6 3f
       -0.017934158444404602 0.04374083876609802
000300 00 00 00 40 51 11 b6 3f 00 00 00 40 9b 8d bc 3f
       0.0862017422914505 0.11153574287891388
000310 00 00 00 40 28 e0 b2 3f 00 00 00 00 48 2d a8 3f
       0.07373286783695221 0.047220468521118164
000320 00 00 00 80 bd e7 b2 bf 00 00 00 00 ad 55 ad bf
       -0.07384857535362244 -0.05729427933692932
000330 00 00 00 00 60 95 97 bf 00 00 00 00 08 48 80 bf
       -0.023030757904052734 -0.007949888706207275
000340 00 00 00 80 13 14 bb 3f 00 00 00 00 95 91 b9 3f
       0.10577508807182312 0.09987765550613403
000350 00 00 00 40 e4 14 bc bf 00 00 00 00 98 04 ac bf
       -0.10969378054141998 -0.05472254753112793
000360 00 00 00 40 d7 3e bb bf 00 00 00 00 74 a3 9d bf
       -0.1064276248216629 -0.02894383668899536
000370 00 00 00 00 c7 72 bc bf 00 00 00 00 7d a1 92 bf
       -0.1111263632774353 -0.018194153904914856
000380 00 00 00 80 36 c5 a2 bf 00 00 00 00 e3 d0 95 3f
       -0.03666086494922638 0.021304652094841003
000390 00 00 00 c0 e7 93 ba 3f 00 00 00 00 11 19 95 bf
       0.1038193553686142 -0.02060343325138092
0003a0 00 00 00 80 29 72 a2 bf 00 00 00 80 76 ad b6 3f
       -0.03602723777294159 0.08858433365821838
0003b0 00 00 00 80 a4 f6 a9 3f 00 00 00 00 2d 52 a2 3f
       0.050709858536720276 0.035783201456069946
0003c0 00 00 00 80 a3 01 a3 3f 00 00 00 00 00 d0 ff be
       0.03712187707424164 -3.0338764190673828e-05
0003d0 00 00 00 40 97 b5 b6 3f 00 00 00 00 a0 56 96 bf
       0.08870835602283478 -0.021814823150634766
0003e0 00 00 00 80 c7 bd be 3f 00 00 00 00 3c e3 86 3f
       0.12008330225944519 0.011175602674484253
0003f0 00 00 00 00 9a 57 9a bf 00 00 00 80 24 16 b0 bf
       -0.025724798440933228 -0.0628378689289093
000400 00 00 00 00 b5 99 af 3f 00 00 00 80 72 c7 b3 bf
       0.06171956658363342 -0.07726207375526428
000410 00 00 00 00 d9 35 95 bf 00 00 00 00 df c8 bb bf
       -0.02071322500705719 -0.10853379964828491
000420 00 00 00 40 78 02 b1 bf 00 00 00 c0 b4 c5 b3 3f
       -0.06644393503665924 0.07723550498485565
000430 00 00 00 00 a0 8b 52 3f 00 00 00 00 30 c8 9c 3f
       0.0011319220066070557 0.028107404708862305
000440 00 00 00 00 f7 a4 aa 3f 00 00 00 00 8c 43 a8 3f
       0.05203983187675476 0.04739034175872803
000450 00 00 00 00 00 43 93 bf 00 00 00 00 f3 44 a5 bf
       -0.018810272216796875 -0.04154166579246521
000460 00 00 00 00 14 8f 8a 3f 00 00 00 80 19 8c bd 3f
       0.012968212366104126 0.11541900038719177
000470 00 00 00 00 b1 6f a1 3f 00 00 00 00 38 57 93 bf
       0.03405526280403137 -0.01888740062713623
000480 00 00 00 40 a5 3b b3 3f 00 00 00 c0 ad 24 b7 bf
       0.07512886822223663 -0.09040342271327972
000490 00 00 00 c0 b8 6d b4 bf 00 00 00 00 e8 55 af bf
       -0.07979921996593475 -0.061202287673950195
0004a0 00 00 00 00 76 76 be 3f 00 00 00 00 d0 37 59 3f
       0.1189950704574585 0.001539185643196106
0004b0 00 00 00 40 1a 9b b7 bf 00 00 00 40 99 22 b3 3f
       -0.09221042692661285 0.07474668323993683
0004c0 00 00 00 00 43 6f be 3f 00 00 00 80 b0 a3 ae 3f
       0.11888521909713745 0.05984260141849518
0004d0 00 00 00 00 d0 89 63 3f 00 00 00 80 67 0b ab bf
       0.002385050058364868 -0.052821382880210876
0004e0 00 00 00 00 f4 3e 89 3f 00 00 00 00 ca c1 a5 3f
       0.012327104806900024 0.042494118213653564
0004f0 00 00 00 00 4a 28 aa bf 00 00 00 40 7f 18 b1 bf
       -0.05108863115310669 -0.06678004562854767
000500 00 00 00 00 6d 9c 90 3f 00 00 00 80 21 ed b1 3f
       0.01622171700000763 0.07002457976341248
000510 00 00 00 00 ea a1 a5 bf 00 00 00 00 d8 1e 66 bf
       -0.04225093126296997 -0.0027002543210983276
000520 00 00 00 00 86 18 b7 bf 00 00 00 00 aa e0 91 3f
       -0.0902179479598999 0.017458587884902954
000530 00 00 00 80 0a 1a b0 bf 00 00 00 40 39 7a bb 3f
       -0.06289735436439514 0.10733373463153839
000540 00 00 00 40 68 61 b1 3f 00 00 00 00 2e bc b6 bf
       0.06789256632328033 -0.08880889415740967
000550 00 00 00 c0 3b 3a b6 bf 00 00 00 00 2a 85 b7 bf
       -0.08682607114315033 -0.09187567234039307
000560 00 00 00 80 56 20 bc bf 00 00 00 80 da 4a b8 3f
       -0.10986843705177307 0.09489217400550842
000570 00 00 00 00 c6 6b 8e bf 00 00 00 00 15 0e b5 3f
       -0.014853999018669128 0.08224612474441528
000580 00 00 00 80 7d 25 b3 3f 00 00 00 00 86 3b 9e bf
       0.07479080557823181 -0.02952393889427185
000590 00 00 00 00 19 24 b6 3f 00 00 00 00 44 82 93 3f
       0.08648830652236938 0.01905161142349243
0005a0 00 00 00 80 30 10 bb 3f 00 00 00 00 ee 9c 97 3f
       0.1057157814502716 0.023059576749801636
0005b0 00 00 00 00 bd 30 aa 3f 00 00 00 80 83 b1 ba 3f
       0.051153093576431274 0.10427114367485046
0005c0 00 00 00 00 16 e0 8b bf 00 00 00 00 ea fb b0 3f
       -0.013611003756523132 0.06634390354156494
0005d0 00 00 00 00 e0 82 44 3f 00 00 00 00 09 42 bc bf
       0.0006259530782699585 -0.11038261651992798
0005e0 00 00 00 c0 1b b1 b1 3f 00 00 00 80 b1 dc b5 bf
       0.06910870969295502 -0.08539876341819763
0005f0 00 00 00 00 d8 10 71 bf 00 00 00 80 65 4f bc 3f
       -0.004166454076766968 0.1105864942073822
000600 00 00 00 00 57 a1 a0 bf 00 00 00 40 13 eb bc bf
       -0.03248092532157898 -0.11296196281909943
000610 00 00 00 00 b0 f6 b7 3f 00 00 00 00 9a 1b a5 3f
       0.09360790252685547 0.041226208209991455
000620 00 00 00 00 c4 e3 ba 3f 00 00 00 80 8a d4 b1 3f
       0.10503792762756348 0.06964936852455139
000630 00 00 00 c0 f1 0c bf bf 00 00 00 00 d9 ed af 3f
       -0.12129126489162445 0.06236150860786438
000640 00 00 00 00 46 c4 b8 bf 00 00 00 00 fa dd 8b 3f
       -0.09674489498138428 0.013606980443000793
000650 00 00 00 80 da 83 bd bf 00 00 00 c0 8b 81 ba 3f
       -0.11529317498207092 0.10353921353816986
000660 00 00 00 00 09 b0 be 3f 00 00 00 00 00 10 80 3f
       0.11987358331680298 0.007843017578125
000670 00 00 00 80 79 fe a2 bf 00 00 00 c0 ad 49 b3 3f
       -0.037097737193107605 0.07534299790859222
000680 00 00 00 c0 c4 cf bc 3f 00 00 00 00 8e b2 88 bf
       0.11254529654979706 -0.012059316039085388
000690 00 00 00 40 a1 72 b3 3f 00 00 00 00 dc 27 81 3f
       0.07596786320209503 0.00837680697441101
0006a0 00 00 00 00 45 3a b2 bf 00 00 00 80 5e 57 bc 3f
       -0.0712016224861145 0.11070814728736877
0006b0 00 00 00 40 64 51 b3 bf 00 00 00 80 ed 31 b6 bf
       -0.07546068727970123 -0.08669933676719666
0006c0 00 00 00 c0 cf da b3 3f 00 00 00 80 47 87 a8 3f
       0.07755754888057709 0.04790709912776947
0006d0 00 00 00 80 18 34 b0 3f 00 00 00 80 ec c2 b4 bf
       0.063294917345047 -0.08109930157661438
0006e0 00 00 00 80 88 5f a2 3f 00 00 00 80 47 c4 a8 3f
       0.03588511049747467 0.04837249219417572
0006f0 00 00 00 00 4f 75 a0 3f 00 00 00 80 e3 65 bb bf
       0.03214499354362488 -0.1070234477519989
000700 00 00 00 80 78 f7 a6 3f 00 00 00 80 af d8 a7 3f
       0.04485680162906647 0.04657505452632904
000710 00 00 00 c0 9f 11 b1 bf 00 00 00 80 61 a6 a7 bf
       -0.06667517125606537 -0.0461912602186203
000720 00 00 00 40 7a 7b bf bf 00 00 00 40 28 19 bc 3f
       -0.12297786772251129 0.10975886881351471
000730 00 00 00 00 9c f4 79 3f 00 00 00 00 5e 2c b0 bf
       0.006336793303489685 -0.06317698955535889
000740 00 00 00 00 5b 90 b7 3f 00 00 00 c0 6a 21 ba bf
       0.09204643964767456 -0.10207240283489227
000750 00 00 00 00 62 00 97 3f 00 00 00 80 9c e7 a8 bf
       0.022462397813796997 -0.048642054200172424
000760 00 00 00 00 38 2f 8e bf 00 00 00 00 88 56 7f 3f
       -0.014738500118255615 0.007650882005691528
000770 00 00 00 00 6c ec 8a bf 00 00 00 40 7f 52 b7 3f
       -0.013146251440048218 0.09110255539417267
000780 00 00 00 c0 6c ab b5 3f 00 00 00 00 be 52 a9 3f
       0.08464698493480682 0.04945939779281616
000790 00 00 00 00 af cf 9c bf 00 00 00 80 68 87 a5 bf
       -0.0281360000371933 -0.042048707604408264
0007a0 00 00 00 00 52 73 aa bf 00 00 00 00 00 56 1f 3f
       -0.05166107416152954 0.0001195371150970459
0007b0 00 00 00 00 4e c3 a3 3f 00 00 00 c0 f0 6d b9 3f
       0.03859943151473999 0.09933380782604218
0007c0 00 00 00 00 57 ec bf bf 00 00 00 80 5b 07 bc bf
       -0.12470000982284546 -0.10948726534843445
0007d0 00 00 00 00 dc e5 74 bf 00 00 00 40 06 48 b9 3f
       -0.005102023482322693 0.09875525534152985
0007e0 00 00 00 80 2b e6 b0 3f 00 00 00 00 c9 4a ac bf
       0.06601211428642273 -0.05525806546211243
0007f0 00 00 00 80 f0 e6 ab 3f 00 00 00 00 29 08 b1 3f
       0.05449630320072174 0.06653076410293579
