checkpoints/GDN_UCR/model.ckpt (torch, 29821 bytes, 42 tensors)

feature_gat.attn_l f8 [1, 1, 1]
2.884115749537893
00000000: 7526 3147 ab12 0740

feature_gat.attn_r f8 [1, 1, 1]
-0.3037120244681943
00000000: cb8a 1f8f 0470 d3bf

feature_gat.bias f8 [1]
-0.03588706728322212
00000000: 625d a928 ca5f a2bf

feature_gat.fc.weight f8 [1, 1]
0.5732421569436991
00000000: bd5f 98ef ff57 e23f

attention.0.weight f8 [16, 5]
-0.03425543885287567 0.13957071765623344 0.032447640495698996 0.1683179109563944 -0.17466502054480867 0.017404456484759197 0.016370339475119067 0.127890776941544
0.06747177311206456 0.4661857431185914 0.209427267760025 -0.09908526174839621 -0.20542247038944939 -0.013203673592873685 -0.13406251170610806 -0.09239740064186473
0.0788840588339618 0.33043024110646935 0.3130152562302274 -0.3613231377667556 0.35382918378028616 0.20745650898745924 0.5123410601386339 0.3885181903955454
-0.3091787582474094 -0.49695288069119725 -0.29449092293190476 0.30718844657951283 -0.16640198148362526 0.0933323744384604 -0.16923449574288435 0.48400535830614133
-0.1375233824664019 0.39338605335719495 0.06947607926127908 -0.1860740446679517 0.2860473516785065 -0.17473567020192748 0.20041121355376623 -0.05420621414332483
-0.12527599903731207 -0.5118238544025961 -0.30036745124240555 0.15067894057241352 -0.20529412435305067 0.37525720398232004 0.2819672910964903 -0.10349117548506756
-0.3867317495567648 0.1787189917962524 0.18584315691028075 -0.23527475355804775 0.35085409721874516 0.3381745331505469 0.4694107610816226 -0.19668321257491894
-0.014223081123609987 0.05573975331991063 0.13411650913343795 -0.26638965377979656 -0.39432673028054455 0.16031243971252077 -0.19350792534877673 0.12454893732258097
-0.0733991874869786 0.10276185231792298 0.048321904030786254 0.10682341086046178 0.16030110645236367 -0.48094791458181746 0.2604399941833493 -0.27328633044913575
-0.2905791161431151 0.0796297545812865 -0.018277059096040358 0.20724455969413846 -0.32078546466359126 -0.46548355453097306 0.25170283201795884 -0.14569056811550263
00000000: f69c 2acb ed89 a1bf ed08 e809 74dd c13f
00000010: 3ad5 8525 fa9c a03f b1c2 71f9 708b c53f
00000020: 2360 7f63 6c5b c6bf e274 a04d 79d2 913f
00000030: b022 aee2 62c3 903f 6644 3698 b95e c03f
00000040: 0a61 eb82 d445 b13f 5892 23ba fcd5 dd3f
00000050: adc0 f540 83ce ca3f 1497 b9d6 a65d b9bf
00000060: d8d5 1794 484b cabf cbc9 2512 870a 8bbf
00000070: 68dc b2db f528 c1bf 0702 fe25 5ba7 b7bf
00000080: 6a1b dee4 be31 b43f fa58 cae1 c425 d53f
00000090: d21a 2a24 7108 d43f acc3 ff14 eb1f d7bf
000000a0: 9e3a 2d29 23a5 d63f 8bc3 b854 ef8d ca3f
000000b0: 5930 3614 1965 e03f 1799 6966 7bdd d83f
000000c0: c797 d2b3 95c9 d3bf 0a30 8e74 13ce dfbf
000000d0: 5f87 bd74 f0d8 d2bf be27 f1ba f9a8 d33f
000000e0: 371b 3bfe a84c c5bf de07 df67 a1e4 b73f
000000f0: fe0d 49d8 79a9 c5bf 76df 409c f1f9 de3f
00000100: 8e72 10bf 5d9a c1bf 55c9 77b2 3c2d d93f
00000110: 3810 4830 2fc9 b13f a2dc 3d38 46d1 c7bf
00000120: 1c43 248d 994e d23f 3420 7b0a bd5d c6bf
00000130: 5488 fb1b 13a7 c93f 609a f8b9 eac0 abbf
00000140: ca63 6b3f 0b09 c0bf 1e19 7f6b dc60 e0bf
00000150: cd9d f766 3839 d3bf 352b fa90 7249 c33f
00000160: ba22 14ef 1347 cabf 5b51 acca 3604 d83f
00000170: d845 7389 c00b d23f ce09 22ce 657e babf
00000180: 68f4 2a86 36c0 d8bf 0831 7890 43e0 c63f
00000190: 08ba 8e64 b5c9 c73f 699a 0dae 7b1d cebf
000001a0: 2237 4ebe 6474 d63f ca2f 0ecc a6a4 d53f
000001b0: 421b cf6e d30a de3f 283b d75e ea2c c9bf
000001c0: 23af 31a2 fd20 8dbf 1c37 31c3 eb89 ac3f
000001d0: 7778 4ad2 ba2a c13f fd86 be30 870c d1bf
000001e0: 5a96 9f2e a63c d9bf 1d87 da36 1e85 c43f
000001f0: 25e5 7121 dec4 c8bf 6f52 8d6c 70e2 bf3f
00000200: 603e cf05 4aca b2bf 3e5b fbca 994e ba3f
00000210: 3b40 fc0a a6bd a83f 51c5 1770 c758 bb3f
00000220: badd dc24 bf84 c43f e954 0dc3 d9c7 debf
00000230: 68a0 6582 0cab d03f c843 eef2 857d d1bf
00000240: 950e 2f26 d998 d2bf df12 b797 9d62 b43f
00000250: f994 56ac 38b7 92bf e482 145f fd86 ca3f
00000260: 54c9 f0c1 bf87 d4bf c153 e288 7bca ddbf
00000270: 48f9 f431 e61b d03f ac24 b210 fda5 c2bf

attention.0.bias f8 [16]
0.26285532452842425 0.21690734004107956 -0.2571110403109484 0.16392362679012248 0.20805030013432368 -0.39050414080544904 -0.1493334524033639 0.2247765396862602
-0.019085076203132767 -0.28339954399276596 -0.060363327397746136 0.45651655312328365 -0.1848874112030173 0.18588906428609114 0.2378725312924904 -0.36907503978144085
00000000: 8975 9b23 9fd2 d03f 9b90 dea5 9ec3 cb3f
00000010: 2fde 64dd 8174 d0bf ff79 0d0c 73fb c43f
00000020: e0fc 7f69 64a1 ca3f 2091 6d14 05fe d8bf
00000030: 5bb7 22cb 5b1d c3bf f825 6e47 7ac5 cc3f
00000040: 9057 89c8 098b 93bf 959d 49d7 3723 d2bf
00000050: 9824 1a2a f1e7 aebf 4ed1 6f34 9137 dd3f
00000060: 638f 4704 64aa c7bf 927a e57d 36cb c73f
00000070: 434d 426b 9b72 ce3f 6065 68ea ec9e d7bf

attention.2.weight f8 [16, 16]
-0.17374613381549675 0.27970153809820936 -0.023927885982104935 0.2010823603825319 0.07879395882180397 0.05435349730558159 0.20432069651769216 0.25277245727144326
-0.19123977804041947 0.02721840018642021 0.22585717762408977 0.20403577672615364 0.12909298590422577 -0.1582495173023812 -0.19227381827017975 -0.18700756202709223
-0.02405428810824973 0.19325911846799576 -0.10602966259378872 0.07854524210608915 -0.1802541907338799 -0.1903420858191912 -0.07909385696293188 0.09851999544454947
0.27309035066863957 -0.1646132664451138 -0.0005652728075493731 0.18517626588155706 0.22330277351760855 0.11633847124899584 0.16785207691922227 0.2128416072643017
-0.029653039981370147 -0.24488951008759943 -0.133401738101093 -0.2163279410059475 -0.11088783865182344 -0.05692093122201529 0.037734425494340834 -0.030482545102917334
0.01911480473457734 0.07360642524284682 0.01904745962569792 0.06799300499163762 0.2778227655698348 -0.1817797879872133 0.12107025662500157 0.05833009863837791
-0.09405668073137724 -0.3220161191583803 -0.07932230468778559 -0.2170661382759307 -0.18218680350081248 0.2511232881641697 -0.13034173298519164 -0.23668722942874096
0.16694539871078556 0.07153899183625602 0.08160275676787886 -0.17834864733856706 0.11523259994655828 -0.15824777206574583 -0.06882772831264372 -0.1169054394157204
-0.04734778449112954 -0.010891991326495851 0.04516122612503194 0.10854720290585917 0.11241165202967111 0.1961689926702728 0.2783474117791642 0.22616189993518565
-0.04131273241911826 -0.16954474542109743 0.2587070708415624 -0.0217707655128826 -0.08519398749015984 -0.1685316275455548 -0.033166713819886506 -0.22542885935954415
0.15120535422716008 -0.293457264298245 -0.1219879570881772 -0.08511986440192572 -0.19815443062545388 0.15553298401776106 -0.13945088031134026 -0.1850290335686268
0.07579869036875679 0.1691644029460322 -0.25111702500112376 0.06967665638575392 0.24013229968670832 0.1852722636922034 -0.2012901406441949 0.13697106619801394
-0.33654508253829 0.05276529984548552 0.05648901624203509 -0.008649230198486619 -0.15384147461505487 0.14014980904864938 -0.14246144724911766 -0.10822073437011756
0.27833250275661625 -0.01670171159221662 -0.08013510790548344 -0.2911856970340328 0.3407970322665974 0.0658379459089568 0.10677975227017433 0.345589058196091
-0.059677762827802086 0.02625230440959648 0.10846999506793616 -0.06945931546485073 0.3340271875402863 -0.30740755150971005 -0.09606580473528473 0.23472022964748546
-0.2844066276592601 -0.04121338234260805 0.295478385956136 0.27277777440991474 0.1142387530590544 0.04703054759227698 -0.13299022003043826 0.12690513229660208
-0.11806131946833377 -0.16758236617159739 0.12188262636930824 -0.23634563637029576 0.11420359353963644 0.20887557005979993 -0.23134349168527482 -0.2555478844404518
0.026791256511824766 0.09552502165072436 -0.07046548799414472 -0.16364100422473216 0.06912767581605184 -0.2814891248089538 -0.1873035607258927 -0.10355085279170512
0.09997990734949988 0.13033849921729201 0.0039322022223855484 -0.09737589453340655 0.018265239134839618 0.1360516233299595 -0.19128596009760107 0.001680115641394485
0.24190131595282677 0.018402982536143433 -0.10494355776545419 0.1152041998578924 0.33273425330518197 -0.24556651499204138 0.09862667262394707 0.16379409213253385
-0.13429108353211733 0.17229153305173867 -0.21973414145174316 0.24803265626156162 -0.13879370892810788 0.0519184626840829 0.08621223040399197 0.05704676093018214
0.1893065364519023 -0.10542990058928588 -0.07352772124302287 -0.20623915862882727 -0.01728678249622651 -0.10187479805320257 -0.021894887362645856 -0.08074230381437876
0.15563847795178856 0.28848288022716906 0.005685611342019136 -0.01101873416032052 -0.06490357316684964 -0.27805139131972173 0.24980894355522562 0.011004580219795413
-0.005719332091560084 0.020164282102086137 -0.08904364023957091 0.1830978141396351 0.06880030873122514 0.06620023461847029 -0.12484501620994551 -0.17680208978056108
0.14077884061690144 -0.006252628003656314 -0.2674825954500456 0.11033952058195146 0.0559818989197946 -0.07323484078362266 0.026162109941745816 0.10611663583150151
-0.22013756092059206 -0.21059925058501425 0.3465040735557939 0.13764917591641188 0.07204334288634531 0.08051108184661433 0.026673810646160517 -0.3749431075309048
-0.016474309684550863 0.24131355826614567 -0.3177499364074948 -0.011312506814822538 0.21566296448346142 0.07793757510590482 0.13588560591569224 0.016500039918745716
-0.08064836050095527 -0.03582083447227982 -0.01712582117814104 0.15167139240516717 -0.16346965551514714 -0.08107182972282173 0.08195629618653914 -0.25700211775290266
0.04618719667201323 0.2265021920412644 0.0015942434246473325 0.31439032701247793 -0.0811884405852613 -0.08970174123434338 -0.01058897005018248 -0.05272907974933605
-0.22783843802525222 0.07416909769682516 0.1208898978489553 -0.06539645316925735 -0.2792229898859891 -0.12599518473618787 0.2900094750975228 -0.14138670819966243
-0.15377768827635238 -0.18627423456428474 -0.036708785163763524 -0.32514661017435953 -0.22835769556668067 0.2377400032586273 -0.0043930666576985 -0.17393335596177867
-0.014156413044448833 0.1452958524110777 0.08849762982047696 0.18193720691724022 0.17290010872756018 0.04572384151687459 -0.06062280976295371 -0.052014721390348594
00000000: bca1 4535 503d c6bf 0974 b147 a1e6 d13f
00000010: e0b0 053f 8d80 98bf 749e d218 11bd c93f
00000020: a913 4344 d72b b43f 908e b3ba 38d4 ab3f
00000030: 353f b83a 2e27 ca3f b2dd 5387 6c2d d03f
00000040: 0c5f 3088 8b7a c8bf c6b7 99ea 23df 9b3f
00000050: 952d bb53 e3e8 cc3f 5a5b 2026 d81d ca3f
00000060: 7f02 4d74 1e86 c03f 27f4 b52a 8541 c4bf
00000070: e079 acb0 6d9c c8bf 2c6a 8121 ddef c7bf
00000080: 0294 03f3 afa1 98bf 82a6 bcfc b6bc c83f
00000090: 6509 3f8d c224 bbbf 4820 1a7e 8a1b b43f
000000a0: 7fa0 15bf 9112 c7bf 44ab d224 215d c8bf
000000b0: 3565 f8b8 7e3f b4bf 7fb8 6f3e 9b38 b93f
000000c0: 0d66 3ef3 4f7a d13f b54b ef29 0c12 c5bf
000000d0: 3f10 621c da85 42bf c274 fa1a dbb3 c73f
000000e0: e19e ae6e 2f95 cc3f 6df4 47a9 5bc8 bd3f
000000f0: aa84 7746 2d7c c53f f5d0 36cf 643e cb3f
00000100: 41b1 c9d3 5d5d 9ebf 81d7 7a1a 8a58 cfbf
00000110: 17d7 2fe3 4e13 c1bf 9e70 ea4b a2b0 cbbf
00000120: fca0 8838 2563 bcbf 36e3 1c84 bd24 adbf
00000130: 24f3 dc36 ed51 a33f b674 43f9 d036 9fbf
00000140: 9357 d1d4 d492 933f f388 31e5 ded7 b23f
00000150: ee31 a860 2d81 933f b7bc cb54 fd67 b13f
00000160: d33a 0d23 d9c7 d13f 6d4c 3d62 8f44 c7bf
00000170: 7603 b9d8 75fe be3f 616f 0c54 71dd ad3f
00000180: 042a b63f 1914 b8bf 3b7c 247f e99b d4bf
00000190: 0236 7a70 774e b4bf d068 7bbe d2c8 cbbf
000001a0: 073e 66ad e551 c7bf 4176 7b69 6712 d03f
000001b0: aed8 3cb4 09af c0bf 477e e362 c44b cebf
000001c0: c61a d781 775e c53f f955 531e 6150 b23f
000001d0: 07dc 9413 ebe3 b43f 1570 cde3 20d4 c6bf
000001e0: d519 3438 e27f bd3f 81f7 d786 7641 c4bf
000001f0: c028 29aa b19e b1bf e8d8 03cf 83ed bdbf
00000200: b1db da03 f83d a8bf b2f0 4854 8a4e 86bf
00000210: 1230 824a 5f1f a73f 908d 8dde bfc9 bb3f
00000220: 0b22 2891 02c7 bc3f f108 01c8 101c c93f
00000230: e822 a1a9 71d0 d13f 0c53 e985 dff2 cc3f
00000240: c009 4c45 f126 a5bf c068 6568 a4b3 c5bf
00000250: b48a 201a a88e d03f 21ff 8b57 134b 96bf
00000260: a908 16ee 45cf b5bf ff2c 53c2 7192 c5bf
00000270: 182b 583e 3afb a0bf b80c 4355 dada ccbf
00000280: 3060 b171 b25a c33f 55d0 3bfa 00c8 d2bf
00000290: 2e17 334e 9a3a bfbf 3da2 d859 6aca b5bf
000002a0: 7702 8cd7 1f5d c9bf 101d e73b 81e8 c33f
000002b0: 7df5 2ac5 86d9 c1bf 356e fe07 08af c7bf
000002c0: 0ba4 3600 8b67 b33f 3879 26dd 2da7 c53f
000002d0: 2250 7624 4d12 d0bf 77b0 7850 54d6 b13f
000002e0: 3f10 efba a7bc ce3f bcfa b464 00b7 c73f
000002f0: b77a 8915 e0c3 c9bf d9cb e894 4488 c13f
00000300: bf6b c862 f489 d5bf a265 66aa 0d04 ab3f
00000310: 647d afda 20ec ac3f fd60 b406 b0b6 81bf
00000320: c6ba 1ed3 13b1 c3bf bcc9 33cf 6df0 c13f
00000330: df19 703c 2d3c c2bf ee66 dea2 5ab4 bbbf
00000340: 4a39 3021 33d0 d13f 119d 4de4 401a 91bf
00000350: db29 b703 bc83 b4bf a1be 7455 c9a2 d2bf
00000360: 4c2b 0a5b 9ecf d53f 0bc9 8370 c1da b03f
00000370: f018 e0f7 ea55 bb3f 90b0 b391 211e d63f
00000380: 4aa7 496f 158e aebf e210 8953 e2e1 9a3f
00000390: 4d00 6a89 b0c4 bb3f f8f6 52f0 15c8 b1bf
000003a0: 0177 9d91 b360 d53f dbc4 11b9 90ac d3bf
000003b0: b21a 9ac1 c497 b8bf e6d4 05ff 4f0b ce3f
000003c0: 9dfa 23db b733 d2bf ed59 a3a2 eb19 a5bf
000003d0: 67d0 162d 1ee9 d23f d5a3 0ae9 3075 d13f
000003e0: b80f 533c c03e bd3f 20c3 a44f 6314 a83f
000003f0: 50fa dbd2 d205 c1bf 6548 7468 6d3e c03f
00000400: 9102 0a42 4439 bebf 80f1 0bc7 5673 c5bf
00000410: a0ee 3426 b333 bf3f 16a1 61e5 9240 cebf
00000420: 64a2 565b 723c bd3f 978b 2b47 6fbc ca3f
00000430: 4921 77dd a99c cdbf 65f5 8e83 e55a d0bf
00000440: 59ec 25ca 2a6f 9b3f 8d86 f0eb 5374 b83f
00000450: e578 6eb6 060a b2bf 6c04 b73c 30f2 c4bf
00000460: f8e0 e0f2 59b2 b13f cdfb 4ef6 ea03 d2bf
00000470: cbfb de25 90f9 c7bf c499 3606 4f82 babf
00000480: 06be 5280 4898 b93f 9024 c693 eeae c03f
00000490: fe78 247f 361b 703f e791 706a a0ed b8bf
000004a0: 2d76 f372 1fb4 923f a58b 62bc 236a c13f
000004b0: decd 66ef 0e7c c8bf 2e2e ee6e ea86 5b3f
000004c0: 7a39 7050 9ff6 ce3f 54fe 9040 3bd8 923f
000004d0: 9a4c 87bc 94dd babf 0662 c0be 057e bd3f
000004e0: 671a 0d9c 844b d53f e716 713b b96e cfbf
000004f0: ffe2 6efd 983f b93f 015e 7e6e 34f7 c43f
00000500: be19 f541 7330 c1bf aede ea21 a60d c63f
00000510: b3c8 ac93 3f20 ccbf 9ae0 7db9 88bf cf3f
00000520: 5e4e 5e04 fec3 c1bf 98ce 9286 0e95 aa3f
00000530: 59b1 1936 0112 b63f c262 13a9 3b35 ad3f
00000540: 136f 7d53 323b c83f 0530 0d37 74fd babf
00000550: 7893 1676 b6d2 b2bf 3991 bb74 0b66 cabf
00000560: 21be e555 a0b3 91bf fad3 ec7d 7714 babf
00000570: b74c b004 9d6b 96bf f954 4912 87ab b4bf
00000580: d1ac 662e f6eb c33f 5805 02e6 8076 d23f
00000590: d90a 59ac cb49 773f 0629 e576 fd90 86bf
000005a0: 5c29 2544 859d b0bf 0bd5 1410 98cb d1bf
000005b0: 5bb4 684d bdf9 cf3f adab 33c1 9189 863f
000005c0: 1d86 9c84 276d 77bf 2cff b310 f2a5 943f
000005d0: 41e9 be62 90cb b6bf e872 d9c9 bf6f c73f
000005e0: 8a8f f4a3 e59c b13f e381 aca2 7ff2 b03f
000005f0: e2b7 b0cd d7f5 bfbf 5f69 bc6c 73a1 c6bf
00000600: be8d 3582 0a05 c23f e7d8 a20c 5b9c 79bf
00000610: da41 ed51 6f1e d1bf bc15 5bf8 353f bc3f
00000620: f796 0ed2 a8a9 ac3f caea 17be 84bf b2bf
00000630: 1a6a 607a 3dca 9a3f 0d35 75b8 752a bb3f
00000640: 2238 63b4 772d ccbf 3f91 e98e eaf4 cabf
00000650: 2196 f66b 1f2d d63f 83f0 70fa 7c9e c13f
00000660: da63 97b9 6e71 b23f 7d2d 7fcf 5f9c b43f
00000670: eb31 8a21 6150 9b3f 9b2c 2d60 11ff d7bf
00000680: 5bfc 4635 a4de 90bf 71d0 6ad8 5ce3 ce3f
00000690: 0248 4bd4 0356 d4bf 7d8a 71f6 022b 87bf
000006a0: ab1a b511 d89a cb3f 909b 3588 b7f3 b33f
000006b0: 6dd8 b314 b364 c13f 61b7 55ef 62e5 903f
000006c0: f9de d3f6 5ea5 b4bf 74d2 25c1 1b57 a2bf
000006d0: 6f50 8267 6e89 91bf 993a 0fdb f769 c33f
000006e0: 80b8 29dc 92ec c4bf 8451 4999 1fc1 b4bf
000006f0: bb8d d27b 16fb b43f e317 b002 b972 d0bf
00000700: d382 6626 d9a5 a73f b70f a519 06fe cc3f
00000710: 5cee b9d7 bd1e 5a3f 30a1 2c9b f81e d43f
00000720: e77e 2001 c4c8 b4bf 18ea fe7c b1f6 b6bf
00000730: 94c7 8280 abaf 85bf 60a5 2452 4eff aabf
00000740: 0e8b 0b58 cf29 cdbf 3b50 fbf8 befc b23f
00000750: 4794 aded a3f2 be3f 38e8 a26b d2bd b0bf
00000760: a181 761a cade d1bf a49c f236 9c20 c0bf
00000770: 33bc c4e6 838f d23f 2640 e7ab f518 c2bf
00000780: 672e 00bf fcae c3bf a940 c588 d5d7 c7bf
00000790: a02d 826f 7ecb a2bf 26aa 46ba 33cf d4bf
000007a0: 42d9 1f31 d33a cdbf b32e 79b1 436e ce3f
000007b0: b7c0 fbd9 76fe 71bf f209 c5bd 7243 c6bf
000007c0: 4cc5 6f98 09fe 8cbf 81cd 2cf3 0d99 c23f
000007d0: 023b dad9 c7a7 b63f ff4b d1e8 b749 c73f
000007e0: f2d7 3a3c 9721 c63f 01c8 ec87 1d69 a73f
000007f0: d9a3 a5f2 f309 afbf 436f 906e aca1 aabf

attention.2.bias f8 [16]
-0.20733799715785892 0.09471306886051359 -0.12843221581258502 0.02084995897325649 0.07944875199838043 -0.3120183776819513 -0.2774208646881805 0.1881932243770988
-0.11608135565552986 -0.3480903871267618 0.11902175267007782 0.08236784230595406 0.057097779970111326 0.17925337350041173 0.14956299927544814 -0.18657232023089693
00000000: 336d 812e 0d8a cabf d27b 429d 1d3f b83f
00000010: a87c 5583 7770 c0bf 04fe a60f b159 953f
00000020: d182 8adf c056 b43f fa46 f9ed 1bf8 d3bf
00000030: ea14 4471 43c1 d1bf 92a3 0330 b716 c83f
00000040: a541 37fa 81b7 bdbf 21bb 30e7 1c47 d6bf
00000050: 9d07 3ba7 3578 be3f 6837 f214 0f16 b53f
00000060: 7eaa 4a93 eb3b ad3f 75e3 7048 c6f1 c63f
00000070: 5034 4a5f e124 c33f 6282 dd0e 9ae1 c7bf

attention.4.weight f8 [5, 16]
0.19331797360565683 0.0305506764073245 0.07363000287161278 0.027625811987395183 -0.25316721039074935 0.29406184666033924 0.0356404755639686 -0.24471522226505457
0.2618598044551375 0.17419375698306216 -0.026988942111238746 -0.15081716933239708 -0.1543535462815404 -0.051171095912914376 0.12480405120497395 0.11540672534091478
-0.13456520038818492 0.17505921608566177 0.040293298749153356 0.2443248710428729 0.036844730062061466 0.3015167011083199 0.2187565818354087 -0.1823366586917041
0.25026885014608313 0.07165720709618348 -0.2558029234964907 -0.1280918961775297 -0.2738076302789374 -0.20159629040728202 -0.21855156383908886 0.22063185762497325
-0.05626900413245661 -0.06337698544127643 0.17277607704352357 0.05669592946068187 -0.16557598101873036 0.0912648792854997 0.10795066521625746 -0.17818059095887223
0.20085602569053668 -0.1167328907712692 -0.07206802015546221 -0.19551675963095094 0.2247222702551182 0.041501105808403924 0.2394066567812967 -0.022862776362653277
0.22976289071145659 -0.008558493325692466 -0.29214291332245196 -0.11262642458520576 0.08767347852513896 -0.19613665799017133 -0.2951541974824523 0.16288755029816263
-0.09962756781396062 -0.07060881822095093 -0.05485025433471759 0.29387214780335064 0.1747973915970579 0.33439897596327234 0.3185616615823461 -0.3503034646385686
0.23251135039461795 -0.16721342317473337 0.1290751266915866 0.004916600667103832 0.11388633192650074 -0.18246024279617593 0.10851761068451048 -0.10094253644363614
-0.2645186006225126 0.04588780279978818 0.16812345472219298 0.29205921712102506 -0.010249500188599395 0.28298195586915187 0.169735628565642 -0.14008158014784886
00000000: bcc1 2eb3 a4be c83f ce19 2930 ad48 9f3f
00000010: be84 5676 6ad9 b23f 1594 0bdc f049 9c3f
00000020: 7b0f 433e e433 d0bf df14 9ac7 e8d1 d23f
00000030: 8819 ece9 773f a23f 9f1b 3b12 d452 cfbf
00000040: b164 11a0 4fc2 d03f 8c6e b424 fb4b c63f
00000050: adb8 e23e fda2 9bbf c49d fa1c fa4d c3bf
00000060: e081 a664 dbc1 c3bf a394 e40e 1933 aabf
00000070: 906b 5586 28f3 bf3f 10e3 138f 4b8b bd3f
00000080: 8e68 6cb7 6e39 c1bf acc4 f923 5768 c63f
00000090: e44a c0c0 52a1 a43f 5741 5d91 0946 cf3f
000000a0: 5102 4bfd 4fdd a23f 8b50 9db4 0c4c d33f
000000b0: 3048 6236 3700 cc3f 1fad f8c0 ce56 c7bf
000000c0: da6f a5a3 6704 d03f e634 0071 2058 b23f
000000d0: 1cdf a839 135f d0bf f888 7bb4 5065 c0bf
000000e0: f45e 5c70 1086 d1bf 2da8 2541 e8cd c9bf
000000f0: 7eda 9665 7ff9 cbbf 0f3d 7a2a aa3d cc3f
00000100: 1006 0e79 4acf acbf de12 ca5f 7939 b0bf
00000110: 2770 37c8 861d c63f d92c b3b5 3f07 ad3f
00000120: 9341 bdff 9731 c5bf dcfa cd97 225d b73f
00000130: e46d afa0 a7a2 bb3f bea3 7921 9fce c6bf
00000140: 5ecf c576 a6b5 c93f 8cea 3aec 34e2 bdbf
00000150: d0b9 a7bd 0c73 b2bf 6ca8 3774 b106 c9bf
00000160: 92dc b608 b3c3 cc3f eecd 6308 a23f a53f
00000170: c001 a998 e0a4 ce3f 12eb 17f3 5669 97bf
00000180: 1f56 b8d2 de68 cd3f bcbc 7e87 1d87 81bf
00000190: 1799 9e30 78b2 d2bf 3f45 42da 15d5 bcbf
000001a0: b0f5 fde2 c471 b63f b0a8 ce89 011b c9bf
000001b0: 68b6 5d6e cee3 d2bf 9163 bace 7fd9 c43f
000001c0: de7d 8a39 3181 b9bf 1b75 1165 6b13 b2bf
000001d0: 62fc 1621 5515 acbf a552 0120 cdce d23f
000001e0: a5f0 2acc c25f c63f 5300 65f6 ca66 d53f
000001f0: b05b 9073 5063 d43f cd14 1339 5f6b d6bf
00000200: 2264 f292 eec2 cd3f 926c fedb 3f67 c5bf
00000210: a807 efa3 8885 c03f 5aca 29f1 6d23 743f
00000220: d6f1 1597 a727 bd3f 219d d073 db5a c7bf
00000230: 9f16 ee64 cfc7 bb3f 07fb ccbc 5ed7 b9bf
00000240: 43df b66c dfed d0bf 1beb 9e28 9b7e a73f
00000250: 2676 dcc1 1185 c53f 3dee 8124 19b1 d23f
00000260: 080f e2a0 b0fd 84bf 5a3b 7459 601c d23f
00000270: 52e5 d3a6 e5b9 c53f d3e5 c076 31ee c1bf

attention.4.bias f8 [5]
-0.2883375065736461 0.06694167343081388 -0.1426448716638063 0.2696359314366495 -0.16753090634003606
00000000: 6a6a 3c28 1f74 d2bf adf6 1fea 1623 b13f
00000010: 327c 5ee9 2f42 c2bf bd33 d610 b741 d13f
00000020: 5f5c e619 a771 c5bf

fcn.0.weight f8 [16, 1]
0.42119467878973627 0.7126890797709287 -0.4627240502377715 0.9206498695036882 -1.089989424229182 -0.5780481892940447 -0.3416848158534264 -0.6093601810977644
-0.5698859965140866 -0.7617091679884412 1.0308069820380912 0.5279516945419765 0.6334493400379767 1.1941689282533003 -1.3013527865717784 0.03152215925024494
00000000: 50ac a986 daf4 da3f a0a3 3a54 59ce e63f
00000010: 4a02 b655 459d ddbf 64b8 12b7 f675 ed3f
00000020: a6cd 20c0 9870 f1bf 43f5 90ea 5e7f e2bf
00000030: ff55 68fd 29de d5bf cb95 29ec e07f e3bf
00000040: 703e af8e 813c e2bf f55b b2e7 eb5f e8bf
00000050: 1579 4576 2f7e f03f 479e bdf3 fae4 e03f
00000060: 3d59 e48c 3745 e43f ecf4 cbe0 501b f33f
00000070: ea25 ae4c 57d2 f4bf 9180 2826 ac23 a03f

fcn.0.bias f8 [16]
0.4156246636074168 -0.7382927778895516 0.45755517065917306 -0.45354355720638945 0.23407541839065146 0.42657042402321393 0.8951764990974409 -0.5293518145276506
-0.7244775018494939 0.9971434385720678 0.32339725590297635 0.5292620435673218 0.4060712208578291 -0.44803505446783637 0.6567434052352306 -0.8168977586060466
00000000: f8b5 6630 9899 da3f 6213 fd2c 18a0 e7bf
00000010: be32 867b 9548 dd3f 23d4 608e db06 ddbf
00000020: d786 64ed 2ef6 cd3f 33b7 2709 ee4c db3f
00000030: 58ae 782f 49a5 ec3f 3e2f 6f37 73f0 e0bf
00000040: 1134 2471 eb2e e7bf 07d1 425b 99e8 ef3f
00000050: 150b 6e67 8ab2 d43f 4358 04f4 b6ef e03f
00000060: 4698 5b25 12fd d93f efa8 9938 9bac dcbf
00000070: ee2a ebbe 0a04 e53f 0270 acc4 0624 eabf

fcn.2.weight f8 [5, 16]
0.04813698385869705 0.2363119457301918 0.05170378034160513 0.09126156971305893 -0.6724844711196669 -0.057343985571992884 -0.27760603661818256 -0.20348533683933526
-0.19781217896876588 -0.2342994425997203 0.016762928054872075 -0.1377506739051984 -0.0761597154691296 0.09572369848982608 -0.08305256533452733 0.021929689564099377
-0.10096301609927168 0.14822413816682303 -0.26442056627222255 0.35563679787094865 -0.3470570532959992 -0.35474932266763143 -0.23368916063095355 -0.20327019071819877
-0.1495970175101998 -0.04109398525972843 -0.14212814847501265 -0.13182829435009089 0.1871532492243149 0.20292784733125632 -0.30097169204195423 -0.16748412777946098
0.10168389915915096 0.15174099755570616 -0.22685152436781672 0.07167637695614537 -0.45079358102450046 -0.09389668552645347 0.020317469317565114 0.09121750098381713
0.0009421473526271486 -0.3176862859705778 0.21072985692988655 -0.004734775304130848 -0.14987597257000881 0.539428957491688 -0.10581034019948041 -0.1060157417731112
-0.07093096389251861 0.0009395683962076687 -0.22475218851165138 0.29998482057693265 -0.6687054288373797 0.12026424090488791 -0.14376657160610284 0.11215251301511098
-0.002662813748161107 -0.1852304984502319 0.26925696831510687 -0.14013337909667173 -0.062164348383933254 0.31711321019044025 -0.005786668872696412 -0.06474968164412385
-0.16652920561116252 -0.014089477622100024 -0.25212315028036775 0.14607904961930104 -0.5602179455105928 -0.3151333894550494 -0.025214714122502587 0.03333760239943116
-0.110508789101679 -0.27883173754986834 0.08964677028346814 -0.020721832397575753 0.17816955792827355 0.29053491651835606 -0.455301052509652 -0.08177171942923821
00000000: f467 cd26 69a5 a83f c55b 4847 783f ce3f
00000010: 5b24 4bfb ea78 aa3f 2c99 4c11 eb5c b73f
00000020: c2db 5027 fe84 e5bf c8d9 4edd 305c adbf
00000030: 1da0 1c1c 4cc4 d1bf f161 78b9 ce0b cabf
00000040: bfee b5d3 e851 c9bf fae9 b72d 86fd cdbf
00000050: 149e 1f0f 4d2a 913f 725f b667 d0a1 c1bf
00000060: 716b 36ff 337f b3bf a749 772a 5981 b83f
00000070: 51f0 f5d3 ee42 b5bf 27fb f48d bc74 963f
00000080: 157c 4054 b6d8 b9bf c9bf f330 02f9 c23f
00000090: 14db 213d 44ec d0bf 6308 07d8 c0c2 d63f
000000a0: 1128 70c9 2e36 d6bf 23ae c880 36b4 d6bf
000000b0: 3379 2bc3 86e9 cdbf cd73 b1f2 c104 cabf
000000c0: 8b89 e4bc fe25 c3bf 3474 8155 450a a5bf
000000d0: 6c46 c552 4131 c2bf abe6 75e2 bfdf c0bf
000000e0: d118 613e a3f4 c73f 7722 de29 8af9 c93f
000000f0: f3e2 95c5 1e43 d3bf 28b8 b4b1 1e70 c5bf
00000100: b616 6bbd f407 ba3f 0d6a fbbe 3f6c c33f
00000110: 0390 1a83 7809 cdbf 3823 ec0e 6259 b23f
00000120: 1fce ef51 cdd9 dcbf 48f6 89f9 9c09 b8bf
00000130: 6f94 0649 1ace 943f 2b60 8cb7 075a b73f
00000140: ce5d a508 4edf 4e3f cc67 28dc f854 d4bf
00000150: d8fd e629 32f9 ca3f b7c6 5c91 c564 73bf
00000160: 137b 52c8 222f c3bf 4a26 5e84 0043 e13f
00000170: 5643 bcee 6216 bbbf 65d5 c6ff d823 bbbf
00000180: 0f2f 311a 8828 b2bf 9c4f 5cc4 abc9 4e3f
00000190: 0555 ae01 aec4 ccbf 9c28 6b88 f332 d33f
000001a0: 5674 70ed 0866 e5bf 0c94 9025 a3c9 be3f
000001b0: 5433 a769 f166 c2bf e869 90ef 06b6 bc3f
000001c0: ca8e d63e 53d0 65bf 1d63 880a a2b5 c7bf
000001d0: 238b 4894 813b d13f 9a2a 26fc e3ef c1bf
000001e0: 7081 9266 01d4 afbf e270 b934 954b d43f
000001f0: 02e8 f918 c3b3 77bf 2782 1665 6f93 b0bf
00000200: 02e3 f639 d450 c5bf 4e4f d6ac f1da 8cbf
00000210: ef31 4123 c922 d0bf c371 5fe2 b7b2 c23f
00000220: b535 532f 4eed e1bf 8792 653c 252b d4bf
00000230: 0ff5 22d2 e2d1 99bf feb1 1050 a011 a13f
00000240: e4bd 1cd3 4d4a bcbf 3c44 7712 61d8 d1bf
00000250: b93c 8f3a 17f3 b63f 02d7 d7a1 1a38 95bf
00000260: 56ec 3894 42ce c63f 2ab7 32c3 1f98 d23f
00000270: de40 9706 a723 ddbf 1faf afcc fdee b4bf

fcn.2.bias f8 [5]
-0.13711390387881758 -0.0777891351873052 -0.04691095724545734 -0.08152524176575389 0.0037283062105051565
00000000: a742 7eca f28c c1bf cd14 9d1f fde9 b3bf
00000010: 5ef7 6286 b604 a8bf 2db2 2e97 d6de b4bf
00000020: 4284 cb27 d38a 6e3f

exp_avg f8 [1, 1, 1]
0.0
00000000: 0000 0000 0000 0000

exp_avg_sq f8 [1, 1, 1]
0.0
00000000: 0000 0000 0000 0000

exp_avg f8 [1, 1, 1]
0.0
00000000: 0000 0000 0000 0000

exp_avg_sq f8 [1, 1, 1]
0.0
00000000: 0000 0000 0000 0000

exp_avg f8 [1]
-0.33325822742754235
00000000: 7f26 fb50 1a54 d5bf

exp_avg_sq f8 [1]
0.02168437622319658
00000000: 71e5 d9da 6d34 963f

exp_avg f8 [1, 1]
-0.28710872361451795
00000000: a785 9444 fd5f d2bf

exp_avg_sq f8 [1, 1]
0.009632166428033434
00000000: fd5e 627e 07ba 833f

exp_avg f8 [16, 5]
2.7015400342229573e-06 2.7812303688493765e-06 2.8620276130858027e-06 2.9442986086386293e-06 3.0335500423666034e-06 -2.337523313000525e-05 -2.3773258668573412e-05 -2.4151041506079145e-05
-2.4502376294369298e-05 -2.4813840846804393e-05 6.341491905019391e-06 6.464461437888064e-06 6.5832005018415915e-06 6.69616270925149e-06 6.803865536884054e-06 -1.3673903981039556e-05
-1.3895260707804654e-05 -1.4103313895413677e-05 -1.4293805125886056e-05 -1.4457341325381515e-05 -4.182867086685377e-06 -4.2134248368372955e-06 -4.236004187560497e-06 -4.248178648156794e-06
-4.239511424752397e-06 8.080863047592906e-06 8.188649748322313e-06 8.286068664645277e-06 8.369951077030076e-06 8.430225554336516e-06 -2.3276348623738285e-05 -2.3696969981262755e-05
-2.409970370197454e-05 -2.4479021266940344e-05 -2.4827644114981178e-05 -1.6486247546115436e-05 -1.676037296638552e-05 -1.701939790663903e-05 -1.7258738134866292e-05 -1.7468095154292238e-05
2.1094139092495724e-06 2.0988486518709605e-06 2.0812713569882847e-06 2.054315960475035e-06 2.0081944624919967e-06 7.759435585731404e-06 7.884486538719304e-06 8.001691059743933e-06
8.10870127495973e-06 8.20068648448917e-06 -6.355150524297371e-06 -6.442233807123048e-06 -6.521159137725892e-06 -6.5892983341784815e-06 -6.640153756521663e-06 -3.0547306982890584e-06
-3.080346435567452e-06 -3.10087669765316e-06 -3.1148685351227668e-06 -3.114271195488916e-06 5.388873554721572e-06 5.439372575088614e-06 5.4805007846199694e-06 5.509262105564877e-06
5.515194385766942e-06 4.4564084574834185e-06 4.551388404571157e-06 4.644490317154132e-06 4.7351123939911735e-06 4.82444800547272e-06 -4.783667745379438e-06 -4.877969253768415e-06
-4.969008973638587e-06 -5.05563615340447e-06 -5.1390734259462265e-06 1.0437442513209701e-05 1.0595564108257274e-05 1.0742108299597483e-05 1.0873324555053425e-05 1.098063655077079e-05
00000000: b89f 1b57 83a9 c63e a240 a690 a554 c73e
00000010: d089 de51 2802 c83e f5db 2547 d5b2 c83e
00000020: c04b c3c5 7f72 c93e 78fd 0dca bd82 f8be
00000030: 6d2b 61e5 95ed f8be 2e63 57ef fe52 f9be
00000040: 6403 4d7a 4eb1 f9be 8f4c a728 ea04 fabe
00000050: 63ac 9105 2099 da3e 654b 2ba1 291d db3e
00000060: 08ff fb5f a89c db3e f4c9 a830 f315 dc3e
00000070: 255c 6251 9889 dc3e 5c6b 930d 1fad ecbe
00000080: 16c5 0317 f623 edbe fa25 c8b3 a893 edbe
00000090: 3a4b 1d9e edf9 edbe 3583 9bdc b951 eebe
000000a0: 0ebf f3bf 518b d1be 4189 7466 21ac d1be
000000b0: 9c8c 02f7 5fc4 d1be 735e 8374 72d1 d1be
000000c0: cefd e206 24c8 d1be 5ef1 435c 61f2 e03e
000000d0: 7b6c a673 3f2c e13e f6ec 0c9b 8c60 e13e
000000e0: 6e3e 0f51 958d e13e 7e51 b260 f1ad e13e
000000f0: db69 6c7f 3268 f8be be6c 9960 1bd9 f8be
00000100: b0f3 2307 3745 f9be de2f 5088 09ab f9be
00000110: 6eb7 50b6 9e08 fabe 596c 014e 7e49 f1be
00000120: 1e01 660f 1493 f1be e468 561e 9cd8 f1be
00000130: 9d11 2974 db18 f2be 2ebe cb5b 0e51 f2be
00000140: 0655 7d8f eeb1 c13e f6c8 b33f 3e9b c13e
00000150: 8a50 5e07 7f75 c13e e6c5 9024 9c3b c13e
00000160: 4abb c794 90d8 c03e b902 d9b4 d045 e03e
00000170: 6291 1b94 f388 e03e 43fe 950b e0c7 e03e
00000180: 10bc d06a 5301 e13e 9474 a7c4 b532 e13e
00000190: ab6f 7479 caa7 dabe 9ac5 b4be 4b05 dbbe
000001a0: 7fbe 1a93 0a5a dbbe c8c1 c988 34a3 dbbe
000001b0: 0d37 fe90 cfd9 dbbe 2a41 14f6 fb9f c9be
000001c0: 1e26 9b5c fed6 c9be bd94 20fe 1403 cabe
000001d0: 20b2 3016 2121 cabe c346 1cb2 d81f cabe
000001e0: 92f6 9348 429a d63e 8a31 3959 7bd0 d63e
000001f0: 3eac ad95 a4fc d63e 60d5 b66f 861b d73e
00000200: a276 d216 e521 d73e d821 b23a 08b1 d23e
00000210: 5761 4b1e 0417 d33e 18a5 f6c6 fb7a d33e
00000220: 558b b4c8 49dc d33e 71dc 7e2b 363c d43e
00000230: 6c38 ce93 6c10 d4be 7a62 86fa ad75 d4be
00000240: 4c51 48c9 6ed7 d4be 6a5f 22af 7234 d5be
00000250: f37b 38bf 098e d5be 6662 0a2d 8fe3 e53e
00000260: 9074 133e 7338 e63e 427b 6e1f 2087 e63e
00000270: 8ad5 fc58 92cd e63e 32af 2c32 2f07 e73e

exp_avg_sq f8 [16, 5]
3.302942114206915e-11 3.261192250981422e-11 3.209822506042774e-11 3.150531223877755e-11 3.0827109644181355e-11 1.1417838617721482e-09 1.139356217528771e-09 1.1379672025886744e-09
1.1385084197760816e-09 1.1408302074450603e-09 7.921899206003735e-11 7.81868156532029e-11 7.708622487154222e-11 7.594610077410903e-11 7.483485493974376e-11 4.439209351241885e-10
4.435528955865359e-10 4.4377569789754e-10 4.4493487663776936e-10 4.469466894123363e-10 1.2122597842973296e-10 1.2228934155722942e-10 1.2360383555291026e-10 1.2532794475669471e-10
1.2721308009093482e-10 2.0841215811274105e-10 2.0963506122445396e-10 2.1130228398627615e-10 2.1363694091749996e-10 2.1640335289634105e-10 1.0694414259359607e-09 1.0625353339976252e-09
1.0557626488592624e-09 1.049778208387682e-09 1.0448999169135764e-09 5.656459353749436e-10 5.646729468297039e-10 5.642728169859903e-10 5.6490686624641e-10 5.664617619235772e-10
1.0685751651921961e-10 1.0776649361587537e-10 1.0889287198584999e-10 1.1035311311929351e-10 1.119454545548548e-10 1.0999956925098415e-10 1.1045218070254207e-10 1.1110658632256363e-10
1.1205669051918287e-10 1.1325007690515101e-10 1.1458434702316305e-10 1.150657429674081e-10 1.158046040441416e-10 1.1690499957926122e-10 1.1827774970958336e-10 3.755929460087406e-11
3.80360402477962e-11 3.860942691756406e-11 3.9349663485154164e-11 4.014778264168658e-11 1.6860953947124314e-10 1.6997474317103284e-10 1.7174479479104358e-10 1.7410315666043546e-10
1.7679876908437227e-10 4.58921339942649e-11 4.556375168608424e-11 4.520011739120825e-11 4.4819184810855674e-11 4.444367464464987e-11 5.0503932273453504e-11 4.988664093665451e-11
4.9217083817302495e-11 4.850928540781395e-11 4.7813278298130284e-11 2.9887369822229923e-10 2.99452103701924e-10 3.005685034640557e-10 3.024635884881952e-10 3.0501344859101206e-10
00000000: 5bf2 5a4f 7a28 c23d f724 2556 b8ed c13d
00000010: 387c 746f 6ca5 c13d 7b5f ea7f fa51 c13d
00000020: feb6 11ad 87f2 c03d 0b69 f657 9e9d 133e
00000030: 052c 260f f192 133e c0b6 d92a d58c 133e
00000040: cf7d 1586 368f 133e 1c2f d19f 6c99 133e
00000050: 5dc2 137e 8ac6 d53d 8fbf 9274 e87d d53d
00000060: b314 74f9 7530 d53d bf12 1853 3be0 d43d
00000070: e776 37e6 0892 d43d e329 7328 8a81 fe3d
00000080: 2f9a c0a7 107b fe3d daf6 5311 fc7e fe3d
00000090: 14df 6c8b 6093 fe3d dce5 a2f1 c4b6 fe3d
000000a0: c9b4 e58a 42a9 e03d ddc1 5477 acce e03d
000000b0: 3c26 1f60 ecfc e03d 84be 46c5 9539 e13d
000000c0: 5b81 688f e97b e13d 65c4 d1d5 d9a4 ec3d
000000d0: ff15 69c4 e0cf ec3d 0153 5cc6 890a ed3d
000000e0: 5873 b97e ae5c ed3d 5e49 721e 04be ed3d
000000f0: 3441 7800 745f 123e 5b1c fe6e 1441 123e
00000100: 9f5a 6811 4b23 123e be23 e12f f908 123e
00000110: cdc7 17b8 84f3 113e aa90 7169 796f 033e
00000120: 9e1e bc6f ea66 033e a088 956c 6563 033e
00000130: c707 192d f968 033e 7cf9 6d7d a676 033e
00000140: 5643 e5e2 6d5f dd3d b5ff dc8f 649f dd3d
00000150: 2659 3e97 a7ee dd3d f3b7 dcf4 6855 de3d
00000160: 04dd 9807 76c5 de3d 8b3c 8c13 883c de3d
00000170: f362 7399 615c de3d 32ef b252 6e8a de3d
00000180: 8045 f0e0 49cd de3d ded2 3f04 4421 df3d
00000190: 1fec 1817 287f df3d 06f2 0a26 08a1 df3d
000001a0: df02 5749 06d5 df3d c89f 05a0 3a11 e03d
000001b0: 0139 5042 8741 e03d 7fb2 8b33 00a6 c43d
000001c0: 06a3 03c6 18e9 c43d a127 9734 cb39 c53d
000001d0: ec3e d909 f9a1 c53d 7751 c24f 4c12 c63d
000001e0: b962 e0b7 6b2c e73d 5fa8 4861 745c e73d
000001f0: 9511 7096 bb9a e73d 64e1 aad2 b5ed e73d
00000200: ca14 bbbd 8d4c e83d 8af0 6461 be3a c93d
00000210: 6a14 3229 870c c93d f201 cfda 59d9 c83d
00000220: 9e29 e64f bda3 c83d a1ba ee21 e46e c83d
00000230: 40a3 aeec cbc3 cb3d e21a 07a9 eb6c cb3d
00000240: 29b5 9d52 b00e cb3d bae8 8e32 13ab ca3d
00000250: c29a 0be6 1e49 ca3d 8784 d779 d789 f43d
00000260: 562c f561 0494 f43d 214f 4033 a8a7 f43d
00000270: 1552 87e7 fec8 f43d dd2a 1374 daf5 f43d

exp_avg f8 [16]
3.934404066651325e-06 -3.0004684027316003e-05 8.317315414322275e-06 -1.7376752738671566e-05 -4.816927394268261e-06 9.96252160833828e-06 -3.0209102380903077e-05 -2.1071510149631955e-05
2.056561487215678e-06 9.85601450194425e-06 -7.857380146882986e-06 -3.5638519979857233e-06 6.341153646961564e-06 5.986229211142725e-06 -6.291126474956957e-06 1.3110508371393059e-05
00000000: c6fb 41c1 8880 d03e 32ca 9c2f 5276 ffbe
00000010: 5154 5120 5371 e13e 5fca 065b 8938 f2be
00000020: cf96 87eb 2234 d4be 31f7 358b 96e4 e43e
00000030: 0fd5 51b5 31ad ffbe 1f04 ca26 5718 f6be
00000040: 8ee9 5ba2 6e40 c13e f0a0 8c51 68ab e43e
00000050: 9a38 bb1a 667a e0be 8b0e 115b 50e5 cdbe
00000060: 7c38 c60a c398 da3e 84a0 f227 aa1b d93e
00000070: 616d 81ad 0b63 dabe 4c16 d08c a67e eb3e

exp_avg_sq f8 [16]
7.637792271566616e-11 4.075418226788962e-09 2.008688542830425e-10 1.7388085331709832e-09 6.234249492449163e-10 9.804293337817217e-10 3.2002748829630714e-09 2.0679499500746035e-09
5.774971586282456e-10 4.705200782002655e-10 5.401655534013399e-10 2.2534079478600465e-10 8.728107192904647e-10 1.1011750714248895e-10 1.239742129727796e-10 1.2814221862725663e-09
00000000: e1ea 4d56 9efe d43d 3de8 1e40 f880 313e
00000010: 55d5 6acb 719b eb3d 8859 925d 5cdf 1d3e
00000020: 3817 3f2f b46b 053e 1384 aa4b f9d7 103e
00000030: c514 a798 7a7d 2b3e 8788 fc53 78c3 213e
00000040: db13 84fe b7d7 033e 1bd1 4006 bd2a 003e
00000050: c539 48b1 588f 023e 5414 5970 79f8 ee3d
00000060: 1955 dc03 53fd 0d3e 4fb6 12a8 d444 de3d
00000070: 8559 4e70 f409 e13d 712c c21e c103 163e

exp_avg f8 [16, 16]
-4.584387038736514e-06 -9.573806472705167e-06 5.560338702773897e-06 -4.552593431372957e-06 -1.3680063885597929e-05 1.0022518037674066e-05 -4.421729097629313e-06 -3.434642880869746e-06
9.890668242984907e-06 2.1334930102614179e-07 -1.0267622899377381e-05 -2.795112422285423e-06 5.847403170280885e-06 -1.6026523281242646e-06 -4.3679383444669e-07 9.162678454247032e-06
5.457265704816639e-06 1.1339613570321015e-05 -6.605897820921741e-06 5.381144366538848e-06 1.6134980797107185e-05 -1.1856618214839958e-05 5.181595834033103e-06 4.087276050272666e-06
-1.1652433199091002e-05 -3.18931849454064e-07 1.2110143503714307e-05 3.379031899875752e-06 -6.914279058712888e-06 1.909036041035485e-06 5.486472442857257e-07 -1.0867313611066003e-05
-3.985225209082048e-06 -8.141943256371445e-06 4.790794855329028e-06 -3.835005372096748e-06 -1.1416470955600643e-05 8.476597367417408e-06 -3.584098316852191e-06 -2.980701514001422e-06
8.212138447842624e-06 3.9116941588460936e-07 -8.571200067814142e-06 -2.592340378853504e-06 4.935311696560152e-06 -1.396588534693994e-06 -4.7049538672681973e-07 7.836056084131413e-06
4.513208190550341e-07 1.000686847670087e-06 -5.606539504272709e-07 4.861322699668632e-07 1.4973622837730454e-06 -1.059512229151239e-06 5.186263638452456e-07 3.388320103751325e-07
-1.097100101360124e-06 4.501174641059735e-08 1.125725507019353e-06 2.2185601221004566e-07 -6.217920093852139e-07 1.557643869127771e-07 1.2202972017874109e-08 -9.426286592362038e-07
-7.091167088500375e-06 -1.481109530491952e-05 8.603810935529548e-06 -7.047078778406879e-06 -2.1169837871358995e-05 1.5512056499973655e-05 -6.8423322759177975e-06 -5.315808631875256e-06
1.5304514135003734e-05 3.28929496650926e-07 -1.5882721635638356e-05 -4.325811209171382e-06 9.049660021542035e-06 -2.480492911309669e-06 -6.787383467881366e-07 1.4178324469339735e-05
9.103170721514246e-06 1.9040355011633498e-05 -1.1049770953112269e-05 9.062878431867799e-06 2.724636428916103e-05 -1.9944487196297652e-05 8.823294324205897e-06 6.822602474942166e-06
-1.9705503704740927e-05 -3.894643969842689e-07 2.0444669303516357e-05 5.525447949494985e-06 -1.163755962842202e-05 3.183043978652188e-06 8.538974629172836e-07 -1.8218775968806745e-05
-3.8536819709235705e-06 -7.87207718489561e-06 4.633287792407313e-06 -3.7089510742007305e-06 -1.1037778275918754e-05 8.197907672598288e-06 -3.4638727422905382e-06 -2.8835197573160864e-06
7.938488542547367e-06 3.8040141912574416e-07 -8.284630266867522e-06 -2.509617786446281e-06 4.772676144763081e-06 -1.3510863528645152e-06 -4.5759493446287154e-07 7.5777036681177525e-06
-2.469119572799367e-07 -6.388396141792673e-07 3.292796412349438e-07 -3.295930822245503e-07 -1.0621118240272745e-06 7.018385463473716e-07 -4.153156421712372e-07 -1.8897948303720404e-07
7.96448847875163e-07 -1.2874554164847382e-07 -7.940461584161277e-07 -4.0427536699032847e-08 4.1635558029106245e-07 -8.430487323505535e-08 3.793956232292155e-08 5.826717853496205e-07
1.3263611388243816e-05 2.7648670348104313e-05 -1.6077736597311905e-05 1.3141412535541342e-05 3.945163286275049e-05 -2.8938172071036215e-05 1.2720656477828433e-05 9.938587094052358e-06
-2.851026616157738e-05 -6.750593524234142e-07 2.9604131858668142e-05 8.135921770992882e-06 -1.6879871665147043e-05 4.639637311736981e-06 1.2926286618951787e-06 -2.647790234100308e-05
-1.4707338758627544e-06 -3.00359855795346e-06 1.767770339201416e-06 -1.4162131366429386e-06 -4.214348478813712e-06 3.1306855761246033e-06 -1.322074558482482e-06 -1.1005230599932785e-06
3.030056186744648e-06 1.4426620136149507e-07 -3.1611113399973545e-06 -9.576674711804032e-07 1.8222320508479654e-06 -5.16706976731926e-07 -1.7535711163167266e-07 2.89158488435351e-06
-7.730881327562972e-06 -1.6058313018516754e-05 9.356524567931798e-06 -7.618886136906808e-06 -2.284177008761627e-05 1.6788760861674936e-05 -7.3321292591403635e-06 -5.7898808440909805e-06
1.649457490345923e-05 4.58417915317184e-07 -1.7144572972932474e-05 -4.7918259961446405e-06 9.79016441861419e-06 -2.7043240341359092e-06 -7.802294857351732e-07 1.539032303791195e-05
-1.0976015927859491e-05 -2.2936571970204257e-05 1.331852064205685e-05 -1.0914398393938505e-05 -3.27983932041646e-05 2.4023281142864204e-05 -1.0608388389875127e-05 -8.226592882447308e-06
2.371481817080038e-05 4.937593970841802e-07 -2.460882214423849e-05 -6.682276979159329e-06 1.401592586831422e-05 -3.83908009827275e-06 -1.0420819697101938e-06 2.195242969406409e-05
1.9111527739707846e-06 3.887721347671142e-06 -2.2944869244544385e-06 1.8307698124483067e-06 5.435704106979066e-06 -4.049875681835039e-06 1.6951621800130044e-06 1.4309317483308304e-06
-3.90358113176263e-06 -2.0655160496932659e-07 4.075894499821758e-06 1.2604596580047604e-06 -2.3561258269992635e-06 6.719434249053275e-07 2.3779188709175816e-07 -3.7474184796810066e-06
-6.999675278311499e-06 -1.465819417310885e-05 8.500181731020047e-06 -6.979915128545959e-06 -2.0995986799134564e-05 1.5357498772509943e-05 -6.80979619653684e-06 -5.245985573193314e-06
1.518951125287782e-05 2.791765270508721e-07 -1.57555952570946e-05 -4.23203480562981e-06 8.962192524155387e-06 -2.4468823696313107e-06 -6.468519712993811e-07 1.4020817217576407e-05
4.2988839750407725e-07 8.188740497323509e-07 -5.040405219428604e-07 3.7638635730862245e-07 1.0793890532394475e-06 -8.430701540601432e-07 3.0141180784220966e-07 3.220403896274944e-07
-7.59898240346055e-07 -1.1020309420238745e-07 8.059659021553184e-07 3.357598010422122e-07 -4.866668071983476e-07 1.5344781699829205e-07 8.436733911674774e-08 -8.048340826430368e-07
3.146991589386726e-06 6.679550372304909e-06 -3.842777922914408e-06 3.1987659983227732e-06 9.67528722310105e-06 -7.020979450132825e-06 3.1903686081455156e-06 2.3608206451249113e-06
-7.020669765718122e-06 -2.3210128856134338e-08 7.259167003461316e-06 1.8218312988526813e-06 -4.102367766404531e-06 1.0984163487092194e-06 2.451451997152394e-07 -6.367855529710917e-06
00000000: eb80 bdb6 723a d3be 06fc 3df1 e513 e4be
00000010: 0f77 b743 5e52 d73e 0867 845a 4f18 d3be
00000020: b52a f3a9 6db0 ecbe e590 e763 cc04 e53e
00000030: a7aa b1a3 cb8b d2be 587c 73e4 d6cf ccbe
00000040: a31a ab17 03be e43e 73f0 4c4c a0a2 8c3e
00000050: c63b 8f58 6388 e5be cab4 fb4d 7572 c7be
00000060: 570c cbf1 9986 d83e 18eb bbde 56e3 babe
00000070: 6651 8399 0f50 9dbe 7486 10f0 2c37 e33e
00000080: 2eb2 4ac6 b1e3 d63e 73a5 339f e8c7 e73e
00000090: be00 d35d 07b5 dbbe 82e2 4fb3 f591 d63e
000000a0: 667b 0170 33eb f03e 7774 fc32 79dd e8be
000000b0: 1058 ad37 b2bb d53e 92df c3e2 ad24 d13e
000000c0: 8cc5 6a39 da6f e8be eee7 961b 3567 95be
000000d0: 4476 1573 9565 e93e 473a a96e 6a58 cc3e
000000e0: 826b 418e 2600 ddbe a35a 98a9 9f03 c03e
000000f0: 9389 9d0c d868 a23e 5ea1 b235 58ca e6be
00000100: 0b70 3a5d 1ab7 d0be adee 0e29 2c13 e1be
00000110: bd12 95a9 1318 d43e 7ff4 f23f ce15 d0be
00000120: ec0e 0bd2 2bf1 e7be a28a d2ab d6c6 e13e
00000130: c4e0 21e3 ca10 cebe 6913 9efc 0101 c9be
00000140: e93c cbb6 db38 e13e 6177 e748 3d40 9a3e
00000150: 2e0d 6fc4 a0f9 e1be edc6 e131 02bf c5be
00000160: 9b57 3626 40b3 d43e 2401 4755 4d6e b7be
00000170: 95ea 1598 0c93 9fbe da18 f958 f36e e03e
00000180: c454 21f4 a149 9e3e 4581 24d3 eac9 b03e
00000190: 374c 4713 fbcf a2be 6904 bc2a d84f a03e
000001a0: a0d2 f33d 1f1f b93e 6a66 0604 92c6 b1be
000001b0: a3a7 5e6f f766 a13e 46aa eaf0 16bd 963e
000001c0: 04c7 7a51 0268 b2be 2060 b908 5e2a 683e
000001d0: eef0 de48 f4e2 b23e f3a3 f51e eac6 8d3e
000001e0: 4c9d b816 27dd a4be 2ed2 6d09 06e8 843e
000001f0: 6d2e dca1 a734 4a3e 7284 cf57 1ea1 afbe
00000200: a191 c52a 15be ddbe 715e 4070 a50f efbe
00000210: 246f 56c5 220b e23e 5cef c143 be8e ddbe
00000220: 39f2 5c2e bc32 f6be 0c08 e167 fc43 f03e
00000230: 8eac 80f9 e5b2 dcbe bdbe b659 ce4b d6be
00000240: 437d fb33 460c f03e f116 a339 f712 963e
00000250: e5e3 e751 7ca7 f0be 23cc 56ee cd24 d2be
00000260: 59b1 79cd 7ffa e23e 188e 3866 d1ce c4be
00000270: f4aa b568 51c6 a6be 7cb6 b913 eebb ed3e
00000280: 679a da41 3a17 e33e 0365 b73b 1bf7 f33e
00000290: 76ee b5f4 4c2c e7be ee53 f186 9801 e33e
000002a0: cddd 9be5 e391 fc3e 7c57 51b9 cee9 f4be
000002b0: 0859 8d56 f880 e23e e162 2fb0 b69d dc3e
000002c0: b5d1 45e7 a7a9 f4be b579 4888 f222 9abe
000002d0: 7f07 01fa 1270 f53e 4d9a 3991 e72c d73e
000002e0: 6e20 2c04 de67 e8be 904b e1ee 88b3 ca3e
000002f0: 0cd2 f960 eca6 ac3e bd43 58c0 901a f3be
00000300: ee05 c108 dc29 d0be 280e c90c 4a82 e0be
00000310: 1a8b 5d73 f46e d33e 80a5 9d6a e91c cfbe
00000320: 0ada e4b1 dc25 e7be 1110 e7d9 3731 e13e
00000330: 0582 bb2d 9c0e cdbe 7683 44c0 4f30 c8be
00000340: da33 b48e f1a5 e03e 1942 5b22 3f87 993e
00000350: a888 ede9 c65f e1be 020e fff7 5c0d c5be
00000360: d475 ac3a 9f04 d43e 59e5 b427 dfaa b6be
00000370: f259 15ce 6bb5 9ebe 923c e052 7fc8 df3e
00000380: cb26 b345 ea91 90be 97c0 0b2b 976f a5be
00000390: a13f 642d fb18 963e 8e95 92b4 5d1e 96be
000003a0: f8a3 ee4c bcd1 b1be 9bbc f948 bf8c a73e
000003b0: 96b4 d482 11df 9bbe e889 b11c 495d 89be
000003c0: ed53 d089 71b9 aa3e 1664 b2c2 a947 81be
000003d0: 140d e5f7 cda4 aabe e831 6d7e 51b4 65be
000003e0: 3b28 1035 eff0 9b3e 7ad9 af03 63a1 76be
000003f0: 98ef 7aad 5f5e 643e c027 6cce 1c8d a33e
00000400: 245d 53de d8d0 eb3e 2403 a528 e2fd fc3e
00000410: 699d 64a5 d5db f0be 355f 6cfc 3d8f eb3e
00000420: 9deb 89c8 1baf 043f e9e6 db0a 0858 febe
00000430: 95e9 bab6 59ad ea3e 12ba 5a02 bdd7 e43e
00000440: 7883 7d92 2ae5 fdbe a6dd 0037 b7a6 a6be
00000450: 2b53 5773 cc0a ff3e 6f51 e092 f00f e13e
00000460: d037 bdf2 27b3 f1be 7817 11cb c575 d33e
00000470: ffa1 803e ccaf b53e 6d7e 0c98 9bc3 fbbe
00000480: 25bf 74ff c0ac b8be 46f5 12c5 2d32 c9be
00000490: 3f77 0e0b 84a8 bd3e be65 a7cf 96c2 b7be
000004a0: ed2d fb49 1fad d1be 4064 d098 1843 ca3e
000004b0: e600 8f59 442e b6be b65f aee6 b576 b2be
000004c0: 6647 4c01 ff6a c93e fccd 58ed f25c 833e
000004d0: 211c 6756 6f84 cabe 84a5 2585 2611 b0be
000004e0: 4fe7 1254 6d92 be3e 12d4 7ba8 7a56 a1be
000004f0: 0ef3 4c77 3989 87be 1d7a fd99 a141 c83e
00000500: c31d 343d 7c36 e0be 0e64 2ede 9ed6 f0be
00000510: b73d dbf1 3e9f e33e 619b 7c79 b7f4 dfbe
00000520: 3912 f77c 8af3 f7be d0a6 88dc b29a f13e
00000530: fa2f 1d58 d0c0 debe f0de ef53 d648 d8be
00000540: 8eda 6c8e ba4b f13e 348e 2650 8fc3 9e3e
00000550: 3153 6415 36fa f1be 21a5 aa19 2f19 d4be
00000560: 2e22 b7f3 0d88 e43e 7263 43dc 7daf c6be
00000570: 840d a7c8 1e2e aabe dea6 2af2 4e23 f03e
00000580: f770 7524 b404 e7be 202b 5239 fd0c f8be
00000590: 1163 f189 53ee eb3e 45d4 377e 9fe3 e6be
000005a0: 3850 9a35 2032 01bf 4b38 434f b330 f93e
000005b0: 4749 5fcc 553f e6be 42d6 ff50 9e40 e1be
000005c0: f82c 45e5 e5dd f83e 0102 9765 5c91 a03e
000005d0: bcd1 7e61 e1cd f9be 4750 454f 0a07 dcbe
000005e0: b895 eb2e be64 ed3e 491b 504d 2e1a d0be
000005f0: 189f 273e b57b b1be 6510 4e7b cf04 f73e
00000600: 929f 4559 2b08 c03e b0c4 f2b4 684e d03e
00000610: fcd5 cf86 5f3f c3be 264b 52b2 18b7 be3e
00000620: b0bf baf7 8acc d63e bc6f ce59 85fc d0be
00000630: 74d3 2387 aa70 bc3e 9834 8918 ce01 b83e
00000640: aeaa 0936 705f d0be f918 9621 0fb9 8bbe
00000650: 1865 5a59 7518 d13e 48b1 e10c a225 b53e
00000660: 5718 24df bdc3 c3be e690 c037 f38b a63e
00000670: ce90 0c8f 77ea 8f3e a28a a518 856f cfbe
00000680: fa78 fc16 d85b ddbe f2df efdd 8ebd eebe
00000690: 88ce d814 80d3 e13e 34fd 0f76 a046 ddbe
000006a0: b8db f439 1104 f6be f837 9547 7f1a f03e
000006b0: f3c4 7486 f68f dcbe 647f c288 d500 d6be
000006c0: 0fcd c487 ceda ef3e f599 cc59 37bc 923e
000006d0: 02da 0043 5c85 f0be 109d 96de 1cc0 d1be
000006e0: ee6a 805c 8acb e23e 62ba 00cf a386 c4be
000006f0: 660c 1d87 6ab4 a5be 8e03 f971 5e67 ed3e
00000700: 55db b32a 6dd9 9c3e 929d 2714 137a ab3e
00000710: dca5 59d4 ace9 a0be d46f a1b4 4442 993e
00000720: be4f 9fd0 f01b b23e b184 f5df ea49 acbe
00000730: 74ed 5e26 373a 943e 6460 ae9c 9c9c 953e
00000740: d0fb 01e7 797f a9be 8a25 fc55 1995 7dbe
00000750: 2fd7 13c3 310b ab3e 4e05 b738 4f88 963e
00000760: 89aa 71a0 6f54 a0be 4b27 ba45 6d98 843e
00000770: 2b28 02ed ada5 763e cef5 55dd 7801 abbe
00000780: b266 2aec 1c66 ca3e 01dc 5ed3 1c04 dc3e
00000790: d0d1 96c0 261e d0be 1ebc 7034 4cd5 ca3e
000007a0: 2152 b959 614a e43e 8f93 cd22 b872 ddbe
000007b0: a48c d6b0 43c3 ca3e 8f62 0de0 d2cd c33e
000007c0: 261e b302 6372 ddbe 98bb ab9e f3eb 58be
000007d0: fd3b cfa1 7872 de3e 4651 6ab2 b490 be3e
000007e0: f876 e043 e234 d1be 7ae9 2b8c a96d b23e
000007f0: bfb5 85fd 8f73 903e 5d05 bbcc 6eb5 dabe
